2024:05:01_ckpts/relational/Linear/lr_0.001_epoch_100/0.pth (torch, 30291 bytes, 6 tensors)

linear.weight f4 [3, 768]
0	0xbd8ca3d7	-0.068671875
1	0x3e3944af	0.18092607
2	0x3e44a738	0.19204414
3	0x3dc77108	0.09738356
4	0xbeace193	-0.3376585
5	0xbe04c815	-0.1296695
6	0x3e824a52	0.25447327
7	0x3d0db156	0.03459295
8	0xbdf0c7e6	-0.117568776
9	0xbecad196	-0.39613026
10	0x3dbd3d35	0.0924019
11	0xbe3e2173	-0.18567447
12	0x3d853e27	0.06505995
13	0x3dc76069	0.09735186
14	0xbd129176	-0.035783254
15	0xbe44da82	-0.19223979
16	0xbe1732e7	-0.14765511
17	0x3df45b4a	0.119314745
18	0x3ea98223	0.331071
19	0xbdaef63a	-0.08543058
20	0x3e55deae	0.20885727
21	0x3bfa63f6	0.007641311
22	0x3e791aad	0.24326582
23	0x3e54b1ce	0.20770952
24	0xbe60c8b4	-0.21951562
25	0xbdb728e0	-0.08943343
26	0xbe92ff99	-0.2871063
27	0xbec326cf	-0.38115546
28	0xbd08babc	-0.03338121
29	0x3e08f096	0.13373026
30	0x3ce86f3e	0.028373357
31	0xbd7cb163	-0.061692607
32	0x3dea9923	0.1145499
33	0x3cb994cb	0.022653958
34	0xbcaedc0f	-0.021345166
35	0xbdbf68a1	-0.09346128
36	0x3e9f172e	0.31072372
37	0x3db1135b	0.0864627
38	0xbe19fc48	-0.15037644
39	0xbe577566	-0.21040878
40	0xbd637b70	-0.05553764
41	0x3e377c04	0.17918402
42	0x3d04e847	0.03244808
43	0xbdc3e0df	-0.09564375
44	0xbeaad5f3	-0.33366355
45	0x3f045c9a	0.517038
46	0x3eb47c59	0.3525112
47	0xbe5d6f43	-0.21624474
48	0x3e66d3ba	0.22541705
49	0xbdc7e7d3	-0.09761014
50	0xbde09d74	-0.10967532
51	0xbd52eac3	-0.051493417
52	0x3d68bd70	0.056821287
53	0xbda8f5a1	-0.08249975
54	0xbdc6c5c1	-0.09705687
55	0x3e82af2b	0.25524268
56	0xbdf645b9	-0.12025017
57	0xbe09bb4a	-0.13450351
58	0xbdb9c7af	-0.0907129
59	0x3e4b7a31	0.19870831
60	0xbd6ac6ac	-0.057318375
61	0xbe8bbec0	-0.27293968
62	0x3f83c3dd	1.0294148
63	0xbe8e9fee	-0.27856392
64	0x3ce76e39	0.0282508
65	0x3d92fda0	0.071772814
66	0x3dd44136	0.103640005
67	0x3e9f0e65	0.3106567
68	0x3d1d90e1	0.038468245
69	0x3e83670a	0.2566455
70	0x3d6a6d2f	0.05723303
71	0xbdbf13b8	-0.09329933
72	0xbe2332ee	-0.15937397
73	0x3dee02e2	0.116216436
74	0xbf09d469	-0.5383974
75	0xbca96e1d	-0.020682389
76	0xbe022f7b	-0.12713425
77	0x3e3a5a2c	0.1819846
78	0xbdc32bcd	-0.09529839
79	0x3e6a5885	0.2288533
80	0xbe29806a	-0.16552892
81	0x3e04f45d	0.12983842
82	0xbcb2e649	-0.021838324
83	0xbe0cce4e	-0.13750574
84	0xbd9adacb	-0.07561263
85	0x3c2b8b08	0.010470159
86	0x3d965f36	0.07342379
87	0x3e79ae42	0.2438288
88	0x3dfc7d4f	0.12328588
89	0xbd7f98f2	-0.06240172
90	0x3dd0f5c7	0.10203128
91	0x3e482eb9	0.19549073
92	0x3e90648c	0.2820171
93	0xbe350f6f	-0.17681669
94	0x3c792b2a	0.015208045
95	0x3eb93702	0.3617478
96	0xbd214a16	-0.039377294
97	0xbd8beab0	-0.068318725
98	0xbc9f5ea6	-0.019454312
99	0x3ea3ad13	0.31967983
100	0xbf11afc3	-0.56908816
101	0x3d5a7cfe	0.053341858
102	0xbd01e631	-0.03171367
103	0x3e6239cb	0.22092359
104	0xbe8ed28f	-0.27895018
105	0xbdc5a069	-0.096497364
106	0x3d0806e8	0.03320971
107	0xbdcbfe5e	-0.09960626
108	0x3d4ae092	0.049530573
109	0x3e007df8	0.12548053
110	0xbd236482	-0.039890774
111	0xbe4f0449	-0.20216478
112	0xbe2bb917	-0.16769825
113	0x3e4074ac	0.18794507
114	0x3e8db887	0.27679846
115	0xbeb3f649	-0.35148838
116	0xbe94df72	-0.29076725
117	0x3ed97ea1	0.42479423
118	0xbdc16d17	-0.09444635
119	0x3e85d506	0.26139086
120	0xbcf87253	-0.030327952
121	0x3eee3c5e	0.46530432
122	0x3d4734d5	0.04863437
123	0xbe258d34	-0.16167146
124	0x3e20f073	0.15716724
125	0x3d7bcbc2	0.061473615
126	0xbca25337	-0.01981507
127	0xbe44e4e1	-0.19227935
128	0xbe856c2b	-0.26059088
129	0x3d9c56ed	0.07633767
130	0x3c725b20	0.014792234
131	0x3db4d4c6	0.08829646
132	0x3abfa148	0.0014620209
133	0x3e7ea65b	0.24868147
134	0x3e185980	0.14877892
135	0xbe5fd011	-0.21856715
136	0x3e3dbfe7	0.18530236
137	0xbe3cbfaf	-0.18432496
138	0xbdb82863	-0.08992078
139	0xbe75dbf3	-0.24009685
140	0xbd4c904b	-0.049942296
141	0x3e1cab2c	0.15299672
142	0x3d495c66	0.049160384
143	0x3d162c95	0.03666361
144	0x3e701a04	0.23447424
145	0x3e12cd26	0.1433607
146	0xbec3b6a2	-0.38225275
147	0xbdaa6fc5	-0.083220996
148	0xbd2f025e	-0.042726867
149	0xbe78066c	-0.242212
150	0x3dc2a971	0.09504975
151	0xbe56d927	-0.20981275
152	0x3d370919	0.04468641
153	0x3e7498e6	0.23886451
154	0x3d10c919	0.03534803
155	0x3f07e172	0.5307838
156	0xbdfb8e22	-0.12282969
157	0x3e097d1b	0.1342663
158	0x3e42ebbb	0.19035237
159	0x3dd25cbb	0.10271593
160	0xbde3bfec	-0.111205906
161	0xbe7ebc6c	-0.24876565
162	0xbd83f06c	-0.06442341
163	0x3ca98be9	0.020696597
164	0x3e8b8227	0.27247736
165	0x3e0f28c9	0.13980402
166	0x3e0b4fdf	0.13604687
167	0x3be2c569	0.006920506
168	0x3e54b02d	0.2077033
169	0xbe592e00	-0.21208954
170	0x3e553746	0.20821866
171	0xbc04f43b	-0.00811487
172	0x3d1ad513	0.03780086
173	0xbe004e4b	-0.12529866
174	0xbcead848	-0.028667584
175	0x3dd13e60	0.10216975
176	0x3ea09d67	0.31370088
177	0x3e0ce44f	0.13758968
178	0x3dfc158e	0.12308799
179	0xbdd902ca	-0.10596235
180	0xbc9b6ca1	-0.018972697
181	0x3da16d51	0.078821786
182	0xbddbd5d1	-0.107341416
183	0x3e392704	0.1808129
184	0x3d326f45	0.043563146
185	0xbb958dc6	-0.00456402
186	0xbe1d9868	-0.1539017
187	0xbe6375e1	-0.22212936
188	0xbde76f98	-0.11300582
189	0xbdcbc928	-0.09950477
190	0x3eb06c92	0.34457833
191	0xbe3e5235	-0.18586047
192	0x3d74c711	0.059760157
193	0xbeab16a7	-0.3341572
194	0xbd4cf0df	-0.0500344
195	0xbe7f7143	-0.2494555
196	0xbec3227e	-0.38112253
197	0xbd93ac24	-0.072105676
198	0x3e499f45	0.19689663
199	0xbcede3c7	-0.029039277
200	0x3c6fe7cd	0.014642668
201	0x3e9c00e4	0.3046943
202	0xbf378340	-0.71684647
203	0xbdccda44	-0.10002568
204	0x3ec4c27f	0.3842964
205	0xbe00e0f6	-0.12585816
206	0x3e1dbdb6	0.154044
207	0x3da3b7c9	0.079940386
208	0x3c8f5730	0.017497629
209	0x3e852923	0.26007947
210	0x3d1b24b7	0.03787681
211	0xbdc6da23	-0.09709575
212	0x3c81a346	0.015824925
213	0x3ee94085	0.45557037
214	0xbe879775	-0.2648274
215	0x3dd95c05	0.106132545
216	0xbe22d6e0	-0.15902281
217	0x3e9c224d	0.3049492
218	0xbea12282	-0.3147164
219	0xbe3bc89d	-0.18338247
220	0x3c615ddd	0.013755289
221	0x3ea06a31	0.31331018
222	0xbded7382	-0.11594297
223	0xbea648a0	-0.32477283
224	0x3c225649	0.009908267
225	0xbd25dd70	-0.040494382
226	0x3e170734	0.14748842
227	0x3e013099	0.12616195
228	0xbd86fd1b	-0.06591245
229	0x3dc59768	0.09648019
230	0xbdcdb2e8	-0.10043889
231	0xbf17cb9b	-0.5929505
232	0x3e959da4	0.29221833
233	0x3e470926	0.19437084
234	0xbe292f05	-0.16521843
235	0xbdf1884c	-0.11793575
236	0x3da8dca5	0.082452096
237	0x3d3a6fbb	0.04551671
238	0xbe1cf06c	-0.15326089
239	0xbd589de5	-0.052884955
240	0x3e4324d8	0.19057024
241	0xbd969116	-0.07351892
242	0x3e964c36	0.2935502
243	0xbe35f815	-0.17770417
244	0xbe92ef0a	-0.28697997
245	0xbdef5317	-0.1168577
246	0x3dc3c987	0.09559923
247	0x3e54648d	0.20741482
248	0x3e71716c	0.23578423
249	0xbce9346d	-0.028467381
250	0xbe4fd7ac	-0.20297116
251	0x3ebcf3eb	0.36904845
252	0xbea90bb5	-0.33016744
253	0xbdd40b89	-0.10353763
254	0x3edeedcd	0.43540803
255	0x3e7585fb	0.2397689

linear.bias f4 [3]
0	0x3d70d28c	0.058794543
1	0xbb84cd73	-0.004052812
2	0xbc83bd4c	-0.016081475

exp_avg f4 [3, 768]
0	0x3a9d9144	0.0012021442
1	0xbb1e922f	-0.002419602
2	0xbabc6973	-0.0014374688
3	0x398bd364	0.00026669644
4	0x3a9279aa	0.0011175175
5	0x39651b93	0.00021849414
6	0xbb16d6c9	-0.0023016206
7	0xba23b4e3	-0.0006244911
8	0x38fdaaa2	0.00012095763
9	0xba9779f1	-0.0011556727
10	0x3a499bb8	0.00076907454
11	0x39f8fd84	0.0004749113
12	0xba289fbf	-0.00064324954
13	0x3a891dba	0.001046113
14	0xba397f34	-0.00070761447
15	0xbb35f935	-0.0027766947
16	0xba071f38	-0.0005154493
17	0xbb10cd57	-0.0022095048
18	0x372e5389	1.0390658e-05
19	0xb9171076	-0.00014406614
20	0xba270079	-0.0006370615
21	0xbb6d23b5	-0.0036184613
22	0x3a99aeb4	0.0011725039
23	0x3b0136b9	0.0019716455
24	0x3a54701d	0.00081038644
25	0x3a6a9293	0.0008948233
26	0xbadc1579	-0.0016791067
27	0xbadef1b3	-0.0017009288
28	0x39a6b954	0.00031800068
29	0x3a926200	0.0011168122
30	0x3ac9ed97	0.001540589
31	0xba12da2b	-0.00056019676
32	0xb99d8049	-0.00030040953
33	0xba16e1cf	-0.0005755694
34	0x3a1845ae	0.0005808723
35	0x3a4b50ba	0.00077558646
36	0x3acc78c1	0.0015599952
37	0x3b11ce46	0.0022248193
38	0xba3fe47d	-0.0007320119
39	0x3afa5c4c	0.0019100993
40	0x3ad54d4f	0.001627365
41	0x3a8f8817	0.0010950592
42	0xba91a717	-0.0011112419
43	0xb9fbce77	-0.0004802828
44	0x39459f65	0.00018846763
45	0xb9fbccf9	-0.00048027167
46	0xb977633a	-0.0002359272
47	0xba3efa6a	-0.00072852394
48	0x3b339e0d	0.0027407438
49	0xb9fd8a93	-0.00048359166
50	0xb9be958d	-0.00036351048
51	0x3b0955e6	0.002095574
52	0x3b26408b	0.002536806
53	0x3aec36b9	0.001802168
54	0x3b415255	0.0029498537
55	0x3a1f7c5d	0.00060839
56	0xb9b6728a	-0.00034799083
57	0x3a90ebc8	0.0011056596
58	0x3849e878	4.8138638e-05
59	0x3a47edc7	0.0007626679
60	0xb9784c8d	-0.0002367964
61	0x3abd5409	0.00144446
62	0xba25df2c	-0.00063275057
63	0xba212747	-0.00061475154
64	0x39600e57	0.00021367647
65	0xbb0cb77b	-0.0021471668
66	0xbad06308	-0.0015898654
67	0xbad928c9	-0.0016567941
68	0x3a2e208b	0.00066424225
69	0xbaf899a8	-0.0018966692
70	0x39ef2f87	0.00045621043
71	0xbb130e93	-0.0022439107
72	0x39d04191	0.00039721702
73	0xb7575338	-1.28343745e-05
74	0xba795b53	-0.00095122046
75	0xbaa3142c	-0.0012441925
76	0xbab78c9e	-0.0014003699
77	0xb92c996d	-0.00016460354
78	0x3976b5ee	0.00023528162
79	0x3a4d3dd2	0.00078293413
80	0x39d74ada	0.00041063764
81	0xba1ef287	-0.0006063361
82	0xbb8dd5c2	-0.0043284604
83	0xba602ea8	-0.0008551874
84	0xb9964ffb	-0.0002866982
85	0x3a978834	0.0011560977
86	0x3b0e6a3a	0.0021730796
87	0x3a7b83a0	0.0009594504
88	0x397b5d9c	0.00023972098
89	0xba4d3d42	-0.00078292575
90	0x3a9413e7	0.0011297435
91	0x39918b73	0.00027760453
92	0xb9d66eae	-0.00040899724
93	0x3a2c509e	0.0006573292
94	0x3a3ea80c	0.0007272966
95	0x3ab9a27e	0.0014162806
96	0xbad87bca	-0.0016516384
97	0x398ff296	0.00027455826
98	0xbb088671	-0.0020832086
99	0xb9bc23bb	-0.00035884776
100	0x391bf327	0.00014872533
101	0x39d7a81f	0.00041133256
102	0xba49905e	-0.0007689054
103	0xbabe7270	-0.0014529955
104	0x39d36482	0.0004031994
105	0xbb1f797f	-0.0024333892
106	0x39e5659d	0.00043753991
107	0x3aa0acfe	0.0012258587
108	0x38aeb00c	8.329758e-05
109	0xbad16f9e	-0.0015978699
110	0xbb95e9ab	-0.0045749745
111	0xb9a8683f	-0.00032121126
112	0x39e62e82	0.0004390367
113	0x3a954b51	0.0011390244
114	0xbaadebc0	-0.0013269112
115	0xba8653a5	-0.0010248317
116	0x3adff009	0.0017085086
117	0x3ad82d17	0.001649293
118	0xbab52420	-0.001381997
119	0xba866894	-0.0010254555
120	0x3aa4f01c	0.0012583765
121	0x3b013488	0.001971515
122	0x3ad02ef2	0.0015883131
123	0xbaa45ea7	-0.0012540416
124	0xb8f9bfc4	-0.000119089644
125	0xbac761d6	-0.0015211652
126	0x39bccfac	0.00036012882
127	0xb9f720f1	-0.00047136054
128	0xbb1fc627	-0.0024379583
129	0xb87c5c94	-6.0167702e-05
130	0x3a93450d	0.0011235789
131	0x39b7f9cd	0.00035090596
132	0x3ac99637	0.001537985
133	0xb854c169	-5.0724866e-05
134	0x3ab10135	0.0013504388
135	0xbb3d1980	-0.002885431
136	0xbae5682f	-0.0017502363
137	0xba0f5c42	-0.00054687646
138	0xb9689f25	-0.0002218453
139	0x3af03119	0.0018325179
140	0xba1fe4a7	-0.00060994405
141	0x3af14a1e	0.001840893
142	0xbada3832	-0.0016648828
143	0x3ac9be4d	0.0015391797
144	0x3b20b566	0.0024522184
145	0xbb910ce0	-0.0044265836
146	0x3aef9f20	0.0018281676
147	0xba4883a4	-0.00076490105
148	0x3b159681	0.0022825303
149	0xbaa86b2e	-0.0012849325
150	0xba92aab7	-0.0011189793
151	0x3a96940c	0.0011488213
152	0xbb237504	-0.0024941573
153	0xb9b0c5b3	-0.00033716633
154	0xb9cd750b	-0.0003918785
155	0x3a304f21	0.00067256583
156	0x3abd5e2d	0.0014447622
157	0x3a297405	0.00064641266
158	0xba9d6dc4	-0.0012010862
159	0x399f001d	0.00030326928
160	0x3948549b	0.00019105004
161	0x3924a944	0.00015703315
162	0x3ac36fad	0.0014910601
163	0x39ed3731	0.00045245283
164	0xb9f4f78a	-0.00046723738
165	0x39f94e89	0.00047551494
166	0xba82831d	-0.0009957288
167	0x3adf9c11	0.0017060061
168	0x3a926fa6	0.001117219
169	0x3a0bbfb1	0.00053309934
170	0x39efa213	0.00045706387
171	0xb9b1f910	-0.00033945637
172	0x3b07bcb4	0.002071184
173	0x39817015	0.00024688305
174	0x3a04252a	0.0005040938
175	0xbb6f8cf9	-0.0036552532
176	0xb9636aa3	-0.00021688132
177	0xbab3db37	-0.0013721947
178	0x39de663b	0.00042419307
179	0xba53b987	-0.0008076657
180	0x3b0ada88	0.0021187384
181	0xba260b2c	-0.0006334062
182	0x3acaae7e	0.001546338
183	0x3a89d62f	0.0010516102
184	0xbb2e40cd	-0.0026588917
185	0xba155b9b	-0.0005697549
186	0xb9947a8d	-0.00028320067
187	0x3aab897b	0.0013087237
188	0x3a083c8d	0.0005197011
189	0x3b12c469	0.0022394902
190	0xba41ce1a	-0.0007393077
191	0x3a939116	0.0011258449
192	0xba58bacb	-0.00082675804
193	0x3a800a94	0.0009768778
194	0xb9b3dafc	-0.00034304697
195	0x3aaf9186	0.001339481
196	0x3ab89af4	0.0014084266
197	0xbb41ae54	-0.002955337
198	0xb99262a8	-0.00027920795
199	0xba23fcba	-0.0006255616
200	0x39f876f5	0.00047390876
201	0xbb2519de	-0.002519242
202	0x39c2a332	0.00037124153
203	0x38ee0b38	0.00011350814
204	0x380e6b0b	3.395513e-05
205	0xba0fc990	-0.0005485052
206	0x393bb847	0.00017902358
207	0x3aa6490c	0.0012686565
208	0xbb2ed7dd	-0.0026678958
209	0x3a8947c0	0.0010473654
210	0xb840cafe	-4.596542e-05
211	0xbb21daef	-0.0024697145
212	0x3a8765b1	0.0010329989
213	0xb984f766	-0.00025361328
214	0x3a78e631	0.00094947504
215	0xba8f256e	-0.0010921189
216	0xbade0907	-0.0016939946
217	0x3b0233f6	0.0019867397
218	0x39e3498d	0.00043351614
219	0xbb444a28	-0.0029951427
220	0x3a8d2bb1	0.0010770467
221	0xbb19a36c	-0.0023443354
222	0x3ac7307f	0.0015196948
223	0xb985f0a7	-0.00025547037
224	0xba8dd2b6	-0.0010820243
225	0xbaba1fcd	-0.0014200151
226	0xba777412	-0.0009439598
227	0x3a279b03	0.0006393643
228	0x3a8d35c2	0.0010773467
229	0xba00eea1	-0.0004918371
230	0x3ab1a5b7	0.0013553415
231	0x3b304065	0.002689385
232	0xbab34470	-0.0013677012
233	0xba031dc6	-0.000500169
234	0xbac8f423	-0.0015331547
235	0x39b93642	0.00035326375
236	0xb9072844	-0.00012889603
237	0xb8d37199	-0.00010082423
238	0x3a90f178	0.0011058291
239	0x3b0b3cc9	0.0021245948
240	0xb924e0e9	-0.00015724044
241	0x3abeaa65	0.0014546631
242	0xbaa7ca7f	-0.0012801437
243	0xb8aea9c7	-8.32859e-05
244	0xbab5b354	-0.0013862648
245	0xbb07ebd9	-0.0020739941
246	0xba4742c8	-0.0007601199
247	0x3919e88e	0.0001467785
248	0xbb675300	-0.0035297275
249	0x3a860a18	0.0010226397
250	0xba51040e	-0.00079733215
251	0x3929a98c	0.00016180257
252	0xbae5ba3b	-0.0017526814
253	0x3b2de3c4	0.0026533464
254	0xbaac63c9	-0.0013152297
255	0x3b0932cf	0.0020934825

exp_avg_sq f4 [3, 768]
0	0x396db9bb	0.00022671271
1	0x38280a06	4.0063656e-05
2	0x384a1bcf	4.818645e-05
3	0x37c39801	2.3316594e-05
4	0x38809435	6.131121e-05
5	0x37f89c3f	2.9636662e-05
6	0x3893739f	7.031042e-05
7	0x38296b5c	4.0392726e-05
8	0x384f2b3e	4.939292e-05
9	0x387bd1c0	6.003841e-05
10	0x380a7c6f	3.301765e-05
11	0x371a2be8	9.189338e-06
12	0x387960b4	5.9456288e-05
13	0x377d6126	1.5102594e-05
14	0x382f69b7	4.1821706e-05
15	0x38a8bfbd	8.046578e-05
16	0x378fc213	1.7137301e-05
17	0x390910af	0.00013071553
18	0x3834eb23	4.3134332e-05
19	0x3827a2fc	3.9967694e-05
20	0x3793a574	1.760081e-05
21	0x388bf30b	6.673307e-05
22	0x37d55738	2.5432193e-05
23	0x38763893	5.870366e-05
24	0x3805f7cf	3.194046e-05
25	0x3889999b	6.56128e-05
26	0x382a0b8f	4.0541923e-05
27	0x3885503f	6.356881e-05
28	0x388cac43	6.7078065e-05
29	0x37ba1c5c	2.2186134e-05
30	0x380c7649	3.3488763e-05
31	0x37a94d04	2.0182233e-05
32	0x37f3ca71	2.9062126e-05
33	0x387038a5	5.7273213e-05
34	0x37e93a08	2.7802787e-05
35	0x38aecdee	8.335324e-05
36	0x38109c2d	3.4477725e-05
37	0x3845e0e1	4.7177895e-05
38	0x37c92256	2.3977056e-05
39	0x3825076c	3.9345978e-05
40	0x37b6ab1a	2.1775766e-05
41	0x3856a3b9	5.1174055e-05
42	0x3843bf1d	4.666961e-05
43	0x390820e2	0.0001298222
44	0x3818c706	3.642498e-05
45	0x38537e4d	5.0423947e-05
46	0x370dbd95	8.448395e-06
47	0x37f9c424	2.9774448e-05
48	0x38465a7d	4.7291152e-05
49	0x38531fce	5.033594e-05
50	0x37e2f1d7	2.7053915e-05
51	0x38ae2973	8.304687e-05
52	0x389529ff	7.112696e-05
53	0x38707660	5.7330704e-05
54	0x387accd1	5.9795395e-05
55	0x38159980	3.5667326e-05
56	0x39367bb5	0.00017402957
57	0x37c2f780	2.3241853e-05
58	0x38733303	5.7983223e-05
59	0x37cd29ee	2.445743e-05
60	0x389bcd92	7.4292664e-05
61	0x37f3e02c	2.9072246e-05
62	0x37929a27	1.7476339e-05
63	0x380fc51d	3.4277433e-05
64	0x3832f7fd	4.2669464e-05
65	0x384a9948	4.8303307e-05
66	0x388597b4	6.370191e-05
67	0x386b74e5	5.6137233e-05
68	0x389ca009	7.4684685e-05
69	0x382c4814	4.1075124e-05
70	0x3873e28e	5.814671e-05
71	0x3810f996	3.456472e-05
72	0x38cf8de5	9.896959e-05
73	0x380b4fe3	3.3214583e-05
74	0x38221fa2	3.865327e-05
75	0x3882cc42	6.236929e-05
76	0x37ca984f	2.41512e-05
77	0x3aba02bd	0.001419149
78	0x3840c907	4.596359e-05
79	0x38911c14	6.919369e-05
80	0x3850572a	4.9672242e-05
81	0x38424f0c	4.6326822e-05
82	0x3d31f1ee	0.043443613
83	0x37dcec27	2.633601e-05
84	0x384b28fd	4.8437145e-05
85	0x389d057d	7.487366e-05
86	0x38a4a458	7.850741e-05
87	0x37cc083d	2.4322531e-05
88	0x37fc9b81	3.0113153e-05
89	0x38684b4b	5.5383232e-05
90	0x38190b4f	3.6488575e-05
91	0x38392ea8	4.415089e-05
92	0x383cb0a4	4.4987202e-05
93	0x385a920c	5.2111267e-05
94	0x38869386	6.417096e-05
95	0x381d3921	3.7484922e-05
96	0x3840b283	4.594262e-05
97	0x39b5ec06	0.0003469886
98	0x38ecf66d	0.00011299257
99	0x3870e309	5.7431902e-05
100	0x38122217	3.484086e-05
101	0x380e7823	3.3967324e-05
102	0x383a0521	4.4350632e-05
103	0x3879b135	5.9531263e-05
104	0x382ae201	4.074164e-05
105	0x3874ff1a	5.8411715e-05
106	0x379faeea	1.9035728e-05
107	0x3899324b	7.304976e-05
108	0x38a63d1a	7.926878e-05
109	0x387b1c43	5.9869384e-05
110	0x3b2b34b4	0.0026123943
111	0x37f31c92	2.8981161e-05
112	0x380b69a1	3.3238557e-05
113	0x383631f6	4.343871e-05
114	0x38705272	5.7297242e-05
115	0x38089928	3.2567565e-05
116	0x38711124	5.747484e-05
117	0x37cd263c	2.4455709e-05
118	0x38626306	5.397482e-05
119	0x380a7e96	3.3019656e-05
120	0x3887b38c	6.470745e-05
121	0x38551f4e	5.0812312e-05
122	0x38522a2c	5.0107177e-05
123	0x37f2754b	2.8903267e-05
124	0x381a8d8e	3.6848294e-05
125	0x38155db5	3.561164e-05
126	0x3836c4ad	4.357535e-05
127	0x382e8460	4.1608117e-05
128	0x384da900	4.9033202e-05
129	0x38d68fad	0.00010231077
130	0x3907e2fb	0.0001295916
131	0x37b28bd2	2.1284362e-05
132	0x3860ca98	5.3594442e-05
133	0x38aa3ea1	8.117897e-05
134	0x3810ec86	3.4552555e-05
135	0x3854f2c6	5.077084e-05
136	0x3799f6dc	1.8353974e-05
137	0x385fa9f4	5.3325624e-05
138	0x385ab056	5.2139476e-05
139	0x38839bf6	6.275617e-05
140	0x388035e3	6.113553e-05
141	0x386cb572	5.643577e-05
142	0x38674b33	5.5144727e-05
143	0x385f0f0f	5.3181368e-05
144	0x38e49953	0.00010900446
145	0x39376a90	0.00017491938
146	0x3845d3c7	4.7165693e-05
147	0x38a34047	7.784418e-05
148	0x38e1535d	0.00010744364
149	0x38525e77	5.015588e-05
150	0x383304f5	4.2681542e-05
151	0x3808eb82	3.264426e-05
152	0x38a40cf0	7.822539e-05
153	0x37f663ee	2.9372019e-05
154	0x380386ea	3.1358482e-05
155	0x37a7146e	1.9917465e-05
156	0x38a9aea1	8.091075e-05
157	0x382051e7	3.822325e-05
158	0x38137700	3.515836e-05
159	0x387c539c	6.015935e-05
160	0x37ebb47a	2.8098224e-05
161	0x37ee2806	2.8390448e-05
162	0x389dbce4	7.521527e-05
163	0x379a8f80	1.8425053e-05
164	0x37f89821	2.9634744e-05
165	0x3833fa06	4.2909778e-05
166	0x388f653a	6.837626e-05
167	0x3862a1da	5.4033335e-05
168	0x38683aaa	5.5367746e-05
169	0x37949201	1.7710963e-05
170	0x380f8e4a	3.4226374e-05
171	0x38819989	6.1797975e-05
172	0x3889b539	6.5664244e-05
173	0x38532398	5.033947e-05
174	0x389b55c3	7.40695e-05
175	0x38ac7cb8	8.22483e-05
176	0x3859fbae	5.1971227e-05
177	0x37ab4f1c	2.0421627e-05
178	0x389c557f	7.4545846e-05
179	0x387be89c	6.0059698e-05
180	0x3864a888	5.4516393e-05
181	0x38a7751b	7.984993e-05
182	0x37f1cbb2	2.8824292e-05
183	0x386ea7a8	5.6899764e-05
184	0x3897a6b0	7.231289e-05
185	0x3844b5ac	4.6899237e-05
186	0x3856903e	5.1155912e-05
187	0x37fbeeef	3.0032794e-05
188	0x382cd38a	4.1205007e-05
189	0x388fdea3	6.860241e-05
190	0x384d61d7	4.896693e-05
191	0x38569186	5.1157105e-05
192	0x3884db12	6.3350555e-05
193	0x3827a519	3.9969662e-05
194	0x38942fbd	7.066082e-05
195	0x3839cd71	4.429877e-05
196	0x3802fd6e	3.123044e-05
197	0x38906245	6.884759e-05
198	0x38046a0a	3.157001e-05
199	0x38c2076e	9.252025e-05
200	0x38959833	7.133223e-05
201	0x38d67d9f	0.00010227714
202	0x378d98da	1.6879687e-05
203	0x389f7d39	7.605035e-05
204	0x3812f015	3.5032706e-05
205	0x387383c3	5.8058427e-05
206	0x37956fdc	1.7814273e-05
207	0x3993902d	0.00028145444
208	0x38a2eee4	7.769259e-05
209	0x38522fcb	5.0112412e-05
210	0x389363c3	7.028088e-05
211	0x38b0ae8c	8.424846e-05
212	0x385c597d	5.253543e-05
213	0x37e9a56b	2.7852793e-05
214	0x37515a21	1.24783555e-05
215	0x3816a200	3.591366e-05
216	0x382c5021	4.108262e-05
217	0x39e78856	0.00044161332
218	0x376109eb	1.3413354e-05
219	0x39dd6e6d	0.00042234678
220	0x38a09641	7.6573815e-05
221	0x38b51f59	8.6365915e-05
222	0x3819c58e	3.666203e-05
223	0x384bb757	4.856972e-05
224	0x3832fe27	4.2675205e-05
225	0x38150085	3.5524852e-05
226	0x38b4991c	8.611588e-05
227	0x3843c37e	4.667369e-05
228	0x37ccd3f8	2.44174e-05
229	0x38013f9b	3.0815234e-05
230	0x385ab0b1	5.2139807e-05
231	0x38462745	4.724345e-05
232	0x37e11f26	2.6836595e-05
233	0x382c1d07	4.103503e-05
234	0x383b9a2f	4.472787e-05
235	0x37e18677	2.6884705e-05
236	0x38637c58	5.423682e-05
237	0x38752734	5.8449063e-05
238	0x389a6318	7.36175e-05
239	0x38c30564	9.299329e-05
240	0x391e4eec	0.00015097455
241	0x38b259bc	8.504416e-05
242	0x383e5179	4.5375407e-05
243	0x382727b1	3.985287e-05
244	0x38899b33	6.561577e-05
245	0x38be0f27	9.062728e-05
246	0x38224ae6	3.8693564e-05
247	0x3861c139	5.3824133e-05
248	0x389b0e70	7.393665e-05
249	0x37bf062f	2.2771854e-05
250	0x37d99fd9	2.594285e-05
251	0x3804eeb5	3.1693566e-05
252	0x37d2444f	2.506576e-05
253	0x3862c721	5.4068052e-05
254	0x3809ee1c	3.2885102e-05
255	0x38476fcf	4.7549427e-05

exp_avg f4 [3]
0	0x3ac4a920	0.0015004016
1	0xbc4d99e6	-0.012548899
2	0x3c3504c8	0.011048503

exp_avg_sq f4 [3]
0	0x3b67c57c	0.0035365513
1	0x3b9b9d55	0.00474898
2	0x3b828f3a	0.003984359
