2024:05:01_ckpts/relational/Linear/lr_0.001_epoch_100/1.pth (torch, 30291 bytes, 6 tensors)

linear.weight f4 [3, 768]
-0.013322152 0.10697196 0.9013698 -0.48675773 0.02415793 -0.2219497 -0.33478293 0.21694472
-0.31542993 -0.5890679 -0.06947195 0.41109306 0.2084325 -0.0065061855 -0.09542888 -0.2647639
-0.1844463 -0.121338986 -0.17332876 0.15106744 0.27499816 0.051051926 -0.2616243 -0.10139651
0.34336087 -0.13146426 0.08351253 0.07187273 -0.0019424526 0.5386343 0.04895515 0.097409874
0.8523032 0.061859153 0.27115163 0.6322161 -0.4791868 0.3462983 0.013865227 -0.5481557
0.24285972 -0.08492234 -0.20871037 -0.004291612 -0.40771264 -0.2781126 0.031392634 -0.037784945
0.32980913 0.13097829 0.4139482 -0.078181125 0.17713286 0.010378959 -0.5144615 -0.005737979
0.20187965 -0.12005639 0.08191137 -0.0806926 0.17789325 -0.010344019 0.6242061 -0.32796022
0.061844215 0.07356299 -0.02513036 0.23748894 0.12649506 0.2686277 0.34666592 -0.6873463
-0.08532195 0.23247615 0.043930087 0.06450056 -0.45325905 0.03645709 0.405017 0.22121702
0.04111603 -0.15151455 -0.032194678 -0.12938233 0.51983166 -0.0644164 -0.0711384 0.63127786
-0.29525256 -0.501172 -0.005622342 0.19171743 0.19987622 0.16571549 -0.10141392 0.18846866
0.0145038 0.16823249 0.33103767 0.18095766 -0.17693944 -0.24214432 -0.82323915 -0.12033137
0.031065265 -0.085895866 0.20412818 -0.09115879 -0.07526087 0.03926075 0.027110796 -0.2435788
-0.31993082 -0.10361949 0.38155884 -0.04528407 -0.05076073 0.35687932 0.03355594 0.048975922
-0.57874805 0.058475763 -0.26145223 -0.2616646 -0.63298696 -0.07024356 0.08746246 -0.636157
-0.00670029 -0.009684956 0.30997214 0.20148617 -0.12177622 0.25336432 0.5756115 -0.013784183
0.020384597 -0.31034124 0.028261336 -0.18078971 0.3201889 -0.18906173 0.13278812 -0.12148226
0.02208335 -0.10331107 -0.19710231 0.07252922 0.029904038 -0.42432266 -0.44341293 -0.45866045
0.39453027 0.32089096 0.00029581456 -0.14440694 0.006709847 0.0049995943 0.35655636 0.45246175
0.24059163 -0.091135606 0.4355443 0.33256367 0.29178926 0.14145716 -0.07071225 0.33918768
-0.017681304 -0.6121035 -0.39752963 -0.36777505 -0.009757877 0.20182744 -0.16984554 -0.25269186
0.12439252 -0.022389933 0.2090966 -0.23579916 -0.06406766 -0.22626379 -0.9442286 0.2481157
0.12495072 0.12520766 -0.2552816 0.13303128 0.2821665 -0.21280688 0.14040384 -0.3225545
-0.17276055 -0.14234754 -0.29610652 0.40313584 0.27150592 0.0313402 0.04072528 -0.32896212
0.078228176 0.0038395298 -0.0635801 0.15745336 0.112914115 -0.0237027 0.028478129 -0.017506486
0.2421353 0.16088247 0.08182954 0.019812923 -0.1604852 0.11379847 -0.32232255 -0.2822131
-0.028881434 0.14972945 -0.18153158 -0.10720294 0.40043053 -0.19795257 0.04454664 0.55713916
0.43821332 0.60874516 0.03998724 -0.02026665 0.29536474 0.21054812 -0.306759 0.007498202
0.28117853 0.108494855 0.17085895 -0.02516586 0.3883726 -0.41689757 -0.2050575 -0.41628247
0.103395134 -0.0055222125 0.26254392 0.27191818 -0.17758524 -0.12599102 -0.6094296 0.3132207
-0.066468805 -0.10643712 0.086362325 -0.015100026 -0.21952276 -0.013629664 -0.1574426 -0.10025946
00000000: 2845 5abc 1d14 db3d 2cc0 663f 4f38 f9be
00000010: dae6 c53c c846 63be ab68 abbe c226 5e3e
00000020: 0880 a1be 27cd 16bf 4f47 8ebd ca7a d23e
00000030: 546f 553e d731 d5bb 3770 c3bd 228f 87be
00000040: 7edf 3cbe 9380 f8bd 187d 31be 6cb1 1a3e
00000050: 8fcc 8c3e d31b 513d 9ff3 85be f9a8 cfbd
00000060: ffcc af3e 919e 06be 9e08 ab3d 0332 933d
00000070: e599 feba f0e3 093f 3285 483d d47e c73d
00000080: 8b30 5a3f 0660 7d3d 63d4 8a3e ead8 213f
00000090: f957 f5be 034e b13e fa2a 633c ef53 0cbf
000000a0: 38b0 783e c4eb adbd 2cb8 55be a7a0 8cbb
000000b0: b6bf d0be c664 8ebe 9095 003d 63c4 1abd
000000c0: bedc a83e 2c1f 063e 05f1 d33e 6d1d a0bd
000000d0: 5162 353e 820c 2a3c c0b3 03bf a805 bcbb
000000e0: 8ab9 4e3e 20e0 f5bd 26c1 a73d 2942 a5bd
000000f0: a629 363e f679 29bc f9cb 1f3f 67ea a7be
00000100: 5c50 7d3d 31a8 963d 2fde cdbc 4d30 733e
00000110: ec87 013e 9289 893e 327e b13e edf5 2fbf
00000120: 46bd aebd 3a0e 6e3e 09f0 333d df18 843d
00000130: 9211 e8be 0854 153d 635e cf3e b786 623e
00000140: 4869 283d a126 1bbe 91de 03bd cd7c 04be
00000150: b013 053f bfec 83bd 02b1 91bd 6d9b 213f
00000160: 582b 97be cf4c 00bf a03b b8bb 9351 443e
00000170: 5aac 4c3e 52b1 293e 1ab2 cfbd eefd 403e
00000180: 59a1 6d3c 2345 2c3e c57d a93e f74c 393e
00000190: 9d2f 35be aef4 77be cdbf 52bf 4b70 f6bd
000001a0: 957c fe3c 2cea afbd fa06 513e 76b1 babd
000001b0: 5f22 9abd e1cf 203d 7617 de3c b96c 79be
000001c0: f9cd a3be 7536 d4bd ae5b c33e ca7b 39bd
000001d0: 7cea 4fbd e3b8 b63e f471 093d fa9a 483d
000001e0: d528 14bf 4884 6f3d 11dd 85be e7f8 85be
000001f0: 6f0b 22bf dbdb 8fbd 851f b33d 2fdb 22bf
00000200: 1b8e dbbb a6ad 1ebc abb4 9e3e 6452 4e3e
00000210: d065 f9bd f8b8 813e 465b 133f 0ed7 61bc
00000220: 99fd a63c 0ce5 9ebe 5184 e73c f020 39be
00000230: cdef a33e 6699 41be 9cf9 073e b1cb f8bd
00000240: 24e8 b43c c194 d3bd 30d5 49be 338a 943d
00000250: 50f9 f43c d240 d9be 0507 e3be 8bd5 eabe
00000260: dfff c93e d24b a43e 8f17 9b39 6adf 13be
00000270: 47de db3b a3d3 a33b 8e8e b63e 11a9 e73e
00000280: a75d 763e 4ea5 babd aaff de3e c945 aa3e
00000290: 6765 953e 25da 103e 96d1 90bd 02aa ad3e
000002a0: 62d8 90bc d1b2 1cbf 0189 cbbe 034d bcbe
000002b0: 81df 1fbc daab 4e3e fdeb 2dbe d460 81be
000002c0: 81c1 fe3d 186b b7bc 6b1d 563e 5675 71be
000002d0: e835 83bd b2b1 67be f7b8 71bf 0b12 7e3e
000002e0: 2ae6 ff3d 7036 003e 45b4 82be 5a39 083e
000002f0: 2178 903e 0cea 59be 06c6 0f3e dd25 a5be
00000300: 24e8 30be 8ec3 11be 469b 97be d267 ce3e
00000310: d302 8b3e 955e 003d 8dcf 263d b96d a8be
00000320: 1836 a03d 9fa0 7b3b 4936 82bd 743b 213e
00000330: 843f e73d 2a2c c2bc f74a e93c c369 8fbc
00000340: 51f2 773e 60be 243e 3f96 a73d b64e a23c
00000350: 3b56 24be 2c0f e93d 7607 a5be 3c7e 90be
00000360: c298 ecbc ad52 193e 6ae3 39be 378d dbbd
00000370: 3b05 cd3e 14b4 4abe 8a76 363d aca0 0e3f
00000380: 7f5d e03e b9d6 1b3f a9c9 233d 3f06 a6bc
00000390: 0c3a 973e ed99 573e 840f 9dbe 7ab3 f53b
000003a0: a2f6 8f3e 8d32 de3d a6f5 2e3e a228 cebc
000003b0: c6d8 c63e 9973 d5be 98fa 51be fa22 d5be
000003c0: d4c0 d33d adf3 b4bb 286c 863e dc38 8b3e
000003d0: e8d8 35be ca03 01be 9403 1cbf 775e a03e
000003e0: cc20 88bd b4fb d9bd bbde b03d 1966 77bc
000003f0: 93ca 60be f44e 5fbc a238 21be d554 cdbd

linear.bias f4 [3]
0.009178843 0.013662556 -0.06294614
00000000: dc62 163c ead8 5f3c e8e9 80bd

exp_avg f4 [3, 768]
-3.07146e-05 -0.0015103131 -0.001216882 -0.00021280657 -7.433246e-05 -0.0004948142 0.0010299903 -0.0015774422
0.0017395627 -0.0018564541 -0.0008783872 0.0014650729 0.0023881283 -0.00082964904 0.001036335 -0.00015841928
0.0013362523 0.00085120555 0.0007228915 0.00029790765 -0.0004824896 0.0021465214 0.0004853154 0.0010305947
0.00091943034 0.002032131 0.0022844495 0.001739115 0.00085217744 0.0013702754 0.00077263213 0.0015819655
-0.001685447 0.0006483983 -0.000109794484 -0.000108559914 0.0009109537 0.00037242044 -0.002651654 -0.00041013522
0.0019970017 -0.0036900304 -0.002003688 0.00014884352 -0.00020942978 0.0005290106 -0.002231997 -0.0023893144
-0.00065738213 0.0008172626 -0.00024950266 -7.781631e-06 -0.0011167525 -0.0005042746 -0.00028045042 -0.0014986648
0.00048473658 -9.230748e-05 -0.0010319526 -0.0007869911 0.0019955 0.007414432 -0.003476735 0.00046840525
-0.0025895473 0.0014569985 0.0011057102 -0.00089819264 0.0009966647 -0.0005298647 0.0007847727 -8.648328e-05
0.0015111986 0.0010521681 -0.000703848 0.0016518789 -0.00046227552 -0.019480955 0.0013107876 -0.0015058066
0.0012583093 0.0019584352 -0.024100827 -0.0032869913 -0.00015668636 -0.0042544524 0.00069037575 -0.0010140255
0.0002782583 -0.0008406731 -0.0006296116 -0.0018394912 0.0016995369 0.004010654 0.0028933801 0.0008460692
-0.00016559451 -0.0036455635 -0.00097572623 0.0020728207 -0.0005237341 3.324675e-05 -0.001930264 5.5728065e-05
0.0019523512 -0.0053071086 0.0006432303 -0.0019915877 -0.00040443384 0.0007675342 -0.002075024 0.0011617872
0.0015512677 -0.000502917 0.0011468936 0.0009392151 -0.00071943493 -0.000800189 0.00034233907 -0.0011582456
0.00092598016 0.0023289807 0.0024270874 -0.0018290355 0.00030465593 0.0017542972 -0.002085444 -5.150647e-05
-0.0009059855 0.00075251795 -0.0006092435 0.0013984173 -6.643918e-05 -0.0024227158 -0.0005771992 -0.0005144002
-0.00014873572 0.00012943547 -0.0010184029 0.0023272291 -0.001828333 0.0009885695 -0.00037028987 -0.0018140622
-0.0023690674 0.00022185154 0.0008745902 -0.0019442484 0.0044117547 -0.0017828661 0.0007533185 0.0012014535
-0.000782574 -0.0012831538 0.00040089097 -0.0001574253 0.0017627883 9.7505086e-05 -0.0014468882 -0.0027170572
-0.00082938885 -0.00052809407 0.00041065342 -0.002307428 -0.001154053 3.1150565e-05 -0.0018178225 -0.00061647873
0.0016043865 0.00015189327 -0.0010867176 0.0029031883 -0.00072732975 0.0009267499 -0.0019623828 -0.0004221335
0.0015746071 -0.0006235395 -0.00021904947 0.0010926486 -7.932098e-05 0.0013901271 -0.00087008096 -0.00018728508
-8.043306e-05 0.00387681 0.0008478599 0.0011276612 0.0007350588 -0.0014046907 -0.0011066335 0.0024262627
0.0006025261 -0.0012864285 -2.582268e-05 0.0009111903 -0.0014622738 0.0002829725 -0.0010024103 -0.0014370672
0.0017613694 0.00044995997 0.00067525933 -0.0021134082 -0.00022875259 0.00045640295 0.001932885 0.00042387427
-4.1148567e-05 -0.0004153257 -0.00019276376 -0.0016157302 0.00081801537 0.0011352997 0.002188943 0.0007372153
-0.00032755017 -0.0036163346 0.001111074 -0.0037529455 0.00031370128 -0.0008442299 0.0017477588 -0.0028517195
0.00047007977 -0.0010042638 0.000356185 0.0012784704 0.0018993584 -0.002356501 -0.0020929351 -0.0022657064
0.00044229624 -0.00058748334 -0.0020424682 -0.00037963607 0.0012617157 0.0003856476 -0.0020887605 0.0019175779
0.0064676343 0.00040157055 -0.0016498318 -0.00048226322 -0.0015740732 0.0022054275 0.0017779298 -0.0012841976
0.00036808287 -0.0019003199 -9.147469e-06 -0.0007414352 -0.0016607856 0.0013616185 -0.0021328295 0.0022664007
00000000: 8dd3 00b8 b3f5 c5ba c97f 9fba d424 5fb9
00000010: f0e2 9bb8 6bb6 01ba bd00 873a 2dc2 ceba
00000020: 0a02 e43a 4354 f3ba 9143 66ba b007 c03a
00000030: 2582 1c3b ce7c 59ba a2d5 873a 5a1d 26b9
00000040: 3025 af3a 7023 5f3a 6d80 3d3a 7d30 9c39
00000050: a8f6 fcb9 a7ac 0c3b ee71 fe39 0515 873a
00000060: ed05 713a 802d 053b b4b6 153b 04f3 e33a
00000070: a964 5f3a d09a b33a 778a 4a3a f459 cf3a
00000080: 37ea dcba 46f9 293a 7741 e6b8 a9aa e3b8
00000090: 11cd 6e3a 6d41 c339 5fc7 2dbb 6b07 d7b9
000000a0: 21e0 023b 70d4 71bb 4e50 03bb e112 1c39
000000b0: 619a 5bb9 4dad 0a3a b246 12bb 0b96 1cbb
000000c0: 2b54 2cba 913d 563a aecf 82b9 da8d 02b7
000000d0: ff5f 92ba 4c31 04ba 6b09 93b9 d96e c4ba
000000e0: 3e24 fe39 3395 c1b8 9542 87ba 144e 4eba
000000f0: efc6 023b c3f4 f23b efd9 63bb 4a94 f539
00000100: 65b5 29bb c2f8 be3a 7aed 903a b074 6bba
00000110: 85a2 823a 9ee6 0aba 34b9 4d3a 5b5e b5b8
00000120: 6913 c63a e7e8 893a 7182 38ba dc83 d83a
00000130: 925d f2b9 8696 9fbc bcce ab3a 7c5e c5ba
00000140: dbed a43a 1759 003b 196f c5bc 906a 57bb
00000150: 2d4c 24b9 ef68 8bbb 55fa 343a 0de9 84ba
00000160: 32e3 9139 9e60 5cba 850c 25ba 151b f1ba
00000170: ffc2 de3a ce6b 833b dd9e 3d3b beca 5d3a
00000180: 70a3 2db9 68ea 6ebb e1c7 7fba 29d8 073b
00000190: 334b 09ba 6d72 0b38 ea00 fdba 8ebd 6938
000001a0: 09e6 ff3a 41e7 adbb 749e 283a 4c85 02bb
000001b0: 310a d4b9 5934 493a 20fd 07bb 1c47 983a
000001c0: e853 cb3a 30d6 03ba 5d53 963a a935 763a
000001d0: 7698 3cba c6c3 51ba f97b b339 46d0 97ba
000001e0: 7abd 723a d0a1 183b c50f 1f3b 3fbc efba
000001f0: 3aba 9f39 72f0 e53a f2ab 08bb a708 58b8
00000200: a87f 6dba a044 453a a4b5 1fba 194b b73a
00000210: 4355 8bb8 6dc6 1ebb 2f4f 17ba d0d8 06ba
00000220: f1f5 1bb9 12b9 0739 ee7b 85ba 6d84 183b
00000230: ada4 efba e392 813a 7723 c2b9 d4c5 edba
00000240: 5b42 1bbb d2a0 6839 c144 653a 27d6 feba
00000250: 7b90 903b 0faf e9ba 597a 453a 177a 9d3a
00000260: a725 4dba 7f2f a8ba ad2e d239 8812 25b9
00000270: 5c0d e73a a57b cc38 83a5 bdba a810 32bb
00000280: 586b 59ba cb6f 0aba f84c d739 3838 17bb
00000290: 9843 97ba aaa7 0238 0044 eeba 309b 21ba
000002a0: 474a d23a 8a45 1f39 3170 8eba 6b43 3e3b
000002b0: 46aa 3eba 22f1 723a 529b 00bb cd51 ddb9
000002c0: 0c63 ce3a 0775 23ba a5b0 65b9 3437 8f3a
000002d0: 2059 a6b8 ed34 b63a 2516 64ba f561 44b9
000002e0: 2cae a8b8 1412 7e3b ea42 5e3a 08ce 933a
000002f0: f6b0 403a 991d b8ba 750c 91ba ef01 1f3b
00000300: d8f2 1d3a 619d a8ba c89d d8b7 f2dc 6e3a
00000310: c4a9 bfba ed5b 9439 4f63 83ba f95b bcba
00000320: c0dd e63a 9be8 eb39 e303 313a 1b81 0abb
00000330: 4edd 6fb9 5e49 ef39 dc58 fd3a 713b de39
00000340: f096 2cb8 12c0 d9b9 a120 4ab9 e9c6 d3ba
00000350: 1570 563a 56ce 943a 5f74 0f3b ae41 413a
00000360: 0abb abb9 0700 6dbb 75a1 913a faf3 75bb
00000370: 4678 a439 4f4f 5dba 0e15 e53a eae3 3abb
00000380: 0a75 f639 80a1 83ba 57be ba39 5992 a73a
00000390: e4f3 f83a 876f 1abb a029 09bb 3f7c 14bb
000003a0: ffe3 e739 5701 1aba eeda 05bb e409 c7b9
000003b0: 2760 a53a bf30 ca39 96e3 08bb 3d57 fb3a
000003c0: 73ee d33b e389 d239 2b3f d8ba 46d8 fcb9
000003d0: 2251 ceba ef88 103b 6d09 e93a 8552 a8ba
000003e0: 3ffb c039 2814 f9ba 1578 19b7 e05c 42ba
000003f0: b8ae d9ba 5678 b23a f1c6 0bbb e587 143b

exp_avg_sq f4 [3, 768]
4.151229e-05 0.00010287475 3.912132e-05 0.00011897144 0.00012760502 5.1636554e-05 5.7948826e-05 4.1588057e-05
8.996403e-05 0.00011317746 0.00010914858 8.331987e-05 0.00015410007 8.303008e-05 0.00016661215 0.00025794408
0.00013571384 0.00024119 9.191381e-05 3.62111e-05 3.1704603e-05 0.00012857231 4.8231832e-05 5.4291042e-05
7.551598e-05 6.229353e-05 5.9048783e-05 4.5514967e-05 8.080618e-05 2.7206772e-05 0.000107607775 0.00016210417
3.420024e-05 6.234396e-05 6.458794e-05 2.3206476e-05 3.3345266e-05 7.8549274e-05 0.00014770147 5.0987837e-05
0.00014747826 0.00014433597 7.1857925e-05 5.7034613e-05 3.663296e-05 3.4655837e-05 2.528558e-05 0.00012787379
5.25517e-05 3.577154e-05 4.638513e-05 4.2985816e-05 4.577961e-05 6.103869e-05 4.2710522e-05 0.00010814536
5.7239504e-05 6.4874504e-05 0.00010703208 0.00015957699 0.00017468457 0.001388109 3.3006e-05 0.000105881656
0.00012609203 0.0001476298 8.305598e-05 0.00010602875 5.9810474e-05 6.7085864e-05 6.7039444e-05 3.6245943e-05
9.6414486e-05 0.00013708389 3.2787986e-05 0.00024999553 4.931971e-05 0.014426431 7.515602e-05 0.00029305508
4.184193e-05 8.6103355e-05 0.021165438 0.000103612096 6.709228e-05 0.00031163509 5.706261e-05 5.638503e-05
3.232864e-05 4.208831e-05 0.00011264508 7.160609e-05 5.0970422e-05 0.00013706215 0.00010421234 8.75047e-05
0.00011025209 0.0010449565 5.021736e-05 0.00011194671 0.0002520236 3.4786826e-05 0.00010807266 5.413908e-05
9.805618e-05 0.00021581407 4.9295315e-05 0.0001849818 3.483049e-05 4.3472424e-05 0.0036881573 4.743724e-05
4.607462e-05 5.7322504e-05 7.2343035e-05 0.00017179974 0.0001380598 5.405961e-05 4.2151813e-05 6.5183354e-05
5.206562e-05 9.993745e-05 0.00034462567 5.3101314e-05 6.642633e-05 7.393079e-05 9.179551e-05 2.6065414e-05
9.801057e-05 9.2355505e-05 3.804087e-05 7.121329e-05 7.100698e-05 0.0001982833 3.7253336e-05 4.7139783e-05
0.00024625487 4.800505e-05 8.13631e-05 0.00011902058 4.9139388e-05 6.407123e-05 4.7260095e-05 0.000103402315
0.00055452384 9.833681e-05 4.9709757e-05 5.9102276e-05 0.00020620723 6.807007e-05 5.9250335e-05 0.00012222322
8.434746e-05 6.6598586e-05 7.2864364e-05 9.127555e-05 0.00014814787 4.7438196e-05 6.0346672e-05 0.00020123525
3.700375e-05 4.55165e-05 7.3081035e-05 0.00015039243 3.257704e-05 5.1672396e-05 0.00012928116 0.000104054
5.7066143e-05 2.5913392e-05 5.2316525e-05 0.00019102167 4.1804287e-05 5.796155e-05 7.6229335e-05 3.0615047e-05
0.00011174734 3.186496e-05 5.0277657e-05 6.583798e-05 0.00013408715 0.00016242126 6.704796e-05 0.00016715346
6.174198e-05 0.00018369265 5.0061713e-05 0.0002199074 7.011899e-05 9.6868884e-05 4.2129177e-05 0.00014843619
5.8429083e-05 8.6173415e-05 6.721132e-05 9.8034485e-05 5.9794176e-05 4.290022e-05 7.021282e-05 5.8100766e-05
0.00014855916 3.4153825e-05 4.8214406e-05 5.8357644e-05 0.00014546089 5.538677e-05 0.00026778106 2.1667247e-05
7.30548e-05 9.573819e-05 3.1178115e-05 0.00024313793 0.00012894026 6.939089e-05 5.2217365e-05 0.00015619745
9.0933056e-05 0.001990691 3.4013912e-05 0.0013951628 7.28381e-05 3.3890497e-05 0.00017416447 9.818167e-05
0.00012531817 7.3400435e-05 4.8275273e-05 5.2027295e-05 3.5870966e-05 8.098267e-05 9.6696334e-05 0.00010815033
7.975638e-05 5.523935e-05 9.306486e-05 9.3765375e-05 5.20256e-05 4.0318824e-05 6.729766e-05 6.681754e-05
0.00050429255 9.8141165e-05 7.307383e-05 8.971632e-05 7.341402e-05 0.00021055587 4.100498e-05 0.00010593873
3.7588998e-05 0.00026521442 3.1004412e-05 9.2016286e-05 4.7254776e-05 7.479808e-05 0.00015106688 6.198451e-05
00000000: 7b1d 2e38 76be d738 3316 2438 4e80 f938
00000010: b6cd 0539 5494 5838 140e 7338 d66e 2e38
00000020: 12ab bc38 b059 ed38 b3e6 e438 04bc ae38
00000030: ec95 2139 6f20 ae38 9cb4 2e39 ab3c 8739
00000040: 684e 0e39 f3e7 7c39 dac1 c038 5fe1 1738
00000050: 8ffa 0438 5ed1 0639 894c 4a38 90b6 6338
00000060: 555e 9e38 96a3 8238 26ab 7738 53e7 3e38
00000070: 7d76 a938 193a e437 7cab e138 82fa 2939
00000080: 3a72 0f38 a9be 8238 6373 8738 87ab c237
00000090: 35dc 0b38 d2ba a438 50e0 1a39 c6db 5538
000000a0: 65a4 1a39 e458 1739 6eb2 9638 7338 6f38
000000b0: 57a6 1938 6c5b 1138 5f1c d437 dc15 0639
000000c0: f56a 5c38 6609 1638 a78d 4238 ab4b 3438
000000d0: 7b03 4038 e601 8038 1324 3338 19cc e238
000000e0: 7314 7038 3c0d 8838 6976 e038 1f54 2739
000000f0: 882b 3739 36f1 b53a ec6f 0a38 c80c de38
00000100: 9237 0439 13cd 1a39 572e ae38 c05b de38
00000110: 02dd 7a38 73b0 8c38 8797 8c38 c906 1838
00000120: 2232 ca38 2dbe 0f39 d585 0938 d511 8339
00000130: a3dc 4e38 d65c 6c3c 159d 9d38 30a5 9939
00000140: 6e7f 2f38 6392 b438 2463 ad3c 524a d938
00000150: e5b3 8c38 f462 a339 8356 6f38 f77e 6c38
00000160: 9d98 0738 fb87 3038 de3b ec38 3a2b 9638
00000170: 13c9 5538 57b8 0f39 938c da38 ba82 b738
00000180: 2437 e738 ecf6 883a 7ba0 5238 efc4 ea38
00000190: 0922 8439 12e8 1138 11a5 e238 6513 6338
000001a0: 83a3 cd38 264c 6239 71c2 4e38 adf7 4139
000001b0: f416 1238 2956 3638 03b5 713b 59f7 4638
000001c0: 3f40 4138 926d 7038 dfb6 9738 2425 3439
000001d0: 25c4 1039 10be 6238 2acc 3038 0cb3 8838
000001e0: 0961 5a38 8395 d138 e0ae b439 1ab9 5e38
000001f0: 5d4e 8b38 4a0b 9b38 5782 c038 0da7 da37
00000200: 068b cd38 fcae c138 138e 1f38 5858 9538
00000210: 95e9 9438 45ea 4f39 7740 1c38 f5b7 4538
00000220: c51b 8139 0859 4938 7ba1 aa38 b09a f938
00000230: 041b 4e38 fb5d 8638 2439 4638 b2d9 d838
00000240: 775d 113a 2c3a ce38 727f 5038 96e4 7738
00000250: 5539 5839 d7c0 8e38 9083 7838 0c29 0039
00000260: b3e3 b038 d8aa 8b38 c2ce 9838 306b bf38
00000270: 2458 1b39 60f8 4638 bf1c 7d38 ad02 5339
00000280: 7934 1b38 f8e8 3e38 1543 9938 a9b2 1d39
00000290: 55a3 0838 d0ba 5838 a68f 0739 9137 da38
000002a0: 4e5a 6f38 9660 d937 716e 5b38 fd4c 4839
000002b0: 0357 2f38 be1b 7338 50dd 9f38 a868 0038
000002c0: e559 ea38 bea6 0538 39e1 5238 7f12 8a38
000002d0: bf99 0c39 a04f 2a39 199c 8c38 ea45 2f39
000002e0: 797b 8138 9f9d 4039 5bf9 5138 f196 6639
000002f0: d90c 9338 1626 cb38 dcb3 3038 89a5 1b39
00000300: c011 7538 00b8 b438 cdf3 8c38 dd97 cd38
00000310: 82cb 7a38 c3ef 3338 393f 9338 39b1 7338
00000320: 8cc6 1b39 6440 0f38 d339 4a38 0bc5 7438
00000330: dc86 1839 174f 6838 f764 8c39 0fc2 b537
00000340: ff34 9938 0dc7 c838 3fc5 0238 d7f2 7e39
00000350: 2334 0739 f385 9138 f803 5b38 efc8 2339
00000360: 50b3 be38 4176 023b 29aa 0e38 e5dd b63a
00000370: a8c0 9838 a525 0e38 eb9f 3639 e2e6 cd38
00000380: d767 0339 8fee 9938 2e7b 4a38 e237 5a38
00000390: 2874 1638 3dd5 a938 73c9 ca38 c4ce e238
000003a0: e142 a738 cdb0 6738 d12b c338 e7a3 c438
000003b0: 1036 5a38 021c 2938 2822 8d38 6520 8c38
000003c0: 8032 043a 23d1 cd38 373f 9938 1526 bc38
000003d0: daf5 9938 a9c8 5c39 c3fc 2b38 6c2b de38
000003e0: e1a8 1d38 7a0c 8b39 bc0a 0238 def8 c038
000003f0: 6e33 4638 eadc 9c38 b567 1e39 aefd 8138

exp_avg f4 [3]
0.0064878413 -5.2512554e-05 -0.0064353226
00000000: f597 d43b ed40 5cb8 66df d2bb

exp_avg_sq f4 [3]
0.0015513311 0.0013765768 0.0004953889
00000000: 0956 cb3a 416e b43a fcdc 013a
