2024:05:01_ckpts/relational/Linear/lr_0.001_epoch_100/10.pth (torch, 30301 bytes, 6 tensors)

linear.weight f4 [3, 768]
0	0xbe19d1a0	-0.15021372
1	0x3dfd83b6	0.123786375
2	0x3d4d66e3	0.05014695
3	0x3b90c6fb	0.0044182516
4	0x3e672d80	0.2257595
5	0x3de40155	0.111330666
6	0x3d9079fa	0.07054515
7	0x3e5d1065	0.21588285
8	0x3e91541f	0.28384492
9	0xbdbd7eea	-0.092527226
10	0x3e12168a	0.1426641
11	0x3d9f6bd8	0.077842414
12	0x3ed6fda2	0.4199038
13	0x3dfc26e1	0.12312103
14	0x3cb3c764	0.021945663
15	0x3e69212a	0.22766557
16	0xbe45260d	-0.19252796
17	0x3ce3ecda	0.0278229
18	0x3cd55e1c	0.026045851
19	0x3aa0a2fa	0.0012255602
20	0xbdc40336	-0.09570925
21	0x3dc970ba	0.09835954
22	0xbe7754a4	-0.24153382
23	0xbe11ab27	-0.14225446
24	0xbc62802e	-0.013824506
25	0x3ed6f880	0.41986465
26	0x3dd399b6	0.103320524
27	0xbe375e0f	-0.17906974
28	0x3d8953a4	0.06705406
29	0x3e84a521	0.25907233
30	0x3e32f41e	0.17475936
31	0x3d92cedb	0.07168361
32	0xbdf9393c	-0.1216912
33	0x3e22adc3	0.15886597
34	0xbe1c2743	-0.15249352
35	0x3f21ae52	0.63156617
36	0x3d985268	0.07437593
37	0xbe8b3a7c	-0.27193058
38	0xbde7464a	-0.112927034
39	0xbe9fe160	-0.31226635
40	0xbeb3a8a3	-0.35089597
41	0x3d9adfff	0.07562255
42	0x3dee3ed0	0.11633074
43	0xbdddca56	-0.10829608
44	0x3ebb0b68	0.3653214
45	0xbe04d4fe	-0.12971875
46	0xbe763287	-0.24042712
47	0x3e9799fd	0.2960967
48	0xbecd7e01	-0.40135196
49	0x3b45efb2	0.0030202684
50	0xbdb3dee2	-0.08782746
51	0x3dc7faae	0.0976461
52	0xbe2ddb94	-0.16978294
53	0x3e60c7a8	0.21951163
54	0x3e18040a	0.14845291
55	0x3e62f9c9	0.22165598
56	0x3d77d97e	0.06051015
57	0x3e709154	0.23492938
58	0x3e73a1f4	0.23792249
59	0x3d7e3990	0.062066615
60	0xbdc16870	-0.09443748
61	0x3de49880	0.111618996
62	0x3ca88cef	0.020575015
63	0x3e2a41df	0.1662669
64	0x3e6d0d30	0.23149562
65	0xbde7b828	-0.11314422
66	0xbb515773	-0.0031942993
67	0xbeafbf16	-0.34325475
68	0xbcc95a61	-0.024579229
69	0xbf180930	-0.5938902
70	0x3e377c35	0.17918475
71	0x3f01f5cf	0.507657
72	0x3e5b151c	0.21394771
73	0x3e20c7b5	0.15701182
74	0x3f2bf077	0.67163795
75	0x3d95869e	0.07301067
76	0xbde5662e	-0.1120113
77	0x3db99965	0.09062461
78	0x3e2f0bb6	0.17094311
79	0x3e047d35	0.12938388
80	0xbdca92b5	-0.098912634
81	0x3d2b67fe	0.04184722
82	0xbdb7c04b	-0.08972224
83	0x3e48748f	0.19575714
84	0xbe1fe164	-0.15613323
85	0x3d3d83b8	0.046268195
86	0xbe255d68	-0.16148913
87	0xbd137145	-0.035996694
88	0xbe05a850	-0.13052487
89	0xbdede183	-0.116152786
90	0xbeb3dc3e	-0.3512897
91	0x3f036bae	0.5133618
92	0x3b9fa0ff	0.004871487
93	0x3befe1fb	0.00732064
94	0x3d33c8a6	0.043892525
95	0x3df10901	0.117692955
96	0xbe94451f	-0.28958985
97	0xbe205a08	-0.15659344
98	0x3d90ed11	0.07076467
99	0xbd4308c7	-0.047615793
100	0x3e298c4e	0.16557428
101	0xbddc1eac	-0.10748038
102	0x3e9d5eba	0.30736333
103	0xbb43a1c5	-0.002985106
104	0x3e77250e	0.24135229
105	0xbee7fc31	-0.45309594
106	0xbd5f003a	-0.054443575
107	0xbef5af10	-0.47985125
108	0x3c2cdfc3	0.010551396
109	0xbe30e21d	-0.17273755
110	0xbdf5ef18	-0.12008494
111	0xbe8f1e17	-0.27952644
112	0x3e0e052f	0.13869165
113	0x3c883f73	0.016631817
114	0xbcdfda01	-0.027325632
115	0xbd552a3e	-0.05204224
116	0x3e690553	0.22755937
117	0x3e86006d	0.261722
118	0x3ed202bf	0.4101772
119	0x3cfe77d7	0.031063003
120	0xbe93993b	-0.28827843
121	0xbe853412	-0.2601629
122	0x3df03bdd	0.11730168
123	0xbf2fc509	-0.68660027
124	0xbc52f8d7	-0.012876711
125	0xbcd31717	-0.025767846
126	0x3e9c2443	0.30496415
127	0xbec31b20	-0.38106632
128	0xbed5b5f9	-0.41740397
129	0x3dcf6798	0.10127181
130	0xbd627fa8	-0.055297524
131	0xbe139730	-0.14413142
132	0x3e957287	0.2918894
133	0xbdb9c8fc	-0.09071538
134	0xbd85d953	-0.06535592
135	0x3e7959de	0.24350688
136	0x3e1ff230	0.15619731
137	0x3d4c1566	0.049825095
138	0xbe98ce83	-0.29845056
139	0x3eb556ec	0.3541788
140	0x3e5b871a	0.21438256
141	0x3de01226	0.109409615
142	0x3e368307	0.1782342
143	0x3e09ce39	0.13457574
144	0x3e397b87	0.18113528
145	0xbdab2ebb	-0.083585225
146	0x3e89da8f	0.2692456
147	0x3d34f5f8	0.044179887
148	0x3d0de8bb	0.034645777
149	0xbda90c5c	-0.082543105
150	0x3d5e0467	0.054203417
151	0x3e97669e	0.29570478
152	0xbef3ed63	-0.4764205
153	0x3eb45b02	0.35225683
154	0xbdaacd2c	-0.08339915
155	0xbf05abd3	-0.5221531
156	0xbe97b6ac	-0.29631555
157	0xbea31abf	-0.31856343
158	0x3f090e8d	0.5353783
159	0x3d269aa3	0.040674817
160	0x3e52813b	0.2055711
161	0x3c9fb1a7	0.01949389
162	0x3ba88c3d	0.005143671
163	0x3e1065fb	0.14101402
164	0x3d83b34b	0.06430682
165	0x3df5e55f	0.1200664
166	0x3e2b2060	0.16711569
167	0xbd736363	-0.059420954
168	0xbe27cb93	-0.16386251
169	0x3e3c7603	0.18404393
170	0x3e00330d	0.12519474
171	0x3eed74b6	0.46378106
172	0x3eefc57b	0.46830353
173	0xbe39a8ca	-0.18130794
174	0xbf045b84	-0.5170214
175	0x3e148724	0.14504677
176	0x3bbb61cf	0.005718447
177	0xbc326859	-0.010889136
178	0x3e2450e3	0.16046481
179	0xbd42ad0e	-0.04752832
180	0xbef40d6a	-0.47666484
181	0xbe154d15	-0.14580186
182	0xbe002195	-0.1251281
183	0xbefd596d	-0.4948229
184	0xbec98b02	-0.39363867
185	0xbe011edd	-0.1260943
186	0xbeb82305	-0.35964218
187	0x3db972c4	0.09055093
188	0xbda13b3a	-0.07872625
189	0x3ca30b9d	0.019902999
190	0xbea539b6	-0.32270592
191	0x3d5cfb54	0.053950623
192	0x3e5223f9	0.20521535
193	0x3e4d25c3	0.20033936
194	0x3e8a3e10	0.27000475
195	0xbe13d4ab	-0.14436595
196	0x3c615df1	0.0137553075
197	0xbd64fe7e	-0.055906765
198	0x3c304f6b	0.010761122
199	0xbdce9b8f	-0.10088264
200	0x3e4bbdb1	0.1989658
201	0x3d9da8c9	0.07698209
202	0xbee2779f	-0.4423189
203	0xbd8c16ab	-0.06840261
204	0x3e342bd8	0.1759485
205	0x3e029a24	0.12754112
206	0xbde129e3	-0.109943174
207	0xbda82c7d	-0.082116105
208	0xbd244b2b	-0.04011075
209	0xbcd05b92	-0.02543429
210	0xbe7c30e8	-0.24628031
211	0x3d9eb713	0.077497624
212	0xbe8e79cd	-0.27827302
213	0x3cc32589	0.02382161
214	0xbe433688	-0.19063771
215	0x3e5d6138	0.21619117
216	0xbe94bb94	-0.2904936
217	0x3dc62542	0.09675075
218	0xbcb3266d	-0.021868909
219	0xbddf6dd6	-0.109096214
220	0x3e83ce16	0.2574317
221	0x3dfbbe77	0.12292188
222	0xbd2e6818	-0.04257974
223	0x3e467915	0.19382127
224	0x3d90f761	0.07078434
225	0xbeb7e554	-0.3591715
226	0xbc833f38	-0.016021356
227	0x3d34d214	0.04414566
228	0x3e8f1afb	0.27950272
229	0xbdb7f27b	-0.08981796
230	0x3dff1421	0.12455011
231	0x3cca7385	0.024713287
232	0xbd090fe5	-0.033462424
233	0xbe36b6cc	-0.17843169
234	0x3eb43799	0.35198668
235	0x3d74b97f	0.059747215
236	0x3d8faf93	0.0701591
237	0xbea8a713	-0.32939968
238	0x3d92e5e0	0.071727514
239	0x3d27a2f8	0.040926903
240	0xbec8dff4	-0.39233363
241	0xbdb43633	-0.087994
242	0x3e604f38	0.2190522
243	0x3df01d0f	0.117242925
244	0xbd4ad6cb	-0.04952125
245	0xbe1bae9d	-0.15203328
246	0x3d2540b4	0.04034491
247	0xbcdeec78	-0.027212366
248	0x3e31be64	0.17357785
249	0xbcac4535	-0.021029094
250	0xbc8d48c1	-0.017246606
251	0xbea65cfb	-0.32492813
252	0xbd8c61d1	-0.068545945
253	0xbe042ed0	-0.12908483
254	0x3ec67656	0.38762158
255	0x3ee69ecb	0.45043024

linear.bias f4 [3]
0	0x3c8e9050	0.017402798
1	0x3d6d7ca8	0.05798021
2	0xbc991146	-0.018684994

exp_avg f4 [3, 768]
0	0x3b8b1ee0	0.004245624
1	0x3afb8190	0.0019188393
2	0x3b650cfb	0.0034950364
3	0xbc20bec5	-0.009811108
4	0xbb455697	-0.0030111426
5	0x3bced724	0.006312268
6	0xbaae05fa	-0.0013276928
7	0xbbb3e227	-0.005489606
8	0x3b2e8ff7	0.0026636103
9	0xbbb44599	-0.0055014607
10	0x3ac94315	0.0015355075
11	0xbb917935	-0.004439498
12	0xbaae9417	-0.0013319281
13	0x3ba5f62d	0.005064747
14	0xb9a4843f	-0.0003137905
15	0x39a1d233	0.00030864924
16	0xbbb5c773	-0.005547458
17	0x3adb94b6	0.0016752693
18	0xba1fff41	-0.00061034044
19	0xbaa9e947	-0.0012963199
20	0x3a58d649	0.0008271677
21	0xbae8dc41	-0.0017765836
22	0xbb9f4b66	-0.004861283
23	0x3bb64faa	0.005563696
24	0x399f7654	0.00030415005
25	0x39a0ebb2	0.00030693185
26	0x3b56c285	0.0032769751
27	0xb8ed6573	-0.00011319937
28	0x3b814006	0.0039443998
29	0xbb379fed	-0.0028018907
30	0x39d6920c	0.00040926074
31	0xbae33fce	-0.0017337741
32	0xbaec5e77	-0.0018033524
33	0xba6f9830	-0.0009139804
34	0xbac4020b	-0.0014954222
35	0xbab77d23	-0.0013999086
36	0xba7cab25	-0.00096385396
37	0x3ab27734	0.0013615848
38	0xbb29e619	-0.0025924502
39	0x3b5b7a0b	0.0033489491
40	0xbb711a8c	-0.0036789505
41	0x3bff2e5a	0.007787508
42	0xba8d3092	-0.0010771921
43	0x3b063abe	0.002048179
44	0x3ae1d037	0.001722819
45	0x3b48a21f	0.003061421
46	0xbb5e0151	-0.0033875296
47	0xbb871071	-0.004121833
48	0xbafced61	-0.0019296819
49	0xb9f466a8	-0.00046615792
50	0x3ab32aa0	0.001366932
51	0xb970955c	-0.00022943824
52	0xba3b1cb2	-0.000713776
53	0xbbb0681e	-0.0053835055
54	0x3947b8cf	0.00019046965
55	0x3b84da67	0.004054356
56	0x3b75d1f9	0.0037509187
57	0xbb3adc6c	-0.002851273
58	0xbb78e129	-0.0037976003
59	0x3aeb1b9a	0.0017937303
60	0x39312eca	0.00016897466
61	0x3ab8b805	0.0014092928
62	0x3aec7cf1	0.0018042607
63	0x3ac193fe	0.0014768837
64	0xbb51fc38	-0.0032041203
65	0xbb3e2764	-0.0029015178
66	0xb8be3b27	-9.070924e-05
67	0xbaa86868	-0.0012848498
68	0x3a9632b4	0.0011459203
69	0xbb338e27	-0.0027397962
70	0x38e12bc6	0.000107369895
71	0xbaed0978	-0.0018084487
72	0xba48a537	-0.00076540135
73	0x3b5fb8ce	0.0034137252
74	0x3a237f41	0.0006236919
75	0xbaa3ebc2	-0.0012506174
76	0x3a02c86d	0.0004988972
77	0x3c74c0c9	0.014938542
78	0xba2b38d6	-0.00065316015
79	0x3a7275c5	0.00092491164
80	0x3a8ef287	0.0010906019
81	0x3ac59339	0.0015073783
82	0x3c793806	0.015211111
83	0x3b3e8147	0.0029068755
84	0xb9b7bb42	-0.00035043998
85	0x3bd632ad	0.0065368027
86	0x3a799450	0.00095206965
87	0xbb31dec1	-0.0027140828
88	0x3919a7b5	0.00014653693
89	0x3b18f5a3	0.002333977
90	0x39840ca4	0.0002518642
91	0xbb1e76b1	-0.0024179632
92	0xbb44cc8f	-0.0030029153
93	0xbb70c10a	-0.0036736154
94	0xbb6429d1	-0.0034814964
95	0x3b4194da	0.0029538185
96	0xbb8f6e25	-0.004377144
97	0x3b0c2860	0.002138637
98	0x3b0cb082	0.0021467512
99	0xbb1d10f1	-0.0023966397
100	0x3b620628	0.0034488533
101	0xb9d1d433	-0.00040021687
102	0xbbe90c31	-0.007112049
103	0xba0a9fde	-0.00052881043
104	0xba8c6a9b	-0.0010712923
105	0xb90baf50	-0.00013321382
106	0x3b409350	0.002938468
107	0xba797a81	-0.00095168507
108	0x3943e971	0.00018683613
109	0xba9cc254	-0.001195977
110	0x3b05a244	0.0020390907
111	0xbb390bf6	-0.002823589
112	0xbb32ebea	-0.002730126
113	0x3a077659	0.00051674765
114	0xb94b322e	-0.00019378282
115	0xba03681f	-0.00050127687
116	0xbb99db79	-0.0046953526
117	0xba9905b7	-0.0011674677
118	0xbba1d913	-0.0049392073
119	0xbbb9e11e	-0.005672588
120	0x39ff45ba	0.0004868934
121	0x3b0aafa5	0.0021161821
122	0xbc015230	-0.00789313
123	0x3ae37f30	0.001735663
124	0xbb0fa6c1	-0.0021919461
125	0xba018df0	-0.000494211
126	0x38c248d7	9.264208e-05
127	0x3b13f57d	0.0022576742
128	0xb9977be9	-0.00028893285
129	0x3accc672	0.0015623106
130	0xba69428a	-0.000889816
131	0xbbf658d9	-0.0075179157
132	0xbb390854	-0.0028233724
133	0x3b72c0ad	0.0037041113
134	0xb8ee7a18	-0.00011371466
135	0x3b18ab7f	0.002329558
136	0x3ae770b0	0.0017657485
137	0xb9f49324	-0.00046648935
138	0x3acf645b	0.0015822755
139	0x3a0e387f	0.00054252887
140	0xbb7401ce	-0.003723252
141	0x3b332a29	0.0027338362
142	0xba0a7d5a	-0.0005282961
143	0xb9335400	-0.00017102063
144	0xb96f4d04	-0.00022821507
145	0xb8642ad3	-5.439932e-05
146	0xbb28d0a8	-0.0025759134
147	0x3b49ca26	0.0030790656
148	0xbb22c3df	-0.0024835987
149	0xb9b248cd	-0.00034005046
150	0x3b479ae7	0.003045732
151	0xbb7d5350	-0.0038654394
152	0x3b4cfc71	0.0031278396
153	0xbb09a75e	-0.00210043
154	0xbb1389a7	-0.0022512467
155	0xbab0305d	-0.0013442148
156	0x3a7125d6	0.00091990584
157	0x3b650dc5	0.0034950834
158	0x3b060e63	0.0020455352
159	0x3af6bac3	0.001882397
160	0xbb861039	-0.0040912894
161	0xbb64f225	-0.0034934368
162	0x3b7937a2	0.0038027545
163	0xbb9e3635	-0.0048282393
164	0x38454e9e	4.7041678e-05
165	0x39e8bbfb	0.00044390545
166	0xbb4d9426	-0.003136882
167	0xb9def6cd	-0.0004252702
168	0x3b850c98	0.004060339
169	0x3b33269c	0.0027336245
170	0xbb6a3e44	-0.003574268
171	0xba0a4412	-0.00052744255
172	0x39a7f8ff	0.0003203824
173	0x3a52f7e5	0.00080478034
174	0x3ade70be	0.0016970856
175	0x39b356af	0.00034206125
176	0x3a05be10	0.0005101869
177	0x3b07aec1	0.0020703527
178	0xb862adff	-5.4044645e-05
179	0x3b4e5d38	0.0031488668
180	0x3a408908	0.0007344638
181	0x3b54e230	0.003248345
182	0xbad40948	-0.0016177082
183	0x3a3f0010	0.0007286081
184	0xb9fc9203	-0.00048173973
185	0xbb0cc2f8	-0.0021478515
186	0x3ab1abb7	0.0013555203
187	0xbabadbf6	-0.0014256227
188	0x3b41a5ab	0.0029548209
189	0x3b350e21	0.002762683
190	0x3b071f5e	0.0020618062
191	0xbbb97fbf	-0.0056609805
192	0x3a0cb3ef	0.00053673884
193	0x3ba6bbb5	0.0050882944
194	0x3bcdb329	0.006277461
195	0x3b2d1870	0.002641227
196	0x3b1b2b43	0.002367691
197	0xbb826018	-0.0039787404
198	0x3aba00e9	0.0014190945
199	0xbb2836df	-0.0025667471
200	0xbb277c02	-0.0025556092
201	0x3a868827	0.0010263965
202	0xbba961b0	-0.005169116
203	0xba0a8ffd	-0.0005285738
204	0x3a811a62	0.0009849782
205	0x3b13ac94	0.0022533285
206	0xba46a58a	-0.0007577768
207	0x39c07f65	0.0003671601
208	0xbb62a3fc	-0.0034582606
209	0xba1a0ed7	-0.0005876845
210	0xbb33d415	-0.0027439643
211	0xba8d8c6c	-0.0010799295
212	0x3b140bea	0.002259011
213	0xbad76e9a	-0.001643616
214	0xbb183598	-0.0023225304
215	0xba8904ae	-0.0010453665
216	0x3b1dc341	0.002407268
217	0x3b86966a	0.004107286
218	0xbb5750d4	-0.0032854574
219	0x3bc4d2f6	0.006006594
220	0x3a8b25a6	0.0010616079
221	0x3ac4d14f	0.0015015992
222	0x3ad52c98	0.00162639
223	0x3b33d4e4	0.0027440125
224	0xbb5b7862	-0.0033488502
225	0xba60c180	-0.00085737556
226	0xbbfab575	-0.007651026
227	0x3ac14b8f	0.001474725
228	0xbae068a8	-0.0017121034
229	0x3a8da8be	0.0010807735
230	0xbac69c61	-0.0015152806
231	0xb987f42e	-0.00025931135
232	0x3b0abbf7	0.0021169165
233	0xbb1deaa8	-0.0024096165
234	0xbaea79f5	-0.0017889129
235	0xba65ff0c	-0.00087736617
236	0xba931eed	-0.0011224427
237	0x3b0f6a7f	0.0021883545
238	0x397f8843	0.00024369457
239	0xbad76f8e	-0.0016436444
240	0x3b9243fa	0.00446367
241	0xbb389344	-0.002816395
242	0xbb99df99	-0.0046958444
243	0xba89e728	-0.001052116
244	0xbbc6fba4	-0.0060724784
245	0x3adb4224	0.0016728085
246	0xbac9a5e9	-0.0015384528
247	0xbbc0f4cc	-0.005888557
248	0xbb2aa05d	-0.0026035525
249	0xbb2aaea6	-0.002604404
250	0xbb1227f2	-0.0022301641
251	0xbb5068ff	-0.0031800864
252	0xb84abc5b	-4.8335973e-05
253	0x3ac3f20e	0.0014949457
254	0x3b0c6fe5	0.0021429
255	0x3a00eec6	0.00049183925

exp_avg_sq f4 [3, 768]
0	0x39008793	0.00012257537
1	0x38aa2657	8.113373e-05
2	0x39a4ac61	0.0003140895
3	0x39aaa575	0.00032548202
4	0x3996e032	0.00028777268
5	0x39a709e7	0.000318601
6	0x380e6b77	3.3955523e-05
7	0x398262c9	0.00024869133
8	0x38ab0212	8.154301e-05
9	0x38992172	7.301838e-05
10	0x39034cb8	0.00012521714
11	0x39541c5b	0.00020228459
12	0x3881df97	6.192846e-05
13	0x3917be72	0.00014471429
14	0x38e7a5ef	0.00011045846
15	0x38a05a29	7.646188e-05
16	0x391f9245	0.00015217911
17	0x38abe090	8.1957434e-05
18	0x3874422e	5.8235768e-05
19	0x38804525	6.116395e-05
20	0x38ad385b	8.25978e-05
21	0x38e39a15	0.000108529035
22	0x3915bfe0	0.00014281226
23	0x394db8c2	0.00019619151
24	0x388bef43	6.6726025e-05
25	0x390082e2	0.00012255789
26	0x388e489e	6.784614e-05
27	0x387f1845	6.081934e-05
28	0x38d56fae	0.000101774334
29	0x38db01f4	0.000104430976
30	0x3921b2de	0.0001542079
31	0x39767326	0.00023503284
32	0x384cb7c7	4.8808546e-05
33	0x388a1820	6.5848464e-05
34	0x38a527d6	7.875233e-05
35	0x3864a213	5.451038e-05
36	0x390260ea	0.0001243387
37	0x38cf86f2	9.895665e-05
38	0x38e25ee2	0.00010794193
39	0x38442503	4.676451e-05
40	0x38e603ed	0.00010967986
41	0x39cb5140	0.00038779713
42	0x3859bfe7	5.1915555e-05
43	0x389c4d04	7.453005e-05
44	0x38231c78	3.8888742e-05
45	0x38246e92	3.9203624e-05
46	0x3907c1fb	0.00012946867
47	0x38f848a1	0.0001183909
48	0x3853c695	5.0491264e-05
49	0x389fdaac	7.6224416e-05
50	0x388fab0e	6.850633e-05
51	0x3813c2b1	3.522885e-05
52	0x3849b81b	4.8093596e-05
53	0x38fc4bad	0.00012030392
54	0x39145a64	0.00014148053
55	0x38b9ca3c	8.8591565e-05
56	0x38a1b7fa	7.7113466e-05
57	0x3937a6be	0.00017514356
58	0x389029e1	6.8742556e-05
59	0x386984ac	5.567509e-05
60	0x38d59402	0.000101842
61	0x3921c7fa	0.00015428654
62	0x3884cf77	6.332894e-05
63	0x382d0c86	4.1258078e-05
64	0x3882b25b	6.232104e-05
65	0x3892962d	6.989795e-05
66	0x3811044a	3.457469e-05
67	0x38c8f765	9.582824e-05
68	0x38876aca	6.457193e-05
69	0x38984d3b	7.26231e-05
70	0x38d30b24	0.00010063339
71	0x38760058	5.865129e-05
72	0x3833ccb4	4.286757e-05
73	0x3980b2b2	0.000245472
74	0x3843aeef	4.6654543e-05
75	0x3919bca0	0.00014661485
76	0x38ab6afa	8.173841e-05
77	0x3be1f82d	0.00689604
78	0x38b2387c	8.4982225e-05
79	0x395fbe46	0.0002133782
80	0x3826a1be	3.972812e-05
81	0x3904542c	0.00012619857
82	0x3b37d535	0.0028050665
83	0x390254ab	0.00012429307
84	0x384a98df	4.8302925e-05
85	0x39cf4f69	0.00039541282
86	0x38a61cc2	7.9208534e-05
87	0x38e9c5d4	0.00011147154
88	0x388dbef5	6.7589724e-05
89	0x381195f7	3.471036e-05
90	0x390dc860	0.00013521453
91	0x38915ef8	6.931828e-05
92	0x38eb33fc	0.00011215356
93	0x393d0580	0.00018026493
94	0x38d00d73	9.920718e-05
95	0x388e4032	6.783045e-05
96	0x3967f4de	0.00022121097
97	0x399e7015	0.00030219616
98	0x38682d39	5.5355227e-05
99	0x38d9364a	0.000103574785
100	0x38bec7c6	9.097117e-05
101	0x388daf2a	6.756031e-05
102	0x399cfcb2	0.0002994291
103	0x3846d43c	4.7404537e-05
104	0x38c36f88	9.319099e-05
105	0x38dfa65f	0.00010664458
106	0x39a43e67	0.0003132701
107	0x38ea2236	0.00011164362
108	0x387106c6	5.7465186e-05
109	0x38847c0d	6.317357e-05
110	0x38a15d13	7.694415e-05
111	0x39c63c62	0.00037810492
112	0x39808a81	0.00024517256
113	0x38a36e37	7.792975e-05
114	0x38906b6b	6.886463e-05
115	0x392273c7	0.00015492654
116	0x38966094	7.1705465e-05
117	0x386c0100	5.6267716e-05
118	0x38e77898	0.00011037401
119	0x38b2b13c	8.520714e-05
120	0x3807e15f	3.23964e-05
121	0x384658dd	4.728964e-05
122	0x398feca0	0.00027451385
123	0x3837be19	4.3807642e-05
124	0x39ceed85	0.00039468348
125	0x386fa60c	5.7136684e-05
126	0x385f7d7f	5.328422e-05
127	0x3880e803	6.146731e-05
128	0x382db8bc	4.141846e-05
129	0x38aaf93f	8.1526574e-05
130	0x37bbb252	2.2375174e-05
131	0x3a378815	0.0007001174
132	0x38a2e05e	7.7665536e-05
133	0x38ef1362	0.000114000184
134	0x389ae02d	7.385048e-05
135	0x385aa021	5.2124382e-05
136	0x3893b23b	7.042704e-05
137	0x3883d75d	6.286681e-05
138	0x387524b6	5.844674e-05
139	0x381c8337	3.73155e-05
140	0x38d5b3a6	0.000101900936
141	0x390c8d83	0.00013404158
142	0x3817de4a	3.620823e-05
143	0x384d07de	4.8883136e-05
144	0x38818d01	6.1774634e-05
145	0x37e0cfd8	2.6799666e-05
146	0x38aa33ab	8.1158556e-05
147	0x3880474e	6.116797e-05
148	0x38388662	4.3994172e-05
149	0x38af821c	8.368885e-05
150	0x390322b5	0.00012506063
151	0x38f902d8	0.00011873775
152	0x38fca391	0.00012046763
153	0x385f80ca	5.3287287e-05
154	0x3920fe63	0.00015353556
155	0x388ae748	6.623432e-05
156	0x383d5d44	4.5147972e-05
157	0x3929b70d	0.00016185288
158	0x38653ea2	5.4656186e-05
159	0x3851981d	4.997115e-05
160	0x38cd7138	9.7962504e-05
161	0x398fcaa8	0.00027426076
162	0x394c6ba1	0.00019495051
163	0x38cd458d	9.7881166e-05
164	0x3825550a	3.9418264e-05
165	0x38a2f584	7.770493e-05
166	0x390e84bc	0.00013591623
167	0x383a10e9	4.4361605e-05
168	0x38b0a874	8.423711e-05
169	0x39009c0c	0.00012265163
170	0x38f5ddde	0.00011723836
171	0x380a800d	3.302102e-05
172	0x385f504c	5.3242125e-05
173	0x3899dddb	7.336932e-05
174	0x382cfa27	4.1240968e-05
175	0x386e3300	5.679112e-05
176	0x3823b01e	3.902625e-05
177	0x38d5ce48	0.00010195054
178	0x384cc383	4.8819475e-05
179	0x384d2571	4.891068e-05
180	0x38926bc3	6.981895e-05
181	0x389f1708	7.586001e-05
182	0x3861a1fa	5.3795033e-05
183	0x38319e73	4.2347656e-05
184	0x388cb601	6.709621e-05
185	0x392b687a	0.00016346751
186	0x3853180f	5.0328727e-05
187	0x38fcbed9	0.000120518445
188	0x39165fac	0.00014340755
189	0x3866281e	5.4873635e-05
190	0x388cdf98	6.717368e-05
191	0x39b0076e	0.00033574871
192	0x382ad222	4.072686e-05
193	0x3886bb42	6.4244974e-05
194	0x39967710	0.00028698938
195	0x387d7859	6.0431983e-05
196	0x3905acae	0.00012748197
197	0x3924b814	0.00015708833
198	0x3950639a	0.0001987353
199	0x3868a224	5.5464116e-05
200	0x392fd232	0.00016767604
201	0x38697b07	5.5666107e-05
202	0x3886e23b	6.4317566e-05
203	0x387846bc	5.9193684e-05
204	0x38d625b5	0.00010211339
205	0x38ba1462	8.872968e-05
206	0x3835ef9c	4.3376916e-05
207	0x3852bc5f	5.0243336e-05
208	0x3894a913	7.0886825e-05
209	0x388fbc6f	6.85387e-05
210	0x3895ed04	7.149021e-05
211	0x3835520d	4.323018e-05
212	0x3900cc8b	0.0001228323
213	0x3975b07f	0.0002343077
214	0x3891432a	6.926649e-05
215	0x38447353	4.6837446e-05
216	0x39414159	0.00018430258
217	0x3a26d623	0.00063643063
218	0x397c8a82	0.00024084191
219	0x3a4feac7	0.0007931408
220	0x384312c7	4.650911e-05
221	0x385fa685	5.3322427e-05
222	0x3879ca50	5.9554644e-05
223	0x393e277b	0.0001813452
224	0x391becaf	0.00014870123
225	0x39434963	0.00018623988
226	0x3992bd4c	0.00027988327
227	0x386d7a61	5.6619177e-05
228	0x387544c2	5.8476588e-05
229	0x383f92f0	4.5674795e-05
230	0x38f7f9de	0.00011824419
231	0x38cf340a	9.880222e-05
232	0x390a85da	0.00013210569
233	0x3930af51	0.00016849978
234	0x3934853e	0.00017215774
235	0x38ce474d	9.836126e-05
236	0x3882c0a0	6.234762e-05
237	0x3830fb21	4.2195552e-05
238	0x382e7e71	4.160259e-05
239	0x3846427f	4.7268808e-05
240	0x390847d7	0.00012996733
241	0x3950da8d	0.00019917842
242	0x398c8c09	0.00026807215
243	0x391fbc7d	0.00015233639
244	0x396b35d7	0.00022431403
245	0x38b3ad87	8.567707e-05
246	0x3905bfc7	0.00012755311
247	0x39805838	0.0002447979
248	0x387a870a	5.973041e-05
249	0x38ad8813	8.2746286e-05
250	0x38329bef	4.258373e-05
251	0x391b7674	0.00014826079
252	0x388100be	6.1513376e-05
253	0x389b39b2	7.4017225e-05
254	0x388c5834	6.692149e-05
255	0x38a6abe6	7.9475154e-05

exp_avg f4 [3]
0	0xbbd90a62	-0.006623552
1	0x3bcce54e	0.006252921
2	0x39c25272	0.0003706399

exp_avg_sq f4 [3]
0	0x39cdaead	0.0003923079
1	0x39ccd50b	0.00039068641
2	0x36c159fd	5.7623242e-06
