2024:05:01_ckpts/relational/Linear/lr_0.001_epoch_100/11.pth (torch, 30301 bytes, 6 tensors)

linear.weight f4 [3, 768]
00000000: 6dac 543c bada 00be aed4 bd3e b65e 283e
00000010: 1bd8 6c3d 3d46 853e 5a43 e7be 5426 a13d
00000020: 0354 2f3f 71d2 a53b 554d 56be 5a22 7d3e
00000030: fd29 eb3e 685c 023e f972 c93c 8c66 543e
00000040: 1239 28be dd4d de3d 0f40 d63d 8f86 943d
00000050: 7627 e8bd 71da 24be 505a 4cbd bee4 cb3d
00000060: 91db fe3d ecaf b5bd a65c 42be d2bb 953e
00000070: 1b2b b03e f3df c139 a0a3 333e fc24 9ebd
00000080: a8e5 9ebe c3a2 fa3d 7157 b43d 4717 2e3e
00000090: bf74 18be a3e5 33bb 8605 a9bc 8688 90be
000000a0: c077 463d cbb1 6f3d 05b8 0b3e 3c69 8dbd
000000b0: 7d0e 2d3d cff9 e63c ead0 31be d28a 3c3e
000000c0: f4d2 7dbe e252 743d 84b3 e2bd 8671 493d
000000d0: 79f6 d3bd db07 193d 6886 323e 98e2 a43e
000000e0: d656 3ebe f448 893e 7331 9ebe 211e 963d
000000f0: 82a9 833e b882 6c3e 95c1 f43d 2f09 cf3c
00000100: f681 733e 40e1 bbbd fed2 393e 5ee9 b4be
00000110: a291 9fbd 6c4b 8ebd dd3c 6d3e b685 fe3d
00000120: e654 7bbe 5301 3d3e 75b7 ca3e 1d12 c93d
00000130: 39e3 5f3e 21bc fd3d 22bc ca3d cfa8 153e
00000140: f2ef 87be 2ca3 3dbe bd93 df3c 83b6 10bd
00000150: 0604 23bc edc7 07be 5be9 87be d643 813e
00000160: 658e 90be 8117 8bbe 7393 a3bd 6ae1 753e
00000170: a094 333e 8a3d 8ebd f8d7 233e 3fe0 973e
00000180: f990 92be 6e9f 14bd d9ac c6bd 6743 a93d
00000190: 417f 10be 6439 8ebe db78 873e a66c 613e
000001a0: 327b 5b3e ac72 adbe d54b 0bbe a932 96be
000001b0: 7157 553d 5d22 09be 2abd bebe cb69 2ebe
000001c0: 60b6 ff3d 5377 06bc b9f5 b4bd 2e30 5cbb
000001d0: 5d8e 17bd 0bff fcbd ca80 8c3e 206f 47be
000001e0: 36ea 6dbd ffbf 38be d13f 313d 3141 92be
000001f0: 58cb 55bd 5197 79be 3bdd 493d 2907 94be
00000200: 0b88 59be b37a 9b3e 73fd 95bd b5c9 4cbd
00000210: dcc6 993e e8e6 773d 919a d43d 2598 fb3e
00000220: 7e24 803e f0da 983d 610d c9be 7ba0 9ebe
00000230: 73f7 283d c283 ad3e 694a 5fbd dd87 80bd
00000240: ce56 2dbe 4d53 963d c0b9 7f3e 739e 393e
00000250: 846f 723e bf6b b1bd a617 84bd e542 063e
00000260: e769 25bd bbc5 8c3e 48e8 74be 825d 26be
00000270: 7b1b 0abe bb63 d8be 3110 463e dd49 82be
00000280: 514c 3cbe 1a36 3e3d a080 f83d 5142 2cbd
00000290: a137 aabe 7075 2d3d 955e 4f3e 3178 97bd
000002a0: 96fc eabc 48d1 563e b986 de3d c722 8c3e
000002b0: acbc f63e 806a 27be 9414 1cbe c874 1abe
000002c0: 18c0 133e 44c6 96ba 1552 f73d fc45 7b39
000002d0: a309 27be ff0e 1bbe 3d62 27be bf42 6fbe
000002e0: 9b8b 7dbe d336 aabe f519 c3be 7ee7 073d
000002f0: 7e0f 2dbe c451 cebd fc80 8ebe 5730 933e
00000300: b456 cfbd 8319 623e 987b 4b3e fb3c 8439
00000310: 54b3 ba3d 3b67 423e 8337 cc3d 43e0 92be
00000320: fdb8 2dbe 4dde 113e b027 f9be c727 dd3c
00000330: e8d4 853e bd26 743e e829 1ebe 29df 2bbe
00000340: 6574 08bc 51d9 0e3a 7420 9cbe 973d 4c3e
00000350: 4729 35bb b90a edbd daf1 07be 0d5a a4bd
00000360: bc11 60be 0fae c9bb 655f 55bd aeb2 20bd
00000370: d603 f93c aa52 133e 148c a7bc f770 113e
00000380: beac 56be ce75 19bf 029c 22be 4beb f5bc
00000390: 75a9 273e 1a2d a1bd 701b 943d c068 aa3d
000003a0: 2bca d33e ea26 ddbe 6d8f bc3d 773e 0abd
000003b0: 8a4c 423e 3c88 3e3e 2bab d2bd be71 1b3e
000003c0: abe0 b0be fc96 343d ba17 e13c 5271 923e
000003d0: 9bfd 56be 75ef a73c 0c03 9f3e 35c6 553c
000003e0: 1641 703d 5f42 043e 14dc c83d b912 cbbe
000003f0: 7aa4 1f3e f8c1 04bd e93d ad3e 1cd4 b83e
0.012980563 -0.12583438 0.37076324 0.1644238 0.05782328 0.2603015 -0.45168573 0.07868639
0.68487567 0.005060487 -0.20927937 0.24720135 0.45930472 0.12730563 0.024590956 0.20742244
-0.1642802 0.10854695 0.10461437 0.072522275 -0.113356516 -0.16098954 -0.049890816 0.099557385
0.12444223 -0.08871445 -0.18980655 0.29244858 0.34407887 0.00036978684 0.17542887 -0.07721898
-0.3103459 0.122380756 0.088057406 0.17001067 -0.14888285 -0.0027450107 -0.020632517 -0.2822916
0.048454046 0.058519166 0.13644417 -0.069048375 0.042250145 0.02819529 -0.1736485 0.18412331
-0.24787503 0.059649356 -0.11069396 0.04918053 -0.10349745 0.037361007 0.17434084 0.32204127
-0.18587813 0.2681347 -0.30897102 0.073299654 0.25715262 0.2309674 0.11950985 0.025272934
0.23780045 -0.091738224 0.18146893 -0.35334295 -0.07791449 -0.06947979 0.23167749 0.12427847
-0.24544105 0.18457536 0.39593092 0.09817908 0.21864022 0.12389398 0.09899165 0.14615177
-0.2655025 -0.18519276 0.027292127 -0.035330307 -0.00994969 -0.1325986 -0.26545224 0.25247067
-0.28233638 -0.2716637 -0.07987108 0.2401177 0.17537165 -0.069453314 0.16000354 0.29663274
-0.2862623 -0.036284856 -0.09700937 0.08264809 -0.14111044 -0.2777816 0.26459393 0.22014102
0.21433714 -0.3387655 -0.13603146 -0.29335526 0.052085344 -0.13392015 -0.37253696 -0.17032544
0.12485957 -0.00820716 -0.088359304 -0.0033598053 -0.037001003 -0.12353333 0.27442008 -0.19475985
-0.05808469 -0.1804199 0.04327375 -0.28565362 -0.052195877 -0.24374129 0.049283247 -0.28911713
-0.21243303 0.3036705 -0.07323732 -0.04999705 0.3003453 0.060522944 0.10381044 0.49139515
0.2502784 0.07463634 -0.3926802 -0.30981812 0.04125161 0.33889586 -0.054514322 -0.06275914
-0.16927645 0.07340107 0.24973202 0.1812685 0.23675352 -0.08663129 -0.06449823 0.13111456
-0.0403842 0.27494606 -0.23916733 -0.16246608 -0.13487045 -0.42263588 0.19342114 -0.25446978
-0.18388487 0.046438314 0.12133908 -0.04205543 -0.33245566 0.042348325 0.20250924 -0.073959716
-0.028684895 0.20978272 0.1086554 0.27370283 0.4819082 -0.1634922 -0.15242225 -0.15083611
0.14428747 -0.001150318 0.12076203 0.00023963297 -0.1631227 -0.1514244 -0.16346069 -0.23365305
-0.24760287 -0.33244953 -0.3810574 0.033179753 -0.16900441 -0.10074189 -0.27832782 0.28747818
-0.10123959 0.22080044 0.19871366 0.00025222436 0.091162354 0.18984692 0.099715255 -0.28686723
-0.16965099 0.14244957 -0.48663092 0.026996506 0.26138997 0.23842902 -0.15445673 -0.16784348
-0.008328532 0.0005449253 -0.3049351 0.1994537 -0.0027643011 -0.11574311 -0.13275853 -0.08024988
-0.21881765 -0.0061547826 -0.05209293 -0.039232902 0.030397337 0.14387003 -0.020452537 0.14203249
-0.20964333 -0.5994538 -0.15879825 -0.030019423 0.16373236 -0.078699306 0.07231796 0.08320761
0.4136518 -0.43193752 0.09207044 -0.033750977 0.1897451 0.18606657 -0.10286554 0.15180108
-0.34546408 0.044089302 0.027477134 0.28602082 -0.2099518 0.020499924 0.31057012 0.0130477445
0.05865582 0.12915944 0.098076016 -0.39662722 0.15590087 -0.032411546 0.33836296 0.36099327

linear.bias f4 [3]
00000000: 562b 88bd fb6b 803d dbe3 6bbd
-0.06648891 0.06270596 -0.057590347

exp_avg f4 [3, 768]
00000000: f7e8 093b 7e5f 89b9 b670 6a3b 7af2 a5bb
00000010: 32e8 90bb 0d5a e0b9 4273 d13a bc96 a8bb
00000020: 41ed 383a 2e0f 9aba db3a f038 496d bbba
00000030: 9ab1 50ba 4dab 04ba 3659 8bb9 4e40 883a
00000040: b8b4 24ba 9c8c 4539 0fba 6bba c653 bfb9
00000050: ff57 913a 8270 4fbb adcb 21bb 65b8 b33a
00000060: d59d 08ba 126b 0038 7928 173a e826 173b
00000070: 032f 1f3a 4dd1 1f39 8b23 f1ba 038c c6ba
00000080: ff0d 193a fea8 02bb b37b b53a 2162 a8b8
00000090: 3426 69ba 8899 d83a fd39 0eba 05f5 b1ba
000000a0: 85ab 8c3a 32f4 26bb 5ded c8ba b8f1 483a
000000b0: bf67 5139 0d42 293b 52de a2bb 27ad 89ba
000000c0: b894 96b9 cf4a 17ba 35f4 b139 adae 8eba
000000d0: 470a 0539 cbb0 44bb f735 4bbb bf64 0dba
000000e0: e57a 00b9 4231 b4bb b1a9 bdba 784e 0139
000000f0: 0eb9 f43a a5d7 363b e777 c13a f335 4bba
00000100: 2b70 85bb af0e daba 45f8 f0b9 5c15 69ba
00000110: 52d3 31ba 30ff 4e39 40f6 173b 78ac 7cba
00000120: a1ce 8d3a 9cde 203b 6b47 6c39 ca31 17bb
00000130: 2321 4a3b 973f b23b c37a 30bb 3eef d3ba
00000140: 1741 c039 3763 763b ccd0 0b3c 8c60 ca3a
00000150: aabf 603b a0ae 883b f4e7 e43a 057f 30bb
00000160: 9bc1 84ba 0509 3639 a8c1 86bb 179c 46b8
00000170: 7435 6abb e7b8 9dbb 3c78 4eba 64f7 5b36
00000180: 4aa2 12ba f236 c8ba 41b6 06ba 79c8 adbb
00000190: a4ee cbba db86 463a 3095 29bb dc63 5ab9
000001a0: 6f69 70ba 9d1e 933a 1acb 813b 4b7e b539
000001b0: a20d 1bba 47f4 98ba 1c0d 0e3a 852d 5eba
000001c0: b55c 8fbb b026 0cba 42cb 81b9 c308 33ba
000001d0: 7124 043b 21e6 fcba cb94 e0ba 757a d3b9
000001e0: 037c 1b3a 10e6 40b8 0689 60bb 0969 493a
000001f0: a22d f7bb 12c2 e0ba 7cbb 463b 0c4c 91b9
00000200: d434 8c3b ad05 c0b9 08b0 80ba e5bc bfba
00000210: 5e77 9ab9 9aee d639 7225 b03b 09e6 61b9
00000220: 7d4d 1f3a 8cb2 b1ba d81b 173b cac6 e2ba
00000230: ef4d 20ba 3ad9 2dba fdf2 b13a b77c c53a
00000240: 266f 50ba 9ca7 29bb c75c afb9 d23f e1ba
00000250: 432d e2ba 9406 22ba 31e0 233b b7a8 953a
00000260: 4f76 e33a 8209 34bb 5fc8 623a aca9 433a
00000270: 4cb2 1ab9 2543 0b3b b785 be3a 8600 073b
00000280: bff3 e63a 954d 4b3a 62fb ef3a 8252 9cba
00000290: 7113 1fba e605 133b 4f3d 69ba 351a 08ba
000002a0: 7cb2 46ba 36c4 45ba f16c 6fbb 9cbb 2abb
000002b0: 3907 7539 142e 8c38 57fb 4a3a 4097 02ba
000002c0: 2cb7 083b b48a d1ba 885c ae3a 77a6 2bba
000002d0: e4b8 8c39 77a5 db3a c2bd 23ba 17d4 5639
000002e0: ec0a 34ba 7f66 53bb 7ae1 a937 b7a7 1bbb
000002f0: 08ef 043b 38b4 f93a 762f 65b8 8be2 67ba
00000300: 85ef fbba d3f8 e5b9 618d a8b9 ac24 2dba
00000310: 3bdb 0f3b 90e9 81ba 7a92 2d3b 624f e8ba
00000320: 8016 feba 9eff 4c3a 07aa 20bb 5ca9 0fbb
00000330: d799 f439 fe9b 24b9 6f45 54ba 35ea 07b9
00000340: b283 b3ba 9a12 f939 cb80 daba 6be8 ccb9
00000350: 8fb9 643a cfbe 9537 e03a f23a 707f 54bb
00000360: 932c 8d3b 7415 a93b 2e01 4138 0cdc ff3a
00000370: 61e7 f73a 396d 723a bb02 2aba 0323 023b
00000380: 4941 bfba 0567 293b acc8 c0ba 41f3 30b9
00000390: 64c0 1bbb 28ad 9039 0c7f eeba 57e3 9439
000003a0: ca01 583b 6a28 cc3a 5e42 bbba 1030 e03a
000003b0: 10ef beb6 cf8c f13a 2ba5 c33a f5e4 013b
000003c0: 8bc0 863b 4d08 e139 1442 dbb9 ce24 a13a
000003d0: b9d3 67bb ab45 2136 1809 c8ba bb57 5c3a
000003e0: 7f32 c3ba 5d7a ce3a f9c2 ad39 4ebb 01bb
000003f0: 08c9 c83a c2f8 87ba 5940 893a 3e79 18bb
0.00210434 -0.00026201823 0.0035772747 -0.005064306 -0.004422211 -0.00042791702 0.0015979784 -0.005144922
0.00070543966 -0.0011753791 0.000114550545 -0.0014299537 -0.0007961035 -0.0005060926 -0.00026578613 0.0010395141
-0.00062830327 0.00018839765 -0.00089922635 -0.00036492775 0.0011088847 -0.0031652753 -0.002468805 0.001371157
-0.0005211507 3.0617295e-05 0.0005766224 0.0023063961 0.0006072374 0.00015241392 -0.0018397433 -0.0015147928
0.00058385724 -0.0019937153 0.0013846069 -8.029142e-05 -0.00088939373 0.0016525248 -0.0005425511 -0.001357705
0.0010732269 -0.0025475142 -0.0015329529 0.00076654134 0.00019970442 0.0025826723 -0.0049703503 -0.0010503874
-0.00028721034 -0.000577134 0.0003394202 -0.0010885798 0.00012687697 -0.0030012603 -0.0031007507 -0.00053937355
-0.00012252813 -0.005499036 -0.0014470128 0.0001233163 0.0018670873 0.002789953 0.0014760465 -0.00077518745
-0.0040722094 -0.0016636456 -0.00045961342 -0.00088914274 -0.00067835033 0.00019740756 0.0023187548 -0.0009638737
0.0010819027 0.0024546748 0.00022533319 -0.0023070448 0.0030842505 0.0054397094 -0.002692864 -0.0016169322
0.0003666959 0.0037595758 0.008533668 0.001544015 0.0034293928 0.0041712075 0.0017464147 -0.0026931178
-0.00101285 0.00017360233 -0.004112441 -4.735225e-05 -0.0035737427 -0.004813302 -0.00078761927 3.2777543e-06
-0.0005593641 -0.0015275164 -0.0005138852 -0.005303439 -0.0015558791 0.00075731956 -0.0025876276 -0.000208273
-0.0009170984 0.0011224333 0.003960979 0.00034617106 -0.0005914812 -0.001166948 0.00054188236 -0.0008475411
-0.004375065 -0.0005346341 -0.00024756236 -0.00068296137 0.0020163322 -0.0019294658 -0.0017134188 -0.00040336294
0.000593126 -4.599063e-05 -0.003426136 0.0007683193 -0.0075432817 -0.0017147681 0.0030324152 -0.00027713215
0.0042787585 -0.00036625323 -0.0009818086 -0.0014628439 -0.00029462104 0.00040995033 0.0053755576 -0.00021543367
0.00060769153 -0.001355724 0.0023057368 -0.0017301675 -0.00061151286 -0.00066317955 0.0013576444 0.0015067075
-0.0007951133 -0.0025887256 -0.00033447726 -0.0017185158 -0.0017255921 -0.000618079 0.0025005455 0.0011418079
0.0017353984 -0.0027471487 0.00086510734 0.0007463943 -0.00014753005 0.0021249738 0.00145357 0.0020599677
0.001762025 0.0007755396 0.0018309171 -0.0011926445 -0.00060682656 0.0022433936 -0.00088973803 -0.00051918934
-0.0007579697 -0.00075441913 -0.003653344 -0.0026051765 0.00023367711 6.684303e-05 0.0007743141 -0.00049816445
0.0020861132 -0.0015986771 0.0013302723 -0.00065479375 0.00026840635 0.0016757686 -0.00062462327 0.0002048764
-0.00068680826 -0.0032257137 2.0251366e-05 -0.002375109 0.0020284075 0.0019050902 -5.4642056e-05 -0.0008845708
-0.0019221163 -0.00043863672 -0.00032148793 -0.0006604891 0.002195074 -0.0009911526 0.0026485012 -0.0017723853
-0.0019385368 0.00078200724 -0.0024515407 -0.0021921014 0.00046653926 -0.0001569837 -0.00080975046 -0.00012961852
-0.0013695864 0.0004750684 -0.0016670463 -0.00039083077 0.000872516 1.7851036e-05 0.0018480681 -0.0032424591
0.004308292 0.005160028 4.6015884e-05 0.0019520535 0.0018913561 0.0009247843 -0.0006485392 0.0019857294
-0.00145916 0.0025848758 -0.0014708242 -0.00016875287 -0.0023765797 0.00027594832 -0.0018195822 0.0002839814
0.003296005 0.0015576009 -0.0014286747 0.0017104167 -5.690272e-06 0.0018428805 0.0014926543 0.0019820307
0.0041123084 0.0004292153 -0.00041820167 0.0012294294 -0.0035374 2.4031422e-06 -0.0015261499 0.0008405407
-0.0014892368 0.001575302 0.00033142397 -0.001979548 0.0015318701 -0.0010373818 0.0010471448 -0.0023265625

exp_avg_sq f4 [3, 768]
00000000: 3e02 3538 5a58 8d38 0f65 eb38 bc6e 5939
00000010: 49b8 5a39 dee0 a839 a410 6538 8762 9339
00000020: 7acd 0738 d74e 0a38 66ab ab38 545b 1c39
00000030: 6047 2b38 9afa 5739 856f 0939 3ff1 5a38
00000040: e027 3e39 d3c9 6139 7ffe 1138 b024 0a39
00000050: 4d6b b438 e53a 5539 f830 1c39 ff33 9338
00000060: a9dc 8838 81d0 2539 b0ed 1d38 6386 0339
00000070: 54e7 db38 f4dd 9038 ccb0 7a38 1bed 0a39
00000080: 0a69 4938 7711 b038 396b 3f38 7913 3438
00000090: 1253 ca38 1ff7 d538 f94a 6f38 08ac 3938
000000a0: deeb 7538 8cb8 c439 6cb0 6c38 dbae 8338
000000b0: 17d8 0738 9a01 8638 d39e 2a39 734e d938
000000c0: 5b46 e837 d1e7 8a38 e32b 1838 3612 2e38
000000d0: e03d 8638 6bec 1039 3302 0639 e05b 6f38
000000e0: 098d f438 46ea a039 7e2a a638 bc3a 3338
000000f0: 98a0 d838 bccc 4339 b143 8138 f859 8438
00000100: ea5f 4b38 fa5c 3238 99dc 3138 e727 3c39
00000110: 1913 9638 10d6 0238 5943 3738 b511 8c38
00000120: 9fc8 b138 88c3 2d39 3cc6 8738 ea24 e338
00000130: a247 8238 115b 6b3b 186b aa38 5f18 2439
00000140: c08e 9738 4c59 b138 7399 0a3b 5c25 9b38
00000150: b499 9338 db1f 8939 1dc7 2139 a873 e338
00000160: 66f4 2a38 053c 4938 40f8 e038 de4f 8138
00000170: df77 0c39 a5ab 0439 2793 c438 e596 2438
00000180: 7383 7538 38ae 7639 d8a3 0438 9c31 b038
00000190: f5b4 0639 860b 7838 771a 6239 65da 9138
000001a0: 95be 1638 289f 8f38 b8aa e138 c781 8d38
000001b0: 369c 1238 7529 5f38 3dd1 ec38 ad40 9039
000001c0: b71e 9539 6e1e 4038 b5ab 6238 8863 0a39
000001d0: 3e33 aa38 4497 2a38 eebb e238 330d 5b38
000001e0: 005c 0e38 eaf5 8e39 5cc1 3339 2910 a438
000001f0: 67c0 d339 2c23 a338 b8b5 b238 812b 2c38
00000200: affa d438 0494 c638 1b22 c038 f43b 163a
00000210: c5ad 3238 dde6 8938 5558 5739 0a6a 3038
00000220: fefc 9138 cd8a 8b38 58e7 3f38 c81c 3938
00000230: d0f2 2d38 fff3 6d38 29bb 8338 7ab2 2c39
00000240: 6fbe b638 60ad 1938 2403 2839 8ab2 c538
00000250: 63ab 8f38 3c3f 5a38 abbd 1f39 f8d4 8038
00000260: 3c1b 7638 9815 5138 a433 ac38 891c c538
00000270: a9b3 3438 77ae ee38 5d01 9938 c3d5 5d38
00000280: efd7 a438 67bb eb38 08c6 5039 4b45 4039
00000290: 3345 1938 c53e ca38 8676 5338 3f41 6c38
000002a0: 2618 5939 7a44 8538 8618 0639 3824 7438
000002b0: 53f4 ed38 9253 0739 beaf 5738 f87b c838
000002c0: b81a 7638 c180 c838 9c49 fd37 7582 3f38
000002d0: 6ee2 8938 a846 8238 0ad2 0739 2df2 2238
000002e0: 613d a238 9f0a 2039 628d 5838 7d78 9f38
000002f0: a787 8538 1106 1538 2931 1739 542f 1239
00000300: d962 8938 6add 9638 199a 2639 c744 5138
00000310: 7345 9338 9a85 1439 135b 5939 c40f 6e38
00000320: b9c0 4f38 08bd b238 6498 e638 361f bb38
00000330: 2f6d e138 aed6 2b38 6f7a 4f38 3d84 1d38
00000340: f567 0539 725c ac38 d0f4 3938 fee7 3638
00000350: 0ff4 6538 6841 5139 e2cd ec38 d71f 8b38
00000360: 496e 3639 4cea c339 7902 5939 6833 3e3a
00000370: 1d55 2238 4f93 6538 4e26 3538 86c2 f838
00000380: 56ee 9438 1467 3039 733b 2f39 5eac 2938
00000390: a10b 4238 3700 5c38 edb3 7438 379e a138
000003a0: 1f02 2e39 190f 7938 28ee 2439 e0c4 c738
000003b0: 7082 3c38 f601 9538 9a3b 5538 5746 5638
000003c0: 713f ef38 4f1e 2539 1955 7338 7ec6 c938
000003d0: 892d 3339 4304 3538 6e55 4838 4590 7f39
000003e0: 948d 9238 d92d 3038 244f 2238 63be d738
000003f0: 172c 8c38 c97b 8c38 e6d5 9a38 097c 5b38
4.315585e-05 6.739861e-05 0.00011224497 0.00020735984 0.00020858752 0.00032210996 5.4613352e-05 0.00028111433
3.2377873e-05 3.297519e-05 8.185841e-05 0.00014911342 4.083605e-05 0.00020597354 0.00013106882 5.2199928e-05
0.00018134667 0.00021532857 3.4807712e-05 0.00013174373 8.603055e-05 0.00020335203 0.00014895562 7.019191e-05
6.5260865e-05 0.000158133 3.765308e-05 0.00012543196 0.00010485822 6.907797e-05 5.97693e-05 0.00013249034
4.801996e-05 8.395587e-05 4.5637807e-05 4.293348e-05 9.647584e-05 0.00010202661 5.7051864e-05 4.4267654e-05
5.863222e-05 0.0003752153 5.643109e-05 6.279136e-05 3.2387758e-05 6.389916e-05 0.0001627163 0.00010361979
2.7689317e-05 6.623532e-05 3.6280497e-05 4.1501793e-05 6.401143e-05 0.00013820983 0.00012780055 5.7067606e-05
0.000116610965 0.00030692125 7.9234116e-05 4.2731626e-05 0.000103295955 0.00018672919 6.163808e-05 6.3110085e-05
4.84883e-05 4.25251e-05 4.2405536e-05 0.00017943942 7.1561146e-05 3.1193777e-05 4.3693322e-05 6.6790184e-05
8.477386e-05 0.00016571407 6.474226e-05 0.00010831079 6.212226e-05 0.0035912434 8.1261795e-05 0.00015649338
7.22683e-05 8.4566505e-05 0.0021148592 7.397935e-05 7.038136e-05 0.0002615441 0.00015428332 0.00010845746
4.0758772e-05 4.7978032e-05 0.000107273925 6.166076e-05 0.00013396096 0.00012652444 9.3734176e-05 3.924118e-05
5.8534974e-05 0.0002352529 3.1623844e-05 8.4015745e-05 0.00012846648 5.913854e-05 0.00021562898 6.954818e-05
3.594028e-05 6.8484165e-05 0.00010760635 6.747577e-05 3.4954595e-05 5.3205953e-05 0.000112923306 0.00027514008
0.0002844238 4.5804707e-05 5.4042514e-05 0.00013197784 8.115776e-05 4.0672036e-05 0.000108115244 5.222596e-05
3.394112e-05 0.0002726757 0.00017142802 7.8231395e-05 0.00040388407 7.778997e-05 8.521549e-05 4.104851e-05
0.00010155641 9.468946e-05 9.161626e-05 0.00057309796 4.2600343e-05 6.575671e-05 0.00020536904 4.2060426e-05
6.961262e-05 6.65389e-05 4.5753404e-05 4.413424e-05 4.147255e-05 5.6732442e-05 6.281428e-05 0.00016469686
8.713907e-05 3.663951e-05 0.00016022898 9.4269475e-05 6.8506946e-05 5.2034142e-05 0.00015234078 6.143184e-05
5.8676334e-05 4.9849594e-05 8.211218e-05 9.399007e-05 4.3082666e-05 0.00011381221 7.2958625e-05 5.2889587e-05
7.86035e-05 0.000112405796 0.00019910198 0.0001833636 3.654249e-05 9.643802e-05 5.0416704e-05 5.632755e-05
0.00020703729 6.354689e-05 0.00012788372 5.8207865e-05 0.000113465496 0.00012905736 5.1423667e-05 9.559834e-05
5.8675854e-05 9.5607254e-05 3.0194227e-05 4.5659446e-05 6.574845e-05 6.212044e-05 0.00012952849 3.8849354e-05
7.736195e-05 0.00015262746 5.1630086e-05 7.6041535e-05 6.3672014e-05 3.5530018e-05 0.00014418796 0.00013941276
6.551081e-05 7.193799e-05 0.000158884 4.9893537e-05 7.022442e-05 0.0001416415 0.0002072866 5.6758305e-05
4.9532133e-05 8.522911e-05 0.000109956396 8.922668e-05 0.00010749173 4.0969513e-05 4.946667e-05 3.7554873e-05
0.00012722595 8.2188184e-05 4.4335437e-05 4.360824e-05 5.4825152e-05 0.00019956159 0.000112917056 6.633967e-05
0.00017397957 0.00037367863 0.00020695654 0.0007255585 3.8703078e-05 5.4735046e-05 4.3189437e-05 0.00011861794
7.1015835e-05 0.00016823068 0.00016711447 4.045327e-05 4.6264035e-05 5.2452287e-05 5.8341702e-05 7.706548e-05
0.00016594723 5.9380287e-05 0.00015728979 9.52573e-05 4.4944172e-05 7.105239e-05 5.0838666e-05 5.1087085e-05
0.00011408225 0.00015746917 5.8014968e-05 9.621399e-05 0.00017087733 4.3157732e-05 4.776328e-05 0.0002437244
6.9881935e-05 4.200437e-05 3.8697515e-05 0.00010287461 6.6839326e-05 6.698777e-05 7.383134e-05 5.2329186e-05

exp_avg f4 [3]
00000000: 1f74 5cbb d834 5f3b 0e28 30b8
-0.003363855 0.0034058597 -4.1998974e-05

exp_avg_sq f4 [3]
00000000: bf14 a739 f22b a739 04f1 cc35
0.0003186818 0.00031885464 1.5269329e-06
