2024:05:01_ckpts/relational/Linear/lr_0.001_epoch_100/12.pth (torch, 30301 bytes, 6 tensors)

linear.weight f4 [3, 768]
000000 70 11 79 bd 65 d1 81 bd e8 3a 4d 3e c0 77 92 3e
       -0.060807645 -0.06338767 0.20042002 0.28606987
000010 58 f2 56 be d0 9c 55 3e 28 80 5a bd 20 a9 99 3d
       -0.20990884 0.208606 -0.053344876 0.07502961
000020 d0 be 69 bd af 98 d7 3c 67 07 55 be a4 b1 c2 3e
       -0.05706674 0.026317922 -0.20803605 0.38026154
000030 7d c4 4c 3e c9 00 1c 3d f0 27 b8 be 2f c3 c6 3e
       0.1999683 0.038086686 -0.3596797 0.38820788
000040 b4 8c 26 be 7a 89 3f 3e f5 4c e7 3e 5d 96 d8 bc
       -0.16264611 0.18704787 0.451759 -0.026438886
000050 dc 60 09 be 60 0d 80 bd 9f dd 11 be 54 c0 47 3d
       -0.13415855 -0.06252551 -0.14244698 0.048767403
000060 1f 67 18 3e 1f 6c cf bd 24 05 04 3e a1 ca 9e 3e
       0.14883088 -0.10128044 0.12892586 0.3101397
000070 2b 30 16 be fc d9 25 bc 99 cd fa 3d ab 92 6f be
       -0.14666812 -0.010122772 0.12246246 -0.23395793
000080 34 6f 4f be 43 8f 13 3e 31 1e 3e 3e 5a b8 ab 3e
       -0.20257264 0.14410119 0.18566205 0.33539087
000090 88 a7 58 3e 25 74 ed bd a9 46 71 be 15 33 60 bd
       0.21157658 -0.115944184 -0.23562111 -0.054736216
0000a0 bf ac e5 bd a0 6e 52 3e eb 5c bd 3a 35 c7 e7 3d
       -0.11214589 0.20550013 0.0014447247 0.113172926
0000b0 5b 5c 88 3e 62 e2 31 be 41 3d 4c be 2c 26 35 bd
       0.26632962 -0.17371514 -0.19945242 -0.044225857
0000c0 b2 2d 6c 3e 83 dc 64 be 55 6d cf bd 40 d4 a2 3e
       0.23064306 -0.22349744 -0.10128275 0.3180256
0000d0 c4 8d d2 be 61 7f 98 3d b5 95 fd bd b1 66 b3 3e
       -0.41123784 0.074461706 -0.1238207 0.35039285
0000e0 6c 25 f3 be 52 51 b6 3e 05 2d 29 3e 32 d2 db bb
       -0.47489488 0.35608917 0.1652108 -0.006708407
0000f0 57 b0 d5 3e d1 77 d9 3c 7b 5e 59 3d 71 6c c4 b9
       0.417361 0.02654639 0.05306862 -0.00037464828
000100 5b b3 ec 3d dd cd 41 bc 37 f7 2d bd 6b 44 b3 be
       0.11557647 -0.011828867 -0.04247209 -0.35013136
000110 cc 5c 66 3d 29 be 99 bd 98 5d a8 3e f8 e5 0b 3f
       0.05624084 -0.07506973 0.32883906 0.5464778
000120 44 ea a9 3e ba f1 8e 3e 3f df fd 3c 2a ed a7 3e
       0.33186543 0.27918798 0.030990241 0.3279813
000130 22 62 ba 3d 1e 2e 99 3d 8c 69 53 3d 00 9c 1c 3e
       0.091007486 0.07479499 0.05161433 0.15293884
000140 b3 4a 91 bd 80 5a cc 3d 5d 66 7e bd 1c 72 25 3e
       -0.07094326 0.09978199 -0.06210934 0.1615681
000150 56 24 bc 3d 20 02 cc be 29 2d c2 be e9 8f a4 3e
       0.09186618 -0.3984537 -0.3792508 0.32141045
000160 a2 ce 6a 3c e3 42 40 bc eb e8 19 bd 8f 88 ba 3c
       0.014331492 -0.011734697 -0.037575644 0.022770194
000170 1e 7f 8c 3e 59 d4 70 3d 8b ab 4e 3d 25 ba 4f 3e
       0.27440733 0.05879626 0.050456565 0.20285852
000180 44 ab 43 bd b0 26 81 bd 7f 93 2d bc 69 72 4f 3e
       -0.047770754 -0.06306207 -0.010594248 0.20258488
000190 99 12 0b 3a 94 8f 68 bd a5 85 9b 3e 5d 64 25 3d
       0.00053052005 -0.05677755 0.303754 0.040378917
0001a0 de d2 02 be ac 52 94 be 2d 63 69 be 0f e4 e8 bd
       -0.12775752 -0.28969324 -0.22791739 -0.11371624
0001b0 e0 ec b6 bc 37 1f 45 be c4 0f cd be eb d5 fc bd
       -0.022329748 -0.19250189 -0.4005109 -0.12345489
0001c0 30 39 b3 3e 86 42 a4 be 86 65 87 bd e9 64 36 bd
       0.35004568 -0.32082003 -0.06611161 -0.04452983
0001d0 1e dc 5f bd e4 e7 a5 be 02 bf 45 be ec 78 54 be
       -0.05465328 -0.3240348 -0.19311145 -0.20749253
0001e0 11 2f 7f be f2 ea 3d 3d 63 dc 60 3e 2a 8c ee be
       -0.24920298 0.04636664 0.21959071 -0.46591312
0001f0 30 f9 18 3d b0 77 2a be 15 cf 44 be 85 30 cc be
       0.03734702 -0.1664722 -0.1921962 -0.39880767
000200 18 7c a9 3e 6b 88 0b 3e 9d 6d d5 bc 46 4c 95 3e
       0.3310249 0.13626258 -0.026053244 0.29159755
000210 4b f5 2f 3d ad 92 67 3e dd ce 15 3d 51 86 2d 3e
       0.04295854 0.22614546 0.036574233 0.16945769
000220 33 93 72 3e 61 15 cf 3d a4 59 9e be b7 b9 8e 3e
       0.23688965 0.101114996 -0.30927765 0.27876064
000230 7c d4 a3 3c 0c b8 84 3e 0f cb 31 bc cd d7 b5 bd
       0.019998781 0.25921667 -0.010851636 -0.08879051
000240 b5 1c 14 3e e7 b3 82 3d e5 67 02 3e 80 a6 92 bd
       0.14464076 0.0638197 0.12734945 -0.071606636
000250 cd a7 56 3e 01 7a ce 3c 65 e1 71 bc 5f 91 51 3e
       0.20962448 0.02520466 -0.014763211 0.20465611
000260 a0 70 6e 3e c1 47 55 ba 9f 55 88 3d 67 57 c0 bd
       0.2328515 -0.00081359973 0.06656956 -0.09391671
000270 37 a6 e4 bd ac cf 83 be 48 e3 94 3e c6 f6 a5 be
       -0.111645155 -0.2574438 0.29079652 -0.32414836
000280 12 ba 84 be 97 ec 6d be b3 e3 86 3e e7 25 32 3e
       -0.2592321 -0.23234783 0.26345596 0.17397271
000290 99 f2 59 bf 50 12 b4 be 13 dc a0 3d 8c 32 42 3e
       -0.851358 -0.3517022 0.07854476 0.18964595
0002a0 a0 ab 57 bd 25 aa 13 bd 2d e7 21 3e 3a 78 5d 3f
       -0.05265391 -0.036050934 0.15810843 0.86511576
0002b0 73 bc 08 3f dc 4f 2d 3e 04 fa e5 be 4b 8c 4e bd
       0.5341255 0.16924995 -0.4491731 -0.050426763
0002c0 b2 1e 4f 3e 43 cd 27 3d 64 96 cd 3e 1f f2 17 be
       0.20226553 0.040967237 0.401538 -0.14838456
0002d0 72 74 62 be b6 c3 2b 3e a8 b2 3b be 41 b8 29 3e
       -0.22114733 0.16773877 -0.1832987 0.16574194
0002e0 5f 4a 99 be 7d 85 74 be e2 82 b4 be cf cc 99 3e
       -0.29939553 -0.23879047 -0.35256106 0.3003907
0002f0 33 1a 9a be a3 21 6f 3e d4 40 3a be 94 65 a7 3e
       -0.30098113 0.23352675 -0.18188792 0.32694685
000300 98 8b 44 bd f7 96 67 bb e1 e0 00 3e e2 0d 97 be
       -0.04798469 -0.0035337785 0.12585784 -0.2950278
000310 28 d6 ce 3c 96 00 a4 3d 9e 09 4b bd fb 42 1d be
       0.025248602 0.08007924 -0.04956972 -0.15357582
000320 c2 c1 8b bd 70 a4 3b bd 40 f5 91 be e4 04 9c bd
       -0.06824066 -0.045811117 -0.28507423 -0.0761812
000330 fa 0b f0 3c 36 8c 82 bd eb 94 aa bd 49 e1 cc 3d
       0.029302586 -0.06374399 -0.08329185 0.10003907
000340 56 e3 12 3f f2 50 9f 3d 8a 07 05 bf b7 16 78 3e
       0.5737814 0.07779111 -0.5196463 0.24227415
000350 bd 58 10 3d 28 80 03 3e 1f df 6e 3e 70 81 72 be
       0.035240877 0.12841856 0.23327301 -0.23682189
000360 e0 78 ac be c2 84 08 3e f5 ac 39 3d e9 70 1b 3d
       -0.3368597 0.13331893 0.04533096 0.037949476
000370 20 aa 09 3f 4f a3 97 3e c6 0b 59 bd 10 35 0e 3e
       0.53775215 0.29616782 -0.052989744 0.13887429
000380 3b f7 01 3e 90 94 d1 be c8 bf 37 3c 11 6f 37 3e
       0.12691967 -0.40933657 0.011215158 0.17913462
000390 69 2e 05 3f 80 96 c6 3d 73 1a e5 3e bf a5 a1 3d
       0.5202394 0.09696674 0.44746742 0.07892942
0003a0 be 7d b1 3e e1 3d b0 be cf d9 5a 3d 3a 45 8d 3d
       0.34666246 -0.3442221 0.053430375 0.068979695
0003b0 53 15 e6 3e 0c 88 7a 3e 86 59 4d be 0d 75 a7 3c
       0.44938144 0.2446596 -0.20053682 0.020441556
0003c0 b0 72 81 be 9d 39 94 bc 59 c8 15 3e 7a 20 a4 3e
       -0.25282812 -0.018093878 0.14627208 0.32056028
0003d0 19 bf 8a bd 73 25 76 bd 18 b8 92 3d 9f 1d 87 be
       -0.0677473 -0.060094308 0.07164019 -0.26389787
0003e0 2a df b1 3e 20 b1 d4 3d e6 51 02 be 14 e9 ce be
       0.34740573 0.103853464 -0.12726554 -0.404122
0003f0 de fc a6 3e ce 81 14 be 41 53 e0 3d 91 b3 c6 3e
       0.32614797 -0.14502642 0.109533794 0.38808873

linear.bias f4 [3]
000000 04 a0 e8 3b 38 37 f6 3c e6 5f 9a bc
       0.0070991535 0.030055627 -0.018844556

exp_avg f4 [3, 768]
000000 86 77 bc ba 57 09 ad b9 2a b2 a1 b9 60 d4 05 bb
       -0.0014378882 -0.0003300409 -0.00030841056 -0.0020420775
000010 6a 90 51 3a 6a 42 e7 b6 b5 3d a0 39 7d 07 8c 3a
       0.00079942367 -6.892068e-06 0.00030563553 0.0010683384
000020 49 4c d9 3a 52 b9 6d b8 63 45 8f b9 fa 1f 95 3a
       0.0016578521 -5.6677796e-05 -0.00027326783 0.0011377328
000030 b4 69 5e ba 1e 57 e8 ba d9 5b e4 b9 3b 5f 99 ba
       -0.0008484379 -0.0017726158 -0.0004355598 -0.0011701355
000040 5e ed 03 3a 68 2a 53 bb c1 87 92 ba 88 b7 4e 3a
       0.0005032624 -0.003222132 -0.0011179374 0.00078856247
000050 8f dd 49 ba 57 36 b3 3a 05 fa 56 ba 0b c6 05 ba
       -0.00077005563 0.0013672811 -0.0008200708 -0.0005103058
000060 b0 98 96 b9 bf 5d 01 3a d0 4f 8e b9 34 38 b5 3a
       -0.0002872399 0.0004934929 -0.00027143816 0.0013825954
000070 27 1c a0 ba 49 fa 5d 3a e6 41 63 ba 6a 5c fe 38
       -0.0012215421 0.00084677764 -0.00086691824 0.00012128877
000080 90 8e 30 3a bf 7e 0a b9 4b 0d 8e 3a 2a 57 a4 39
       0.00067351107 -0.00013207922 0.0010837702 0.0003134546
000090 fb e1 83 ba e9 9a 0a 3a 29 c1 ad 39 65 c8 39 b8
       -0.0010061854 0.00052873656 0.00033141047 -4.429407e-05
0000a0 ea da 17 3a 9f 59 eb ba d0 16 04 ba 4a 59 01 3b
       0.00057928136 -0.0017955786 -0.00050388 0.0019737058
0000b0 eb 14 0b 3b ea 4c a1 ba f5 80 17 3b a0 3b ab b9
       0.0021222185 -0.0012306247 0.0023117636 -0.00032660086
0000c0 2e db 24 ba a8 fe ca b9 8d 29 a1 b9 54 fc 71 39
       -0.0006288764 -0.00038718176 -0.0003073927 0.0002307755
0000d0 94 8a e7 3a 64 6a 0e bb 7e c3 ad ba fa 3d d6 39
       0.0017665201 -0.0021730894 -0.0013257114 0.00040863437
0000e0 fd d0 17 b9 9f 6a 51 ba 4c e7 ab 3a 16 e1 bb 38
       -0.00014478336 -0.0007988605 0.0013115196 8.9587804e-05
0000f0 b0 4f 14 3a b3 27 8a 3a 18 3c ac ba f6 49 06 3b
       0.00056576263 0.0010540396 -0.0013140468 0.0020490861
000100 85 f8 d2 38 bb 7d 52 3a 9a 73 88 b9 de 7b 9d 3a
       0.00010059871 0.00080295996 -0.0002602607 0.0012015065
000110 39 c8 b4 ba 54 46 3a b9 39 b8 b8 39 24 fd a7 ba
       -0.0013792581 -0.00017764542 0.0003523247 -0.0012816531
000120 ca 20 b3 ba 9b 12 84 38 ca e5 7a ba 2f ab a1 39
       -0.0013666388 6.297716e-05 -0.00095709844 0.00030835855
000130 3c c5 1e 3a 27 15 a6 ba 2e 18 ec ba a8 67 34 ba
       0.0006056612 -0.0012671099 -0.0018012577 -0.0006881901
000140 ae a9 d0 b8 56 ad 68 3b 5d 22 b1 39 18 a2 4d 3a
       -9.949818e-05 0.0035503707 0.00033785673 0.0007844283
000150 4d 26 6a 39 d9 ef 56 ba 80 1a 3e ba e4 66 c3 39
       0.00022330247 -0.0008199192 -0.00072518736 0.00037269958
000160 96 d0 81 ba 25 c9 84 b9 83 f8 81 ba 0a 3b 27 3a
       -0.0009904082 -0.00025326866 -0.0009915981 0.0006379342
000170 6a 2c c3 ba 91 d7 1f bb 0e b2 87 3a de e8 bb ba
       -0.0014890556 -0.0024389962 0.0010352747 -0.0014336368
000180 25 5c bb 3a c6 32 a8 ba 87 e9 0e 39 cc b7 14 bb
       0.0014294429 -0.0012832514 0.00013629171 -0.002269256
000190 0e ee df ba b3 5a f8 3a 11 df 27 3b 06 72 03 bb
       -0.0017084496 0.0018947929 0.0025615136 -0.0020056977
0001a0 61 f7 5b b7 3d 51 07 39 43 40 08 bb 27 d6 2e 3a
       -1.3111015e-05 0.00012904867 -0.0020790256 0.00066694844
0001b0 0a 96 36 3a 46 ad cd b9 37 76 0c 3b 1d 67 16 3b
       0.00069651066 -0.00039229746 0.0021432766 0.0022949644
0001c0 c4 c0 10 3b 52 bd 1e ba f6 b0 34 3a 02 73 00 ba
       0.0022087554 -0.00060554326 0.00068928243 -0.000489995
0001d0 72 be 6f ba 46 9e b5 b8 03 7c 80 39 8c 46 8a ba
       -0.0009145505 -8.660233e-05 0.00024506458 -0.0010549589
0001e0 99 88 9a 3a 8c f2 ba 39 b5 0b 8f 3a c0 ee 8f b9
       0.0011789977 0.00035657396 0.0010913523 -0.00027452968
0001f0 65 8d 4f 3b 09 cf d8 b9 dc 79 84 b9 f7 7f 4b bb
       0.003166997 -0.00041352984 -0.00025267794 -0.0031051615
000200 52 bf 4b bb fb a8 38 3a 72 26 bc b9 f4 27 d2 b8
       -0.0031089378 0.0007044223 -0.00035886798 -0.00010021022
000210 2d 75 89 3a ec f6 1b bb 2b ac 1b 3a c9 6c 08 39
       0.0010487192 -0.00237983 0.0005938436 0.00013010496
000220 e2 da 3c ba 38 55 13 3a 59 1f e8 3a 9f 3e 6c b9
       -0.0007204247 0.00056203036 0.0017709538 -0.00022530042
000230 11 98 d6 39 c8 e9 eb b9 ac d7 b7 3a 54 7b 07 b8
       0.0004093056 -0.00044996873 0.0014026067 -3.2301366e-05
000240 0f eb d3 3a e4 43 f2 b9 a4 e7 9f 3a c6 84 d6 b9
       0.0016168075 -0.0004620842 0.0012199772 -0.00040916185
000250 05 64 fe 39 f0 1e 0a bb bf 6c cb b9 85 b5 07 3a
       0.00048521176 -0.002107557 -0.000388002 0.000517689
000260 44 94 57 3a 13 ea 91 3a 20 fe 0e 39 4d 18 0d 3b
       0.00082236924 0.0011132382 0.00013636844 0.0021529377
000270 6f c7 fb 38 73 06 34 3a 0f 1a 22 3a 7e 3d 15 3a
       0.0001200576 0.0006867416 0.00061836926 0.0005693062
000280 c0 9a ed b9 f9 89 01 3b 90 fd f2 3a 34 fb c4 b9
       -0.0004531946 0.0019766076 0.0018538702 -0.00037571194
000290 8f 97 80 3a 61 28 42 39 f0 ac f7 3a 88 fe a7 b8
       0.0009810793 0.00018516324 0.0018896144 -8.010591e-05
0002a0 08 7e 4e b8 88 1a 1e 39 12 0e ae 3a 51 2b 2b ba
       -4.9231603e-05 0.00015077938 0.001327934 -0.0006529587
0002b0 db db 60 39 10 b1 57 3a ce 4d b6 39 9b bd 7a ba
       0.00021444207 0.00082279835 0.00034771714 -0.00095649966
0002c0 cf 65 87 ba 9a 8f a5 39 2c 9a 4e b9 5d 2a 09 b9
       -0.0010330024 0.00031578244 -0.00019703124 -0.0001308112
0002d0 9d 1f cc 39 f8 78 c2 b9 df 0a ba ba a2 24 e2 ba
       0.00038933466 -0.00037092692 -0.0014193914 -0.0017253349
0002e0 fc 85 a7 b9 47 1c 47 3b 79 6b 8b ba 59 98 ea ba
       -0.00031952548 0.0030381845 -0.0010636888 -0.0017898186
0002f0 c7 62 22 b8 17 20 79 ba 48 55 42 3a 19 1b 14 3b
       -3.8715803e-05 -0.0009503378 0.00074132206 0.002259916
000300 95 6c 0e b9 1d c9 07 3a 60 b3 a2 b9 dd 0f b9 ba
       -0.00013582625 0.00051798095 -0.00031032693 -0.0014119108
000310 2a cd 32 ba a6 f5 73 3a 4f 5b b0 3a 40 1d ed b8
       -0.0006820733 0.0009306319 0.0013454946 -0.00011306489
000320 cc 47 a9 3a b2 3a 10 bb 4d 4e 40 3b 95 90 96 3a
       0.0012915074 -0.0022007641 0.0029343546 0.0011487181
000330 f3 46 9d 39 00 14 1a ba 73 51 b4 3a 71 40 cc 3a
       0.00029998235 -0.0005877614 0.0013757184 0.001558317
000340 c2 ae a6 3a 11 f1 0b 3b e5 ce 9c 3a 86 4a 0c 3a
       0.0012716877 0.0021353404 0.0011963515 0.0005351681
000350 4f e7 ba ba fb f8 fb ba e4 d9 cf ba 6a 32 d1 b9
       -0.0014259609 -0.0019223982 -0.0015857783 -0.00039901148
000360 0b 9b 32 3b 9e 2a a9 ba ff 5a 27 ba bf ad d4 b9
       0.0027253057 -0.0012906378 -0.0006384104 -0.00040565242
000370 5f d3 72 39 94 0b 05 bb 18 a5 16 bb 32 76 2c 3a
       0.0002315766 -0.002030109 -0.0022986587 0.0006578892
000380 03 77 0e 39 84 e3 77 ba 05 c5 3b 39 c8 e2 a7 3a
       0.0001358651 -0.0009456205 0.00017907105 0.0012808675
000390 03 4a d7 ba cd f6 16 ba 7c 24 8d 39 15 09 85 ba
       -0.0016425255 -0.0005758822 0.000269208 -0.0010149801
0003a0 16 9d f4 ba 26 60 8f 3a 5c 83 8e 3a 32 c8 87 ba
       -0.0018662538 0.0010938689 0.0010872888 -0.0010359345
0003b0 bc c8 ff 39 91 25 18 3b 54 2f 47 b9 a8 5d c3 ba
       0.0004878695 0.002321575 -0.0001899575 -0.0014905231
0003c0 63 c1 1a 3b 0f cb 0b 3b 2d d2 ae b8 3e 7a ae ba
       0.0023613803 0.002133075 -8.336115e-05 -0.0013311577
0003d0 29 da 82 ba 33 97 8f ba 5b 3d e6 ba d5 46 fa ba
       -0.000998323 -0.0010955095 -0.0017565893 -0.0019094596
0003e0 70 09 ec b9 98 33 85 3a ad 64 bf 3a a9 21 11 bb
       -0.0004502046 0.0010162471 0.0014602147 -0.0022145307
0003f0 ab e7 2a 3a c1 dc d3 39 89 55 33 3a 73 df 8a ba
       0.00065195066 0.0004040953 0.0006841054 -0.0010595158

exp_avg_sq f4 [3, 768]
000000 f3 22 56 38 b9 aa fa 37 2d 34 28 38 dd fd 7b 38
       5.1054125e-05 2.9881821e-05 4.0102914e-05 6.0079492e-05
000010 c8 d6 e8 39 a2 f2 af 39 46 db d2 37 91 1c c7 38
       0.00044410513 0.00033559377 2.5136058e-05 9.49438e-05
000020 0a dd f0 37 cb b2 d5 37 15 b7 0b 38 b0 d6 b6 38
       2.8713159e-05 2.5474836e-05 3.331069e-05 8.718425e-05
000030 cc d2 9a 37 27 6f ac 38 4c 43 38 38 ec e4 70 38
       1.845639e-05 8.222303e-05 4.3931694e-05 5.743366e-05
000040 0b 9f 10 39 f6 b3 e7 38 92 39 13 38 84 02 c7 38
       0.00013792158 0.00011048459 3.5101148e-05 9.489528e-05
000050 c0 27 d9 37 ab 04 5c 39 35 4f c8 38 82 8b aa 37
       2.5886926e-05 0.00020982574 9.5514966e-05 2.0330543e-05
000060 5a 2b 88 38 a9 b6 51 38 35 d9 e9 37 cc 6d 85 38
       6.49306e-05 4.99996e-05 2.787691e-05 6.3623855e-05
000070 42 5b b1 38 33 d9 0c 38 3a f3 36 38 dc 9c 3e 38
       8.457016e-05 3.3580884e-05 4.3618704e-05 4.5445617e-05
000080 eb a5 25 38 f2 4f a1 37 40 14 d4 37 73 8e 2e 38
       3.949359e-05 1.9229923e-05 2.5281799e-05 4.16175e-05
000090 2d 94 38 38 5f 8d cb 37 23 12 c3 37 41 00 7f 37
       4.4007018e-05 2.4265317e-05 2.3254257e-05 1.51992435e-05
0000a0 42 2b 2c 38 cc 29 37 39 d7 e8 07 38 c1 92 02 38
       4.1048283e-05 0.0001746781 3.2403357e-05 3.113109e-05
0000b0 ab ac f5 37 e6 0e 88 38 f0 82 f3 38 5f 35 ff 38
       2.928668e-05 6.4877604e-05 0.00011611532 0.00012169289
0000c0 61 68 91 37 49 5b e5 37 cc 60 07 38 3e 2b 63 38
       1.7333952e-05 2.7341435e-05 3.2276657e-05 5.416129e-05
0000d0 6b ac b2 37 e1 46 78 38 e1 76 96 38 53 61 02 38
       2.1299542e-05 5.919382e-05 7.1747e-05 3.1085056e-05
0000e0 ce 81 a5 38 48 19 8f 39 20 ac 00 38 32 64 56 37
       7.891991e-05 0.0002729392 3.0677882e-05 1.27787225e-05
0000f0 df ff 68 38 e5 f0 8c 38 10 14 56 38 8e 47 c7 38
       5.555141e-05 6.72059e-05 5.104026e-05 9.5023875e-05
000100 13 f2 b4 37 fe 10 9d 37 92 77 5e 37 0f 30 aa 38
       2.1570397e-05 1.8723771e-05 1.3260071e-05 8.115183e-05
000110 89 9f 16 38 05 a8 60 38 36 c6 2d 38 83 10 15 38
       3.5911366e-05 5.3562242e-05 4.1431013e-05 3.5539746e-05
000120 17 df f6 37 34 5f e2 38 38 6b 2e 38 86 61 87 38
       2.942937e-05 0.00010794253 4.1584688e-05 6.455467e-05
000130 a0 33 cd 37 7e 8a 86 3b db 71 a7 38 b8 63 db 37
       2.4461944e-05 0.004105865 7.984388e-05 2.615327e-05
000140 d3 04 ba 37 ab b5 fa 37 00 e2 27 3b 0e 28 c1 37
       2.2175174e-05 2.9886918e-05 0.0025616884 2.3026045e-05
000150 fd 49 9b 38 a0 74 1f 39 9f 34 29 38 d1 0b 99 38
       7.404757e-05 0.00015206868 4.0341747e-05 7.2978095e-05
000160 33 00 d0 37 95 61 34 38 49 ab f9 37 ca 34 4f 38
       2.4795625e-05 4.3006225e-05 2.9762874e-05 4.940181e-05
000170 76 2a 99 38 4d fb 9b 38 08 e9 94 38 12 61 2d 38
       7.3035175e-05 7.4377844e-05 7.1005954e-05 4.1336818e-05
000180 5d d2 01 38 29 68 04 3a 67 bb 87 37 d6 8b 94 38
       3.0951913e-05 0.00050509215 1.618052e-05 7.0832364e-05
000190 6e ae b1 38 e6 1b 9b 37 af 59 1f 39 ba fd 26 38
       8.472508e-05 1.8490431e-05 0.00015196831 3.9813785e-05
0001a0 ab 49 cb 37 c5 c8 0a 38 4d 76 6c 38 bf b5 87 38
       2.423379e-05 3.3088745e-05 5.637696e-05 6.4711545e-05
0001b0 53 bd 8c 37 28 7b 6b 38 28 28 03 38 ff 09 3e 39
       1.6777461e-05 5.6143064e-05 3.1270232e-05 0.00018123536
0001c0 20 68 09 39 cc a2 a3 37 8f a4 45 38 7b 28 c5 38
       0.00013104128 1.9506922e-05 4.7121717e-05 9.401232e-05
0001d0 68 41 25 38 64 4b ad 37 28 fb 87 38 2b c9 5b 38
       3.939998e-05 2.0658314e-05 6.484083e-05 5.240102e-05
0001e0 17 d0 fd 37 68 b7 70 38 61 2b a8 38 db d6 92 38
       3.025685e-05 5.739127e-05 8.018944e-05 7.0018425e-05
0001f0 e6 7a ac 39 f5 af 7a 38 b3 db 84 38 e3 1e d2 37
       0.00032897963 5.9768518e-05 6.335173e-05 2.5048334e-05
000200 09 76 8d 38 2f 61 15 39 1e 70 c4 37 1d a3 09 39
       6.74539e-05 0.00014245951 2.341723e-05 0.00013126103
000210 b4 12 18 38 de 87 4e 38 bb 22 51 38 4d 15 74 37
       3.6257043e-05 4.9240763e-05 4.986183e-05 1.4548493e-05
000220 83 bf 24 38 5a f2 e4 37 53 8e 88 38 8a f3 18 38
       3.9279006e-05 2.7292572e-05 6.511495e-05 3.6466437e-05
000230 d1 28 2a 38 8e b7 fa 37 48 ad 1d 38 06 26 15 38
       4.056917e-05 2.9887797e-05 3.7593098e-05 3.555978e-05
000240 f2 03 0a 38 9f a7 c5 37 47 73 86 38 46 e2 7b 38
       3.290544e-05 2.3562285e-05 6.41109e-05 6.0053797e-05
000250 46 ad dd 38 9e 62 98 38 e6 a3 83 38 58 2f 04 38
       0.00010570376 7.266294e-05 6.277095e-05 3.1515345e-05
000260 56 25 40 38 c2 29 0f 38 47 4d 97 38 38 d3 68 38
       4.581114e-05 3.4132747e-05 7.214635e-05 5.5509823e-05
000270 7f e5 1c 38 78 6e 16 39 a3 3c 20 38 bc 63 2b 38
       3.7407033e-05 0.00014346268 3.8203445e-05 4.0862462e-05
000280 cc d3 c5 38 e7 59 f3 37 73 60 71 38 ca d5 c6 38
       9.433142e-05 2.9009721e-05 5.7548703e-05 9.481197e-05
000290 86 e3 95 37 9c 6a f2 37 32 a1 0f 38 95 74 ce 37
       1.7868133e-05 2.8898292e-05 3.424398e-05 2.4611401e-05
0002a0 39 d3 ba 38 01 fe 23 38 97 32 38 38 1f fe f0 37
       8.9085144e-05 3.9098788e-05 4.3916134e-05 2.8728564e-05
0002b0 14 27 32 38 cf 0a 6e 38 03 8f c7 37 5f 91 e8 38
       4.24749e-05 5.6753688e-05 2.3789244e-05 0.000110896995
0002c0 74 96 67 38 40 fe 91 38 45 54 9c 37 3d fc e2 37
       5.5214812e-05 6.9614965e-05 1.863589e-05 2.7058757e-05
0002d0 5d 52 84 38 38 09 c8 37 f2 5b 6c 38 68 a3 14 38
       6.309592e-05 2.384615e-05 5.6352415e-05 3.5438134e-05
0002e0 d0 8c 20 38 72 90 7e 38 03 60 d8 37 ad cc f7 37
       3.8278115e-05 6.0692844e-05 2.5793915e-05 2.9540004e-05
0002f0 75 ba c3 37 e8 ec fc 37 a7 1f bb 38 ae 04 85 38
       2.3332637e-05 3.0151059e-05 8.9227506e-05 6.342806e-05
000300 ac 05 09 38 79 56 07 38 4c 34 85 38 4f f9 23 38
       3.2668628e-05 3.2267042e-05 6.351675e-05 3.9094415e-05
000310 d2 3f fd 37 70 20 43 38 2d a4 88 38 c8 cb 9e 37
       3.0189669e-05 4.6521833e-05 6.5155655e-05 1.892996e-05
000320 bd 32 11 38 9c cd 24 39 18 2a 63 38 47 5c 24 38
       3.4617948e-05 0.00015716854 5.416022e-05 3.9186587e-05
000330 a1 a7 e6 38 81 00 0d 38 4e 28 b4 38 4a 1c 18 38
       0.00010998478 3.361749e-05 8.590576e-05 3.626597e-05
000340 0e c5 0a 38 23 45 d4 37 2d d2 d4 37 80 ec 1b 38
       3.3085285e-05 2.5304564e-05 2.537024e-05 3.7175138e-05
000350 01 bb 59 38 b3 01 34 38 cf 30 8b 38 e9 61 16 38
       5.1910993e-05 4.2916927e-05 6.637128e-05 3.5853973e-05
000360 68 7b 77 38 d3 46 a2 39 37 58 b5 38 30 e4 70 39
       5.900432e-05 0.00030951816 8.647184e-05 0.0002297319
000370 b1 61 37 38 8a 26 d0 37 aa 87 b1 38 7c a7 5d 38
       4.3721582e-05 2.4813478e-05 8.465287e-05 5.2846488e-05
000380 72 2d 89 38 33 40 af 38 af 78 03 39 00 22 c8 37
       6.541134e-05 8.356608e-05 0.00012538092 2.385769e-05
000390 2e 99 b0 37 ba f8 1b 38 6a b6 fe 37 1e 7f 36 38
       2.1052165e-05 3.7186524e-05 3.0364103e-05 4.351057e-05
0003a0 a2 50 2a 39 70 7d 49 38 52 a9 08 39 66 2e 6c 39
       0.00016242501 4.8038957e-05 0.00013033047 0.00022523999
0003b0 df 17 cd 37 f7 d3 cd 38 ee 06 c2 37 69 f8 96 37
       2.444902e-05 9.814643e-05 2.3129829e-05 1.7997068e-05
0003c0 3b ad 37 39 57 6e 1d 38 a8 0f 55 37 7a df 8c 38
       0.00017516773 3.753448e-05 1.2699435e-05 6.717346e-05
0003d0 06 88 92 38 d8 5e ad 37 fd 77 dc 37 12 87 0c 39
       6.987159e-05 2.0667372e-05 2.6281918e-05 0.00013401758
0003e0 14 ba 26 38 0d 57 1d 38 00 47 b3 37 a1 41 88 38
       3.9750783e-05 3.751279e-05 2.1371525e-05 6.49721e-05
0003f0 d1 f4 25 38 e1 cc eb 37 4d aa 0b 38 21 fa 15 38
       3.956707e-05 2.8109587e-05 3.3298787e-05 3.575732e-05

exp_avg f4 [3]
000000 aa 38 10 39 1c 5e 1b 37 99 ec 19 b9
       0.00013754019 9.2606315e-06 -0.00014679357

exp_avg_sq f4 [3]
000000 20 cf ba 39 72 b4 ba 39 d6 64 f3 35
       0.00035631005 0.00035611127 1.8134258e-06
