2024:05:01_ckpts/relational/Linear/lr_0.001_epoch_100/2.pth (torch, 30291 bytes, 6 tensors)

linear.weight f4 [3, 768]
0	0x3f36af22	0.7136098
1	0xbe9ed5c9	-0.3102248
2	0xbe4e821f	-0.20166825
3	0xbe1c8a65	-0.15287168
4	0xbd481a89	-0.04885343
5	0x3e6b992a	0.23007646
6	0xbdf04a56	-0.117329285
7	0x3edc183b	0.42987236
8	0xbd1787f1	-0.03699488
9	0xbde31af1	-0.11089123
10	0x3ebf28e8	0.37335896
11	0x3e9c2070	0.30493498
12	0xbd5e77d2	-0.05431349
13	0x3ea95881	0.33075336
14	0xbe05dc50	-0.13072324
15	0x3d0b143d	0.033954848
16	0xbdbc5d2e	-0.0919746
17	0xbc62e063	-0.013847443
18	0xbe3758dd	-0.17904992
19	0xbec4c271	-0.38429597
20	0xbe7c3f96	-0.24633631
21	0xbe3a6259	-0.18201579
22	0x3da25478	0.079262674
23	0x3d0dbde4	0.034604922
24	0xbb0ec9cc	-0.002178776
25	0xbed75769	-0.42058876
26	0x3da4a054	0.08038393
27	0xbd16125c	-0.036638603
28	0x3d6e2284	0.058138385
29	0x3ef5cf5a	0.4800976
30	0xbd8234ba	-0.06357713
31	0xbe14e851	-0.14541747
32	0x3b360da5	0.002777913
33	0x3f02b97e	0.5106429
34	0x3e3fa805	0.18716438
35	0x3efd26a4	0.49443543
36	0xbd9c0cdd	-0.07619641
37	0xbe004193	-0.12525015
38	0xbdd76b0b	-0.10518464
39	0xbdce838b	-0.100836836
40	0x3e2db0c6	0.16961965
41	0x3d84c3ad	0.06482635
42	0xbf1f1a0a	-0.6214911
43	0x3e39a51f	0.18129395
44	0xbdf6e471	-0.120552905
45	0xbdc68e18	-0.09695071
46	0xbedd3800	-0.43206787
47	0x3e394162	0.18091348
48	0x3ed25a5a	0.41084558
49	0xbe93212e	-0.28736252
50	0x3eb2793a	0.34858114
51	0xbe3aa8ce	-0.18228456
52	0x3dc55df9	0.096370645
53	0xbec68a25	-0.3877727
54	0xbe9c7424	-0.30557358
55	0x3e2f87c6	0.17141637
56	0xbe20f618	-0.15718877
57	0xbe01834b	-0.1264774
58	0x3a1509a1	0.0005685334
59	0xbe66d4d7	-0.2254213
60	0x3d37913f	0.04481625
61	0x3d214f33	0.03938217
62	0x3c60abc6	0.013712829
63	0xbeeffdec	-0.46873415
64	0xbec77f74	-0.38964427
65	0x3f0e40b8	0.555675
66	0xbde51bc4	-0.111869365
67	0x3cb89a15	0.02253441
68	0x3df884fb	0.12134739
69	0x3eb6366f	0.35588405
70	0xbd80d888	-0.062913
71	0x3e2a9b19	0.16660728
72	0x3dde09af	0.10841691
73	0x3e1739db	0.14768164
74	0x3e887ca8	0.26657605
75	0xbe75d393	-0.2400649
76	0x3cd3d0d5	0.025856415
77	0x3d3b4cce	0.045727544
78	0x3e1bcef1	0.1521566
79	0xbd43130f	-0.047625598
80	0x3e393b56	0.18089041
81	0x3dce47fb	0.10072323
82	0xbc0be222	-0.008537801
83	0xbcd42d98	-0.025900647
84	0x3e6c4b03	0.2307549
85	0x3d1c0670	0.038092077
86	0xbe5be20c	-0.21472949
87	0x3ee9a6db	0.45635113
88	0xbe38af5d	-0.18035646
89	0xbef4e4e1	-0.4783087
90	0xbdb6b10d	-0.089204885
91	0xbe93f865	-0.28900447
92	0xbd5edb5f	-0.054408427
93	0x3cb493cb	0.02204313
94	0xbf0d7372	-0.5525428
95	0x3ebcc7b6	0.36871117
96	0xbe985908	-0.29755425
97	0x3e6be49e	0.2303643
98	0xbdab878c	-0.08375463
99	0xbc86cf41	-0.016456248
100	0x3dcba1cb	0.09942969
101	0xbd3639c0	-0.04448867
102	0xbed718ee	-0.42011207
103	0xbe24d87b	-0.16098206
104	0xbe1661a2	-0.14685681
105	0xbc6dc6a7	-0.014512694
106	0x3e816a58	0.25276446
107	0x3dc3ca83	0.095601104
108	0xbe5f285f	-0.21792744
109	0x3dd65a22	0.1046641
110	0x3cdf8bd0	0.027288347
111	0x3b13582d	0.0022482977
112	0xbe50ba7b	-0.20383637
113	0xbe323bee	-0.17405674
114	0xbdc44698	-0.09583777
115	0xbeae842a	-0.34085208
116	0x3f002151	0.50050837
117	0xbe1e7905	-0.15475853
118	0x3d9b6dec	0.07589325
119	0x3e36eeeb	0.17864577
120	0xbea72083	-0.32641992
121	0x3e6f7a78	0.23386562
122	0xbbd3380b	-0.00644589
123	0xbe2a026c	-0.16602486
124	0xbedcc133	-0.4311615
125	0xbdde9c89	-0.108697005
126	0xbe973023	-0.29528913
127	0xbea24024	-0.3168956
128	0x3e7e752b	0.24849384
129	0x3d9fbc2e	0.07799564
130	0xbccc9d48	-0.024977341
131	0x3e1a9163	0.15094523
132	0xbe7d4443	-0.24733071
133	0x3dba8694	0.091077
134	0x3e906619	0.28202894
135	0xbe478a60	-0.1948638
136	0xbe49814d	-0.1967823
137	0xbe9b3bc1	-0.30319026
138	0x3eb8c971	0.36091188
139	0x3d889b8e	0.06670295
140	0xbe8e8ba3	-0.2784091
141	0xbe8d9777	-0.2765462
142	0xbe39168f	-0.18075012
143	0x3f301315	0.68779117
144	0xbe19d871	-0.15023972
145	0x3eace803	0.3377076
146	0x3ef1b6e7	0.47209856
147	0xbed67f92	-0.41894203
148	0xbd5d9ccb	-0.054104608
149	0x3cd22f64	0.025657363
150	0x3eaaea52	0.33381897
151	0xbea15f9d	-0.3151826
152	0x3e826119	0.25464705
153	0x3e887f55	0.26659647
154	0x3eb00901	0.3438187
155	0x3c9a813a	0.018860448
156	0xbe777398	-0.2416519
157	0xbe0fd070	-0.14044356
158	0x3d2dc205	0.04242136
159	0x3df96b18	0.1217863
160	0x3ea57c8b	0.3232158
161	0x3d0de749	0.0346444
162	0xbeb86e71	-0.3602176
163	0x3e8ee9a6	0.27912635
164	0xbd84aa76	-0.06477825
165	0x3f13e70b	0.5777442
166	0x3ddd14dc	0.10794994
167	0x3d7cf508	0.061757118
168	0xbeac11bb	-0.33607277
169	0x3c7d59ec	0.015463334
170	0xbeb74108	-0.35791802
171	0xbee6e606	-0.4509737
172	0x3e21c2a9	0.15796913
173	0xbe00a0a9	-0.12561287
174	0x3d966179	0.0734281
175	0x3ca32e5b	0.019919565
176	0x3e45174c	0.19247168
177	0xbec0100d	-0.37512246
178	0x3e3d8ecf	0.18511508
179	0x3d851730	0.06498563
180	0xbe8a755f	-0.27042672
181	0x3e0d1b48	0.13779938
182	0xbe9c967b	-0.30583557
183	0x3d6dc1e3	0.058046233
184	0xbe08857c	-0.1333217
185	0x3dd20519	0.102548786
186	0x3de8f74e	0.113752946
187	0x3cfbf6fa	0.030757416
188	0x3e132095	0.14367898
189	0xbed8b832	-0.4232803
190	0x3f01623d	0.50540525
191	0xbec934cb	-0.3929809
192	0xbef32e01	-0.47496036
193	0x3e8db49d	0.2767686
194	0xbe93b734	-0.2885071
195	0x3ec03f17	0.37548134
196	0xbe9f7028	-0.31140256
197	0x3ec5eaae	0.3865561
198	0xbe659f9b	-0.22424166
199	0xbce72717	-0.028216882
200	0xbed8b8fd	-0.42328635
201	0x3ed04d04	0.40683758
202	0xbd7785ea	-0.060430445
203	0x3d321562	0.043477423
204	0x3ddaba3c	0.10680053
205	0xbe8d7716	-0.27629918
206	0xbe13428d	-0.14380856
207	0xbe84cd53	-0.259379
208	0xbd5d7251	-0.0540641
209	0xbdcd70ca	-0.100312784
210	0x3de14c32	0.11000861
211	0x3e580896	0.21097025
212	0x3e2e563a	0.1702508
213	0x3e7c3193	0.24628286
214	0xbdfa806a	-0.12231524
215	0xbe42a662	-0.19008783
216	0xbe1135b2	-0.1418064
217	0x3ce35436	0.027750116
218	0x3e86f3d1	0.26357892
219	0xbd7fd027	-0.06245437
220	0x3e9347ee	0.28765815
221	0x3d227e8e	0.039671473
222	0x3e7b9012	0.24566677
223	0x3e46989e	0.19394156
224	0x3e802ada	0.25032693
225	0x3ec8195c	0.39081848
226	0x3e8af83c	0.27142513
227	0xbefd4ec8	-0.49474168
228	0x3efacaf5	0.4898297
229	0xbd5adc9e	-0.053433053
230	0x3dad80df	0.08471846
231	0x3e8377b4	0.25677264
232	0x3ddd274f	0.10798513
233	0x3cd80329	0.026368694
234	0x3afe7a74	0.0019415156
235	0x3e86a8c9	0.26300648
236	0xbe5e01dc	-0.21680397
237	0xbe5646e9	-0.20925488
238	0x3f199afa	0.600021
239	0xbee522e2	-0.44753176
240	0xbd60e395	-0.05490454
241	0xbea27247	-0.31727812
242	0xbeb1065e	-0.3457517
243	0x3ded9d3f	0.11602258
244	0xbd8048de	-0.06263898
245	0x3d702d2d	0.058636833
246	0xbe3ef0ae	-0.186465
247	0x3dcf6121	0.10125948
248	0x3e1e156b	0.15437858
249	0xbe9e5166	-0.30921477
250	0xbe04b95a	-0.12961331
251	0x3e441856	0.19149908
252	0xbe89cecb	-0.26915583
253	0xbd99b326	-0.07504873
254	0x3c982480	0.018572092
255	0x3dc72812	0.0972444

linear.bias f4 [3]
0	0xbc99c526	-0.018770766
1	0x3ca0a44d	0.019609595
2	0xbc7eea19	-0.015558743

exp_avg f4 [3, 768]
0	0xbb2f25ad	-0.0026725337
1	0x3a124e4d	0.0005581126
2	0x3814b050	3.5450154e-05
3	0xbb272e2b	-0.0025509696
4	0xba1f79ea	-0.0006083535
5	0x3ad20dc7	0.0016025834
6	0x3a4c4a64	0.00077930675
7	0xbafb1ca4	-0.0019158316
8	0xba97d530	-0.001158392
9	0xbb17ba1f	-0.0023151708
10	0xbb0233b3	-0.001986724
11	0xbb475763	-0.0030417077
12	0xba38e87c	-0.0007053686
13	0xba4cf5dd	-0.0007818619
14	0x3b7e7623	0.003882774
15	0x3bf1440f	0.0073628495
16	0xbb509317	-0.0031825954
17	0xbbad0078	-0.005279597
18	0x3a08b039	0.00052142475
19	0xbabdee6a	-0.0014490609
20	0x3acfbc25	0.0015848918
21	0x398cc165	0.0002684697
22	0xbb28189e	-0.0025649439
23	0x3b0ed449	0.0021794012
24	0x3b460e6b	0.0030220996
25	0x3b02c772	0.0019955304
26	0xba90a544	-0.0011035581
27	0xba4d4fe9	-0.0007832037
28	0x3b285f86	0.0025691702
29	0x3a4d567b	0.0007833016
30	0x3972c6c3	0.00023152963
31	0xbb2a941f	-0.0026028228
32	0xb7df4e68	-2.6620182e-05
33	0xba5b8601	-0.0008374155
34	0x3a0177f8	0.0004938836
35	0xba0dfd1d	-0.000541644
36	0x3a1cf8a5	0.00059879787
37	0xbaa4a28e	-0.0012560652
38	0x3b991bb8	0.004672494
39	0x3aaabdfe	0.0013026593
40	0xbb268adf	-0.0025412363
41	0x3b210c0f	0.0024573838
42	0x3ab44b14	0.0013755285
43	0xb8987c76	-7.2711075e-05
44	0xb988f4c6	-0.00026122312
45	0x3af27e3a	0.0018500753
46	0xb9591829	-0.00020703733
47	0x3b2acd66	0.0026062368
48	0xba915540	-0.0011088029
49	0x39c39b58	0.00037309038
50	0x3b1542e0	0.0022775456
51	0xbae9de3c	-0.001784272
52	0xba8465fd	-0.0010101196
53	0xba4c0958	-0.0007783375
54	0x3af10c73	0.0018390551
55	0xba983668	-0.0011612894
56	0xb9dd39f7	-0.00042195592
57	0x3a55acc6	0.00081510504
58	0xba6b89b8	-0.000898506
59	0x3b0e82cf	0.0021745448
60	0x3b37d6ea	0.0028051683
61	0xbc48f726	-0.012265956
62	0xba8c122e	-0.001068657
63	0x38fc26cd	0.000120235236
64	0x3af62d6b	0.0018781846
65	0x397b6305	0.00023974113
66	0x3ad72497	0.0016414103
67	0x3b6ac7af	0.0035824587
68	0xbaf73905	-0.0018861598
69	0x3b3940ba	0.002826734
70	0xb91ca10f	-0.00014937318
71	0x3a21fbf6	0.00061792077
72	0x3b458f02	0.0030145054
73	0x3abb2d17	0.0014280406
74	0xba89c852	-0.0010511971
75	0x3b5c9fcf	0.003366459
76	0x39081e8c	0.0001298135
77	0x3ced91d4	0.0290002
78	0x3aa9decb	0.0012960074
79	0x3b1a3182	0.0023528044
80	0xbac136f5	-0.001474111
81	0x3b8e419f	0.0043413187
82	0x3cedc396	0.029023927
83	0xba0d9552	-0.00054009736
84	0x3ab349ee	0.0013678649
85	0x398e690c	0.00027162617
86	0x3b014d39	0.0019729866
87	0xbafcb21f	-0.0019279158
88	0x3b13c031	0.0022544975
89	0x3a34effd	0.0006902216
90	0x39dc698c	0.00042040308
91	0x38eaffc6	0.00011205631
92	0x3aab4edb	0.0013069765
93	0xbb6db637	-0.0036271939
94	0xbb82dc38	-0.0039935373
95	0x3acfb0c1	0.0015845523
96	0x3a437a78	0.0007456909
97	0x3950386e	0.00019857447
98	0xba4a8973	-0.000772617
99	0xba0f8fef	-0.0005476465
100	0x3b78ff67	0.0037994029
101	0xb9d1f007	-0.0004004242
102	0x3adeaaf2	0.0016988202
103	0x39f13724	0.00046008185
104	0xbb389d09	-0.0028169772
105	0x3b4c1d86	0.0031145527
106	0x3b3399c8	0.0027404893
107	0x393a8a30	0.00017789821
108	0xbaa9f07d	-0.0012965348
109	0x3b33de9a	0.0027445913
110	0xbb5aa0bc	-0.0033359965
111	0xba123ca4	-0.0005578494
112	0x3a36c935	0.0006972731
113	0xba4d9bca	-0.0007843344
114	0xba93a3e1	-0.001126405
115	0xbb1aaee7	-0.0023602785
116	0x39333a91	0.00017092588
117	0x3b43848e	0.0029833647
118	0x3b8c1a29	0.0042755795
119	0xbb4a35a4	-0.0030854726
120	0xb85602cb	-5.1024177e-05
121	0xba3c83d5	-0.00071912754
122	0xba83c1ce	-0.0010052265
123	0xbad0bf61	-0.0015926176
124	0x38db5012	0.00010457648
125	0x3b09ad31	0.002100777
126	0xb9985123	-0.0002905215
127	0xbabfc842	-0.0014631825
128	0xbb2c3466	-0.002627635
129	0x3a8e0d8a	0.0010837775
130	0x396ff697	0.00022884678
131	0xbac5731b	-0.0015064211
132	0xb98f178e	-0.00027292635
133	0xbb21f9b1	-0.0024715478
134	0x3a0daec7	0.0005404767
135	0xba9e2545	-0.001206555
136	0xbbd87a4b	-0.0066063753
137	0xb9e5b6a2	-0.00043814356
138	0x399c5985	0.00029821336
139	0xbb618e28	-0.0034417007
140	0x3acb56ec	0.0015513576
141	0x3a80c844	0.0009825309
142	0x3ace5dd0	0.0015744511
143	0xba961f4a	-0.0011453417
144	0xbb1a393d	-0.0023532652
145	0x3992fcbd	0.00028035595
146	0xbb2d86bf	-0.002647802
147	0x3a7a3eff	0.00095461303
148	0x3b6cb217	0.0036116892
149	0x393c087c	0.00017932238
150	0xbb19c690	-0.00234643
151	0xb9edd9df	-0.0004536649
152	0x39058b06	0.00012735659
153	0x3b149723	0.0022673092
154	0xbb84806d	-0.00404363
155	0xbac63824	-0.0015122932
156	0x3b487730	0.003058862
157	0x3a97b80a	0.0011575234
158	0x39c8d7ee	0.00038307853
159	0x3b01f97d	0.0019832544
160	0xbab11ef4	-0.0013513253
161	0xba770b2d	-0.00094239676
162	0x3a87e0b5	0.001036665
163	0xbac7cdce	-0.001524383
164	0xba862fa2	-0.0010237584
165	0xba6e6d2b	-0.0009095247
166	0x3b711925	0.003678867
167	0xbb39300b	-0.0028257396
168	0x3b4777cf	0.0030436402
169	0x3a0618fa	0.0005115416
170	0xb960c1ce	-0.00021434503
171	0xbadd1bff	-0.0016869305
172	0xba76810b	-0.0009403384
173	0x3a854a56	0.0010169249
174	0x3b0cc8f6	0.0021482087
175	0x3a9209af	0.0011141802
176	0x3adfe54a	0.0017081883
177	0xb7abf4e9	-2.0498834e-05
178	0xbb93a7b2	-0.004506075
179	0xbb141f18	-0.002260154
180	0x382e3ef9	4.154348e-05
181	0xba949b17	-0.0011337724
182	0x3a2e8565	0.00066574506
183	0x3b50516c	0.0031786812
184	0x3af92ee3	0.0019011166
185	0xbb31f491	-0.002715383
186	0xbb0579c6	-0.0020366772
187	0xbb92b956	-0.00447766
188	0xba1a4983	-0.0005885588
189	0xbaf958d5	-0.0019023666
190	0x3a963847	0.0011460864
191	0xbad96b24	-0.0016587717
192	0x38ee7e90	0.000113722985
193	0x39f3b1c7	0.00046481026
194	0x3aea753b	0.0017887721
195	0xbb14b3af	-0.0022690108
196	0x3b8bc664	0.0042655934
197	0xb953482f	-0.00020149419
198	0xbac2e0b1	-0.0014867989
199	0xbac8a1d1	-0.0015307014
200	0xbb2a4db8	-0.0025986265
201	0x3ae0deda	0.0017156259
202	0x3ad232b5	0.001603684
203	0x3b73b510	0.003718678
204	0x3a08fca6	0.0005225636
205	0x3b10c561	0.0022090303
206	0x3ac93485	0.0015350735
207	0x3a14fb3c	0.0005683189
208	0x3a902f89	0.0011000495
209	0xb8752353	-5.844545e-05
210	0x398017cd	0.00024431795
211	0x3c188c23	0.009310755
212	0xbb0ef818	-0.0021815356
213	0xbabd8592	-0.0014459363
214	0x3909e263	0.00013149674
215	0xbb61ae5a	-0.0034436197
216	0x3aec3023	0.0018019717
217	0xbc22a397	-0.009926698
218	0xba5e2aff	-0.0008475035
219	0x3c81aa39	0.015828239
220	0xbba1e5e2	-0.0049407342
221	0xb999a421	-0.0002930472
222	0xbb661d03	-0.0035112507
223	0x3b3b1b97	0.002855038
224	0xbb1a8195	-0.0023575772
225	0xb9e5cfe9	-0.0004383319
226	0x3b53b121	0.0032301622
227	0xba50d071	-0.00079656305
228	0xba83d79e	-0.0010058766
229	0x3a9b19f0	0.0011833292
230	0x3aad1ad6	0.001320685
231	0xbb90ca6c	-0.004418662
232	0xbb2999a0	-0.002587892
233	0x3ad2665c	0.0016052234
234	0xbb00ad8e	-0.0019634697
235	0xba4ea2a5	-0.0007882512
236	0xbad935b9	-0.0016571797
237	0xbb040179	-0.002014248
238	0xbad677fe	-0.0016362665
239	0xba765185	-0.00093963026
240	0xbb0c6a02	-0.002142549
241	0xba1533f0	-0.0005691638
242	0xb990e54e	-0.00027636666
243	0x3b02bfdc	0.0019950783
244	0xbaf4a8ed	-0.0018666066
245	0x3b7d6fed	0.003867145
246	0x3b511729	0.0031904674
247	0xbab77bdf	-0.0013998708
248	0xb8520207	-5.006979e-05
249	0x3a0ce65e	0.00053749036
250	0x3a870f0c	0.0010304167
251	0xb8f1e0ca	-0.00011533646
252	0x3b4e812d	0.00315101
253	0xba97b298	-0.0011573611
254	0x3b953cee	0.0045543825
255	0x3a19ba17	0.00058642164

exp_avg_sq f4 [3, 768]
0	0x38104f6c	3.4406243e-05
1	0x38684e0b	5.5385794e-05
2	0x3877e477	5.9102164e-05
3	0x398e7d4c	0.00027177704
4	0x3921725c	0.00015396759
5	0x38a5ccf6	7.90599e-05
6	0x38143739	3.533738e-05
7	0x38710de6	5.747182e-05
8	0x387ab622	5.977427e-05
9	0x38bcbfbc	9.000252e-05
10	0x389c7d53	7.462003e-05
11	0x391fec64	0.00015251484
12	0x38c25ac3	9.2675466e-05
13	0x3905c9c0	0.00012759026
14	0x390d19bd	0.00013456396
15	0x3998d132	0.00029147562
16	0x397ca088	0.00024092395
17	0x395a6afe	0.00020829958
18	0x38ad6ff4	8.270136e-05
19	0x384671bd	4.7312806e-05
20	0x37d5e675	2.5498894e-05
21	0x37cb55ac	2.423938e-05
22	0x388e6269	6.789418e-05
23	0x387a6e02	5.9707098e-05
24	0x390246a4	0.00012424082
25	0x388467d7	6.313592e-05
26	0x381a8b22	3.684604e-05
27	0x3834e160	4.312524e-05
28	0x390562f3	0.0001272073
29	0x3856726a	5.1128132e-05
30	0x3847e9ce	4.7663045e-05
31	0x399fd6ee	0.00030486978
32	0x385370c1	5.041133e-05
33	0x38b627ec	8.685872e-05
34	0x390af067	0.00013250262
35	0x37a6b4ea	1.9872987e-05
36	0x384a1fd7	4.8190206e-05
37	0x37fa13c9	2.9811536e-05
38	0x38eff000	0.000114411116
39	0x388701b9	6.4376225e-05
40	0x39b31fb2	0.00034165155
41	0x396574f6	0.00021882713
42	0x3858f70a	5.1728486e-05
43	0x385842d4	5.156065e-05
44	0x37cd1a32	2.4450103e-05
45	0x37e86f65	2.7708427e-05
46	0x37f4c06a	2.9176666e-05
47	0x39271a93	0.00015936261
48	0x380fcea0	3.428629e-05
49	0x38049e83	3.1618878e-05
50	0x39043d52	0.00012611345
51	0x387576d3	5.8523216e-05
52	0x387885f1	5.925255e-05
53	0x3837531e	4.370801e-05
54	0x381509cd	3.5533496e-05
55	0x38ff775d	0.00012181581
56	0x381d8683	3.755699e-05
57	0x38a5e2ab	7.910033e-05
58	0x38738235	5.805698e-05
59	0x390b8533	0.00013305694
60	0x39103650	0.00013753143
61	0x3b3b0492	0.002853666
62	0x3830cb6a	4.2151114e-05
63	0x38b1da1c	8.480644e-05
64	0x3922327c	0.00015468331
65	0x382451bb	3.9176764e-05
66	0x37f5fba4	2.9323455e-05
67	0x38dfd5b2	0.000106732725
68	0x38203615	3.819734e-05
69	0x38eca629	0.00011284307
70	0x3867e272	5.5285585e-05
71	0x388c1e51	6.681367e-05
72	0x381ed610	3.7869497e-05
73	0x39384077	0.00017571622
74	0x3818ca6f	3.6428155e-05
75	0x39326184	0.0001701173
76	0x38c9acc6	9.6166084e-05
77	0x3c99db74	0.018781401
78	0x38329f97	4.2587137e-05
79	0x3983c547	0.0002513325
80	0x3839a9b5	4.426549e-05
81	0x38f619bf	0.0001173499
82	0x3c9af7e2	0.018917028
83	0x38fb62ce	0.000119870165
84	0x38c1d6ef	9.242992e-05
85	0x399e62f3	0.0003020983
86	0x386d96dc	5.6645702e-05
87	0x388541d8	6.3541986e-05
88	0x392346a4	0.00015571207
89	0x382a1f29	4.056018e-05
90	0x39204113	0.00015283031
91	0x388305f7	6.247678e-05
92	0x38363ba0	4.344771e-05
93	0x38c5b16c	9.4267394e-05
94	0x38ed23a3	0.000113076785
95	0x38db7a29	0.00010465488
96	0x386fcafa	5.7171077e-05
97	0x3a3eeeec	0.0007283527
98	0x3840ab1c	4.5935725e-05
99	0x388ad068	6.6191715e-05
100	0x39208d9e	0.00015311546
101	0x381e2382	3.7703205e-05
102	0x38e54940	0.00010933215
103	0x379a5c4f	1.8401215e-05
104	0x388d736b	6.744902e-05
105	0x3928b390	0.00016088621
106	0x38badfbf	8.910847e-05
107	0x3999059c	0.00029186613
108	0x38b3541f	8.551054e-05
109	0x38ad5036	8.264223e-05
110	0x3b51db2c	0.0032021506
111	0x38b23d64	8.499136e-05
112	0x38204195	3.820805e-05
113	0x383cfb2c	4.5056615e-05
114	0x382da72e	4.1402112e-05
115	0x391b261c	0.00014796149
116	0x383c2fd6	4.4867244e-05
117	0x389805d3	7.24901e-05
118	0x38cf87ae	9.8958015e-05
119	0x38dc86c7	0.00010515522
120	0x385fb94c	5.3339914e-05
121	0x3850fdb2	4.9827337e-05
122	0x39a10602	0.0003071279
123	0x390e8502	0.00013591725
124	0x38e59dc9	0.00010948961
125	0x38f7cb4d	0.000118157455
126	0x3814ac65	3.5446505e-05
127	0x3824c807	3.9286937e-05
128	0x38b7beb4	8.761641e-05
129	0x37f52a3a	2.922594e-05
130	0x38054974	3.177808e-05
131	0x38d99949	0.00010375918
132	0x380d111b	3.363295e-05
133	0x3911411c	0.00013852533
134	0x38220bbb	3.8634735e-05
135	0x388a5506	6.5961896e-05
136	0x3a0e0d65	0.0005418866
137	0x3885d4ad	6.381548e-05
138	0x380d4b4f	3.3687156e-05
139	0x381e5222	3.7746628e-05
140	0x3825d692	3.95389e-05
141	0x386d53fb	5.6583416e-05
142	0x38118741	3.469666e-05
143	0x38237710	3.8973114e-05
144	0x39ad761a	0.00033085124
145	0x37b0931f	2.1049344e-05
146	0x387e9fc3	6.070711e-05
147	0x385286c3	5.019341e-05
148	0x3920b367	0.00015325622
149	0x38865cdf	6.4069165e-05
150	0x38178053	3.6120717e-05
151	0x385c4dda	5.2524592e-05
152	0x38aaaed5	8.138797e-05
153	0x381de536	3.7645186e-05
154	0x39052c35	0.00012700337
155	0x392ed554	0.00016673404
156	0x39092636	0.00013079573
157	0x39099417	0.00013120506
158	0x38721377	5.7715424e-05
159	0x3925329f	0.00015754484
160	0x3871c427	5.764156e-05
161	0x389460cc	7.07522e-05
162	0x38c95d77	9.601836e-05
163	0x382009b4	3.815601e-05
164	0x380e0abf	3.3865446e-05
165	0x38af6e6c	8.365218e-05
166	0x390aa572	0.00013222339
167	0x39055008	0.00012713682
168	0x391bcbdf	0.000148579
169	0x38b67d0f	8.70173e-05
170	0x38888068	6.508903e-05
171	0x39077a29	0.00012920111
172	0x38161f5c	3.5791993e-05
173	0x381eb57f	3.7839167e-05
174	0x38c0a01e	9.1850976e-05
175	0x37f1f727	2.8844528e-05
176	0x38a5e7a3	7.910959e-05
177	0x3879a9c6	5.952434e-05
178	0x38ba06b0	8.870417e-05
179	0x388558c7	6.35847e-05
180	0x38e5f4f7	0.00010965199
181	0x38a043f2	7.64205e-05
182	0x388d6501	6.7422174e-05
183	0x39036338	0.00012530095
184	0x38ca1fe5	9.6380514e-05
185	0x391c23f1	0.00014890709
186	0x3824687a	3.919795e-05
187	0x3930f3ec	0.00016875536
188	0x3915030b	0.00014210881
189	0x384f8d2b	4.948412e-05
190	0x385b2c84	5.2255127e-05
191	0x38073eb7	3.2244916e-05
192	0x37d64211	2.5541553e-05
193	0x38b57f3c	8.654452e-05
194	0x38bf596e	9.124247e-05
195	0x389cba6d	7.473384e-05
196	0x391359c0	0.00014052447
197	0x3817a26b	3.615247e-05
198	0x38a2c1ce	7.760861e-05
199	0x3815d7bb	3.5725283e-05
200	0x3885dc6e	6.3829924e-05
201	0x389dc3d6	7.522821e-05
202	0x38bce0da	9.0064204e-05
203	0x388ce259	6.717881e-05
204	0x38c2254d	9.257589e-05
205	0x392b4c4e	0.00016336257
206	0x39710dff	0.00022988765
207	0x378d5165	1.6846412e-05
208	0x388d0662	6.724593e-05
209	0x38d051fc	9.933484e-05
210	0x37bb639c	2.2338521e-05
211	0x3985e6c7	0.0002553968
212	0x391b96df	0.00014838156
213	0x38e8208c	0.000110686844
214	0x38836ea6	6.267177e-05
215	0x3953dbbf	0.0002020439
216	0x3843fbcb	4.6726123e-05
217	0x3b253abf	0.0025212017
218	0x380f3ddc	3.4151468e-05
219	0x3aba62d6	0.0014220129
220	0x38ab383d	8.1643906e-05
221	0x37d4fca8	2.5390022e-05
222	0x38c417ae	9.350419e-05
223	0x38a1d6b6	7.717071e-05
224	0x39275453	0.00015957774
225	0x390808c5	0.00012973238
226	0x38a94f22	8.0732876e-05
227	0x38cf2791	9.877899e-05
228	0x389dc6a8	7.523346e-05
229	0x385d33a9	5.273862e-05
230	0x3834af79	4.3078766e-05
231	0x38d5ecf5	0.00010200768
232	0x38de365c	0.0001059591
233	0x3820a62b	3.830173e-05
234	0x3841a62a	4.6169538e-05
235	0x38da8b79	0.00010421029
236	0x38123d39	3.486613e-05
237	0x38055f3a	3.1798358e-05
238	0x3817ede4	3.622276e-05
239	0x384f346e	4.9401475e-05
240	0x39fb3a61	0.00047917946
241	0x38bbd0f0	8.9557725e-05
242	0x38b7ab2a	8.758002e-05
243	0x38a1495f	7.690745e-05
244	0x397c0782	0.0002403539
245	0x390c9eeb	0.00013410642
246	0x38897eaf	6.556266e-05
247	0x38c63b06	9.45237e-05
248	0x37c065b0	2.2935536e-05
249	0x393da7cf	0.00018086958
250	0x387a92e5	5.974145e-05
251	0x3871b44b	5.762679e-05
252	0x38e158bf	0.00010745366
253	0x38b8621d	8.792079e-05
254	0x3858cd32	5.1689516e-05
255	0x388505f7	6.343045e-05

exp_avg f4 [3]
0	0xbc0561ca	-0.0081409905
1	0x3b686678	0.0035461467
2	0x3b969070	0.004594855

exp_avg_sq f4 [3]
0	0x3a93e2d1	0.0011282807
1	0x3a914c17	0.0011085299
2	0x398d9ea0	0.000270118
