2024:05:01_ckpts/relational/Linear/lr_0.001_epoch_100/3.pth (torch, 30291 bytes, 6 tensors)

linear.weight f4 [3, 768]
-0.050655395 -0.09339556 -0.24366474 -0.34454617 0.19502254 -0.03905125 -0.48395175 0.099269964
-0.25026634 0.16152008 0.53860766 0.18121567 0.13856843 0.3626373 -0.25260016 0.053973578
0.2981671 -0.034377057 -0.06597076 0.056445528 -0.20133601 0.1653543 -0.2548097 -0.080099456
0.5818284 -0.23607287 0.22233371 0.09336294 -0.23723708 0.19916596 0.183415 -0.13998389
-0.16428502 0.51760644 -0.12444711 0.4248404 -0.23435974 -0.35784382 -0.028902683 0.04473794
0.122763254 -0.011879711 -0.10155986 -0.4515686 -0.1318891 -0.06286141 -0.23455009 0.334255
0.24763617 -0.32571995 0.41968763 -0.45781937 -0.07404708 0.09787802 -0.2161324 0.24919952
0.45881176 0.15089309 -0.15898754 -0.2558255 0.33421227 0.098960996 0.15309557 -0.05425116
-0.3677219 -0.01821501 0.0886244 0.074177265 -0.058906768 0.0785231 -0.104158424 0.026708417
0.44637963 0.07735301 -0.16359779 -0.04811927 0.09339753 0.024465714 0.087937154 0.36221263
0.0853175 -0.14981149 -0.01041364 0.19558582 0.009626783 0.16868567 -0.013040547 0.2681496
0.08328587 -0.15931156 -0.062127132 0.15755351 0.1151217 -0.38349944 -0.2708704 0.19671549
-0.6871625 0.22761674 -0.23338665 -0.25792024 -0.2532168 -0.112385385 -0.2724015 -0.031250678
0.15933639 -0.084567994 0.14922184 0.14379409 -0.2371655 -0.05034871 0.06585932 -0.09080264
-0.12757583 -0.18695252 0.1542044 -0.4226011 -0.18266506 -0.22566861 0.046414137 0.107885584
0.103795424 0.08991135 -0.10033465 -0.32694858 -0.13366474 0.019847637 -0.50206167 -0.30749807
0.41533008 0.38635948 -0.5441624 0.32766795 0.21356861 0.24394444 0.24595909 -0.33338743
0.087353334 0.06527707 -0.04400955 0.21643476 0.18126222 -0.4067346 -0.21274464 0.8927364
-0.29910633 0.22330113 0.17073244 -0.37629527 -0.3818417 -0.3319571 0.23565544 0.19439305
0.11483745 0.07596297 0.27899265 -0.15057439 -0.024613656 -0.13145125 0.07344717 -0.048963845
0.043604206 0.29107812 -0.30369058 0.051981665 0.105318844 -0.14125665 0.05593776 -0.1883555
-0.17505951 0.13190022 -0.056575112 -0.27569768 0.08801449 -0.17811033 0.083632864 0.25203046
-0.13845678 0.19294919 0.26928928 0.5616612 -0.33297625 -0.29893458 -0.18494372 -0.13218723
0.049961697 0.03425118 0.2601563 -0.1623414 0.028883526 -0.039246153 0.3473766 -0.1406341
-0.27854493 0.23804207 -0.13058013 0.24505708 -0.20236777 0.12671675 -0.30023274 -0.18179162
-0.2455615 0.15215309 -0.02204537 -0.2657034 0.13297318 -0.12616764 -0.07991022 -0.043025937
-0.09901622 -0.033370093 0.22897878 0.29637548 0.21482998 0.011571747 0.19809411 0.015015591
-0.07680703 0.027511535 0.18224786 -0.016885266 0.30220598 -0.33609423 -0.13186379 -0.41262957
-0.031930756 0.16355695 0.2641941 -0.33232072 0.33926088 0.03025039 -0.025476053 0.048577122
0.33450428 -0.35583067 -0.12688297 0.26692128 0.22314353 0.119457796 -0.1781002 -0.017998181
-0.038901936 0.23379835 -0.13263194 -0.10970304 -0.054799166 -0.5234752 0.28317726 -0.19354233
0.20001404 -0.12087175 0.043905742 -0.080147244 -0.022459129 -0.022434039 -0.19480884 0.17810984
00000000: 087c 4fbd 2c46 bfbd 4083 79be 5b68 b0be
00000010: fdb3 473e 34f4 1fbd 86c8 f7be 0d4e cb3d
00000020: e922 80be 8565 253e 31e2 093f 9a90 393e
00000030: e2e4 0d3e 99ab b93e cf54 81be 6613 5d3d
00000040: 5ca9 983e f5ce 0cbd ae1b 87bd 6d33 673d
00000050: 072b 4ebe a352 293e 6b76 82be 2f0b a4bd
00000060: b5f2 143f 16bd 71be 73ab 633e 1235 bf3d
00000070: 47ee 72be 29f2 4b3e 24d1 3b3e f057 0fbe
00000080: 553a 28be db81 043f 20de febd ae84 d93e
00000090: 00fc 6fbe 4e37 b7be 52c5 ecbc 213f 373d
000000a0: 4d6b fb3d 1fa3 42bc 9efe cfbd 0034 e7be
000000b0: f00d 07be 7cbd 80bd e62d 70be 7923 ab3e
000000c0: 5694 7d3e c4c4 a6be 4ce1 d63e 4d67 eabe
000000d0: ffa5 97bd 4574 c83d d051 5dbe 292e 7f3e
000000e0: 60e9 ea3e b883 1a3e a1cd 22be 8ffb 82be
000000f0: df1d ab3e 10ac ca3d 16c5 1c3e 7736 5ebd
00000100: 0b46 bcbe a537 95bc b680 b53d 40ea 973d
00000110: 3948 71bd b8d0 a03d 0351 d5bd 9ccb da3c
00000120: df8b e43e 416b 9e3d 2e86 27be b618 45bd
00000130: 3447 bf3d 526c c83c 6518 b43d ef73 b93e
00000140: f1ba ae3d 2f68 19be f99d 2abc a647 483e
00000150: a8b9 1d3c f0bb 2c3e 05a8 55bc e84a 893e
00000160: c891 aa3d 9222 23be 0579 7ebd b555 213e
00000170: edc4 eb3d 0a5a c4be 86af 8abe c96f 493e
00000180: e2e9 2fbf 5d14 693e e9fc 6ebe 1f0e 84be
00000190: a2a5 81be 4f2a e6bd 3678 8bbe b600 00bd
000001a0: 1429 233e fc31 adbd 9ccd 183e c23e 133e
000001b0: 83db 72be 733a 4ebd 40e1 863d bcf6 b9bd
000001c0: 3da3 02be 7b70 3fbe c2e7 1d3e 2c5f d8be
000001d0: 8d0c 3bbe ac15 67be c01c 3e3d 1ef3 dc3d
000001e0: b292 d43d 7123 b83d 417c cdbd ce65 a7be
000001f0: 69df 08be 8397 a23c 1d87 00bf 6370 9dbe
00000200: 25a6 d43e e9d0 c53e 3a4e 0bbf 18c4 a73e
00000210: bbb1 5a3e 92cc 793e b3dc 7b3e c2b1 aabe
00000220: 4ee6 b23d fcaf 853d 5c43 34bd 13a1 5d3e
00000230: ce9c 393e 843f d0be bbd9 59be 5f8a 643f
00000240: 7724 99be 0da9 643e 7cd4 2e3e c6a9 c0be
00000250: c180 c3be 48f6 a9be a94f 713e f90e 473e
00000260: e62f eb3d 7992 9b3d 20d8 8e3e 2c30 1abe
00000270: 94a2 c9bc 289b 06be 786b 963d 508e 48bd
00000280: 539a 323d 3108 953e 557d 9bbe baea 543d
00000290: 68b1 d73d 95a5 10be fe1e 653d 44e0 40be
000002a0: cd42 33be da10 073e 4ebb 67bd 3f28 8dbe
000002b0: f140 b43d 8e62 36be b547 ab3d 230a 813e
000002c0: 9dc7 0dbe 7994 453e 49e0 893e 07c9 0f3f
000002d0: dd7b aabe f40d 99be e361 3dbe 175c 07be
000002e0: a3a4 4c3d f74a 0c3d 3533 853e d33c 26be
000002f0: 259d ec3c 93c0 20bd 59db b13e 6302 10be
00000300: 719d 8ebe 4dc1 733e ccb6 05be 3ef0 7a3e
00000310: 7f39 4fbe 09c2 013e 1bb8 99be 9527 3abe
00000320: 7974 7bbe 05ce 1b3e 7e98 b4bc 470a 88be
00000330: 1f2a 083e 1732 01be f8a7 a3bd f73b 30bd
00000340: 04c9 cabd 14af 08bd 6a79 6a3e 87be 973e
00000350: 64fc 5b3e 6d97 3d3c 2fd9 4a3e f403 763c
00000360: 014d 9dbd df5f e13c 2f9f 3a3e f852 8abc
00000370: beba 9a3e 8b14 acbe 4d07 07be 2f44 d3be
00000380: d3c9 02bd 797b 273e 7344 873e f125 aabe
00000390: 9ab3 ad3e aacf f73c 28b3 d0bc cef8 463d
000003a0: 2544 ab3e 702f b6be 9ced 01be e8a9 883e
000003b0: bd7f 643e 4aa6 f43d e65f 36be ec70 93bc
000003c0: a357 1fbd d668 6f3e abd0 07be fdab e0bd
000003d0: 1775 60bd 7902 06bf 9cfc 903e f62f 46be
000003e0: 7bd0 4c3e 9c8b f7bd 82d6 333d 3d24 a4bd
000003f0: 35fc b7bc 97c7 b7bc f87b 47be 6d62 363e

linear.bias f4 [3]
0.052416034 -0.027362758 -0.009521049
00000000: 32b2 563d dd27 e0bc 2dfe 1bbc

exp_avg f4 [3, 768]
-0.0022910393 0.0017128068 0.0001450604 0.0027124076 -0.0005460475 -0.0037847972 0.0011341766 -0.0027510067
0.00014680917 0.0010241861 -0.0008100934 -0.0008072358 0.0028720784 -0.00078764634 -0.0022197068 -0.005667427
0.0045149564 -0.00034004648 -0.00080740004 -0.0020311924 -0.0028683147 -0.00049475196 -0.0024408877 0.001270653
-0.0006271008 0.00020069165 -0.0003095832 0.00011439426 -0.0027150847 -0.00012673365 0.00046246342 1.7897537e-05
0.0012563622 -3.5845485e-05 0.0025443335 0.0006753095 -0.0018289185 0.0011638646 0.0005791941 -0.00040734163
-0.0003909734 -0.00016635284 -0.001928533 0.00029019782 -0.00042677342 0.00091029453 0.0033542628 -0.0010779516
-0.00087131775 -4.9409406e-05 -0.0009843586 0.00044735242 -0.0006683842 -0.00039807073 -0.0013799267 0.0031646702
-0.0014034319 0.001977298 0.0018057104 0.0011519009 0.0013675793 0.002046318 -0.0009662453 0.0035571815
-0.0011069756 -0.0037111298 -0.0001082255 -0.0012025282 0.0020686807 -0.0021477647 0.0025811133 -0.0017762266
-7.97714e-05 -0.0024246513 0.001605116 -0.0009944292 0.00069513364 -0.011659985 0.0020262038 -0.0053273547
-0.00024477925 -0.002535881 -0.006872864 -0.0014767073 -0.0014155504 -0.0016013463 -0.0012670805 0.0005994527
3.4950375e-05 -0.00029988255 -0.002876569 0.00074613106 0.0011871823 -0.00028131768 0.0017776185 -0.004037982
0.00027010767 0.0024675075 0.0007691058 -0.00010873033 -0.0014441457 -0.0020214317 0.00019771604 0.001446259
0.00039744505 -0.0019927423 0.0013832863 -0.00088403083 0.0017448425 -0.0014407978 0.0074889353 0.0022415589
-0.0022379954 -9.992767e-05 0.00082566263 -0.0033810355 -0.0014309379 -0.00027677347 -0.0006959848 0.0008163869
-0.0016911274 0.00062303664 -2.228144e-05 -0.00035268904 0.003219113 -0.0032484578 0.0018312208 0.0016973026
0.00094651186 -0.00011470051 0.0008035994 0.0013506608 -0.000767961 0.0017612618 -0.0038427787 0.0036279468
0.0058234646 0.0012753834 0.0012766345 0.0016263658 -0.00031799957 -0.000107849184 -0.0018074261 -2.540984e-05
0.0008962093 -0.0013396177 -0.00057869335 -0.00021123873 -0.0013049343 -0.0024661613 0.0012014756 0.0016968133
0.0011153736 0.0015956323 -0.0023391345 0.002217347 -0.0036713125 0.006246045 0.0005679079 0.0036874202
0.0011963864 8.183492e-05 -0.00072830444 0.00044950156 0.0016528275 -0.0023241662 0.0027551241 -0.0017637961
-0.00054996496 -0.0024298877 -0.0008356855 -0.0014981618 -1.7165032e-06 -7.467864e-05 -0.00082075084 0.0023559118
8.286114e-05 0.00081175205 -0.0007677288 -0.00057852134 -0.0012061581 -0.000481603 0.002465674 0.00057193293
-0.0018844528 0.0003629419 -0.0010638975 0.002299568 -0.00088394276 -0.0001085408 -0.0015492183 0.0014204034
5.9862457e-05 0.004559547 0.0025946791 0.0006416755 -0.0011612416 -0.00015566911 0.0018270122 0.0010640094
0.00057943485 0.0011575068 0.00019542714 -0.00035837092 0.0021880672 0.0011118142 -0.002113511 0.0005896459
-0.0020323817 -0.0044524875 -8.990966e-05 -0.0018202377 0.0005523636 0.0027425364 0.0005685391 -0.00043534502
0.0029317697 0.004617844 0.0012741031 0.0002672461 0.00018877795 0.00026936314 0.0021604574 -0.00012117928
0.004638729 -0.00042694987 -0.0026516803 0.0011167249 -0.0011763943 -0.0016442758 0.0020961086 -8.157377e-05
-0.0022879322 -0.0014308488 0.00014628092 0.0009846595 -0.000121496625 0.00045130824 -0.00027716786 -0.00041191353
0.0022651844 0.0026955563 -0.0008674011 0.0046913493 0.0020617843 -0.0007627341 -0.0026490253 0.0037993547
0.0008905142 0.0022393207 -0.0026051477 0.00072373083 -0.001971427 0.001652937 -0.00026345675 0.0019730134
00000000: 4325 16bb 4280 e03a 5b1b 1839 a6c2 313b
00000010: a124 0fba 5c0a 78bb a7a8 943a 3c4a 34bb
00000020: c9f0 1939 fc3d 863a 735c 54ba ad9c 53ba
00000030: 7b39 3c3b 0d7a 4eba 8078 11bb d3b5 b9bb
00000040: 33f2 933b 4448 b2b9 b3a7 53ba c11d 05bb
00000050: 56fa 3bbb 3eb2 01ba 4df7 1fbb 0a8c a63a
00000060: 0664 24ba c170 5239 8e4f a2b9 f3e6 ef38
00000070: 90ef 31bb cee3 04b9 ca76 f239 ab22 9637
00000080: 85ac a43a cc58 16b8 d5be 263b 4107 313a
00000090: 52b8 efba d18c 983a 0fd5 173a 7890 d5b9
000000a0: 90fb ccb9 006f 2eb9 d4c6 fcba b125 9839
000000b0: 8fc0 dfb9 d5a0 6e3a 31d3 5b3b 0e4a 8dba
000000c0: 2569 64ba f23c 4fb8 9805 81ba a08a ea39
000000d0: 8136 2fba 26b4 d0b9 a8de b4ba 5b66 4f3b
000000e0: 5cf3 b7ba 8e95 013b 96ad ec3a 61fb 963a
000000f0: 5940 b33a 851b 063b a04b 7dba 9a1f 693b
00000100: f017 91ba 6d36 73bb 1ff7 e2b8 279e 9dba
00000110: b492 073b 83c1 0cbb e527 293b 46d0 e8ba
00000120: f24a a7b8 e6e6 1ebb c162 d23a 8257 82ba
00000130: a139 363a 8609 3fbc 0fca 043b 1791 aebb
00000140: b755 80b9 0631 26bb c335 e1bb 138e c1ba
00000150: fd89 b9ba 44e4 d1ba 2b14 a6ba 9724 1d3a
00000160: ae97 1238 8e39 9db9 d284 3cbb 0298 433a
00000170: 3a9b 9b3a d27d 93b9 fbfe e83a 0c51 84bb
00000180: 3d9d 8d39 e8b5 213b d19d 493a 2706 e4b8
00000190: 7d49 bdba ff79 04bb ff51 4f39 6690 bd3a
000001a0: 2c60 d039 ab98 02bb 634f b53a 4ebe 67ba
000001b0: 33b3 e43a 27d9 bcba be65 f53b 1ee7 123b
000001c0: 55ab 12bb 4290 d1b8 4871 583a 5d94 5dbb
000001d0: 4f8e bbba e81b 91b9 c072 36ba cc02 563a
000001e0: d2a8 ddba 4853 233a 07e9 bab7 1fe9 b8b9
000001f0: c1f7 523b 14e4 54bb 9305 f03a 0678 de3a
00000200: 561f 783a 5e8b f0b8 a5a8 523a a808 b13a
00000210: fe50 49ba 24da e63a 21d7 7bbb d9c2 6d3b
00000220: c3d2 be3b c42a a73a bf54 a73a c82b d53a
00000230: 2eb9 a6b9 172d e2b8 28e7 ecba 3727 d5b7
00000240: 97ef 6a3a 1c96 afba 74b3 17ba f77f 5db9
00000250: 540a abba 529f 21bb d57a 9d3a 9b67 de3a
00000260: ba31 923a 8924 d13a 2a4c 19bb e950 113b
00000270: 679a 70bb a0ab cc3b a7df 143a a5a8 713b
00000280: 11d0 9c3a ca9e ab38 afeb 3eba 14ab eb39
00000290: b0a3 d83a 0a51 18bb 508f 343b 2d2f e7ba
000002a0: 862b 10ba c03e 1fbb e811 5bba f85d c4ba
000002b0: 9a62 e6b5 ca9c 9cb8 a827 57ba a465 1a3b
000002c0: bcc5 ad38 c2cb 543a 6841 49ba e9a7 17ba
000002d0: f317 9eba a97f fcb9 2597 213b c5ed 153a
000002e0: beff f6ba 3d49 be39 7a72 8bba 59b4 163b
000002f0: 65b8 67ba 66a0 e3b8 240f cbba d42c ba3a
00000300: d314 7b38 4168 953b 7e0b 2a3b 1d36 283a
00000310: cd34 98ba 1c3b 23b9 5b78 ef3a 3b76 8b3a
00000320: 37e5 173a 7cb7 973a 93eb 4c39 bbe3 bbb9
00000330: ad65 0f3b 4bba 913a d582 0abb 7792 1a3a
00000340: b531 05bb 2ce6 91bb e28d bcb8 0b95 eeba
00000350: 7ecc 103a 20bc 333b 030a 153a 053f e4b9
00000360: ef22 403b 4851 973b ceff a63a 2a1d 8c39
00000370: b2f2 4539 4f39 8d39 7696 0d3b a121 feb8
00000380: 7b00 983b 3ed8 dfb9 d0c7 2dbb 125f 923a
00000390: 3e31 9aba be84 d7ba de5e 093b 9612 abb8
000003a0: 22f1 15bb 528b bbba fc62 1939 b10f 813a
000003b0: 01cc feb8 919d ec39 d750 91b9 19f6 d7b9
000003c0: 7d73 143b eea7 303b 4d62 63ba e4b9 993b
000003d0: 001f 073b 38f2 47ba 459b 2dbb 98fe 783b
000003e0: 6571 693a 91c1 123b 20bb 2abb c1b8 3d3a
000003f0: 0e33 01bb 5da7 d83a 9120 8ab9 ac4d 013b

exp_avg_sq f4 [3, 768]
2.5939105e-05 0.0001234723 2.9269066e-05 0.00047699074 0.00020578955 8.459025e-05 7.228227e-05 8.945077e-05
7.462254e-05 5.5083678e-05 8.782064e-05 0.00019161525 0.000103763436 0.00021039178 0.0001009945 0.00018536866
0.00032691442 0.00016439814 0.000111024885 4.1084313e-05 5.1627416e-05 2.1287473e-05 8.132256e-05 4.4122506e-05
7.7798846e-05 7.7492616e-05 2.5925767e-05 2.8622546e-05 0.0001257625 4.240536e-05 5.5592354e-05 0.00027661433
5.445508e-05 7.3971845e-05 0.00011297793 1.8610155e-05 4.360854e-05 3.0010204e-05 0.00030298744 3.9459956e-05
0.00045541913 0.0003451488 8.647065e-05 5.7169367e-05 2.5196681e-05 8.894747e-05 4.8372578e-05 0.00013452537
4.159175e-05 2.4612007e-05 0.000110497414 3.5761575e-05 5.7864025e-05 3.8543327e-05 8.4788626e-05 0.00014522557
1.9069428e-05 0.00016373277 7.223284e-05 9.402236e-05 8.260628e-05 0.0016955383 7.127613e-05 7.8994584e-05
8.505396e-05 4.8182184e-05 3.2110947e-05 0.0001434647 3.8752158e-05 0.00014133839 3.6903453e-05 9.0145084e-05
1.985438e-05 0.00028162316 3.7236685e-05 0.00025597733 0.00014483625 0.01563264 9.5952666e-05 0.0002909454
4.8935595e-05 0.00020268872 0.012352966 0.00015879504 0.00014278722 0.00040395584 4.498235e-05 9.2057235e-05
3.8861293e-05 3.5134453e-05 0.00016363543 7.875962e-05 5.4064232e-05 0.00010553773 2.3654791e-05 0.00011960548
2.3308685e-05 0.0005706237 6.728435e-05 6.734456e-05 0.00019120127 4.6401175e-05 0.00011460106 2.8935177e-05
0.000118579504 0.00017889761 0.00013238491 0.00040988662 7.647172e-05 6.266179e-05 0.0026469396 0.000162719
8.5413034e-05 6.113996e-05 3.3454748e-05 0.00013749406 5.6908935e-05 5.712034e-05 6.416966e-05 0.00014602573
2.945206e-05 4.8156184e-05 0.00038346354 7.606837e-05 0.00022501123 0.00016853245 3.0870935e-05 0.00010357337
3.199827e-05 2.4076491e-05 2.8674222e-05 0.00011144986 3.4677396e-05 9.036593e-05 4.9992435e-05 5.5644567e-05
0.00043301246 0.000100135425 3.3841705e-05 6.736613e-05 8.544443e-05 9.897213e-05 2.828165e-05 2.2427488e-05
0.00027320345 2.9143532e-05 2.2426544e-05 4.1208586e-05 0.00012620809 9.0488946e-05 8.299068e-05 0.0001574128
5.098808e-05 6.283365e-05 0.00014724048 0.0004369819 8.894383e-05 0.00023355683 0.0001581451 0.00015166702
3.398206e-05 9.309332e-05 6.353645e-05 7.2079296e-05 5.9507736e-05 0.00019684907 0.00018629168 0.00010048262
8.79454e-05 0.00011675541 3.0775027e-05 8.070568e-05 4.4415327e-05 5.0089664e-05 0.00013858013 6.5525666e-05
9.226085e-05 8.1817656e-05 3.2895245e-05 2.1591568e-05 0.00011223353 6.7562796e-05 5.943262e-05 6.098779e-05
6.043171e-05 0.00033241237 8.081719e-05 8.615613e-05 0.0002861905 7.0127004e-05 4.5837372e-05 5.3189764e-05
2.403036e-05 9.636459e-05 5.0926268e-05 9.98487e-05 6.4869135e-05 0.00012498077 8.3996834e-05 3.2100917e-05
3.730236e-05 3.957858e-05 0.00019275829 3.331565e-05 0.00012251394 0.000121997095 0.00015144932 4.2157313e-05
3.336051e-05 0.00013140758 2.9629698e-05 0.00033820773 0.00013688023 0.00016327607 6.0627117e-05 0.0001317313
6.786937e-05 0.002177479 4.32863e-05 0.00142875 8.185782e-05 1.8687802e-05 5.0531627e-05 3.1935237e-05
0.0002594542 0.00022205432 7.185497e-05 0.00017608928 0.00021589448 0.000119788725 3.221112e-05 0.0001303524
7.6324584e-05 6.322194e-05 4.383819e-05 0.00018057223 1.9431194e-05 3.7164664e-05 2.575464e-05 3.214952e-05
0.00033611813 6.679791e-05 6.628586e-05 0.00015552614 0.00021581905 0.00011061401 2.6922125e-05 0.00016501512
9.5121926e-05 0.00018938893 9.7745404e-05 0.00010309568 3.922019e-05 6.881459e-05 6.3155974e-05 4.518154e-05
00000000: ce97 d937 5878 0139 d786 f537 9d14 fa39
00000010: 36c9 5739 0b66 b138 4096 9738 8497 bb38
00000020: ac7e 9c38 a609 6738 592c b838 54ec 4839
00000030: 929b d938 9d9c 5c39 02cd d338 855f 4239
00000040: b665 ab39 4a62 2c39 08d6 e838 f251 2c38
00000050: 848a 5838 8092 b237 b88b aa38 2e10 3938
00000060: f027 a338 8883 a238 297b d937 731a f037
00000070: 1ddf 0339 69dc 3138 d62b 6938 8c06 9139
00000080: b266 6438 5521 9b38 90ee ec38 011d 9c37
00000090: 50e8 3638 6cbe fb37 49da 9e39 ce81 2538
000000a0: 52c5 ee39 16f5 b439 9457 b538 24c9 6f38
000000b0: 765d d337 4f89 ba38 a9e3 4a38 610f 0d39
000000c0: cd72 2e38 e275 ce37 d9ba e738 b3fe 1538
000000d0: 06b3 7238 95a9 2138 8cd0 b138 b147 1839
000000e0: 49f7 9f37 aeaf 2b39 b67b 9738 df2d c538
000000f0: e93c ad38 d33c de3a 157a 9538 e5a9 a538
00000100: ff5e b238 3a17 4a38 deae 0638 036f 1639
00000110: d089 2238 3c34 1439 c8c8 1a38 460c bd38
00000120: f58c a637 d2a6 9339 962e 1c38 b234 8639
00000130: 2fdf 1739 0610 803c 323a c938 088a 9839
00000140: 3240 4d38 d788 5439 1864 4a3c 3882 2639
00000150: 27b9 1539 09ca d339 6eab 3c38 da0e c138
00000160: fffe 2238 555d 1338 8d95 2b39 c02b a538
00000170: 07c3 6238 2354 dd38 476e c637 b4d4 fa38
00000180: 0587 c337 e995 153a 031b 8d38 563b 8d38
00000190: 337d 4839 e29e 4238 fa55 f038 d2b9 f237
000001a0: e3ad f838 7696 3b39 ced0 0a39 0de6 d639
000001b0: 715f a038 4b69 8338 4778 2d3b 8d9f 2a39
000001c0: c61f b338 4438 8038 c351 0c38 482c 1039
000001d0: 81b1 6e38 8094 6f38 d392 8638 7c1e 1939
000001e0: d10f f737 4ffb 4938 9b0b c939 e586 9f38
000001f0: fef0 6b39 16b8 3039 6a7b 0138 8835 d938
00000200: e135 0638 dff7 c937 6c89 f037 30ba e938
00000210: 9272 1138 d782 bd38 f8ae 5138 e663 6938
00000220: f305 e339 ccff d138 41f1 0d38 ea46 8d38
00000230: a130 b338 428f cf38 623e ed37 aa22 bc37
00000240: bf3c 8f39 4279 f437 a320 bc37 62d7 2c38
00000250: ba56 0439 e2c4 bd38 480b ae38 2d0f 2539
00000260: 09dc 5538 8fc5 8338 9164 1a39 b81a e539
00000270: 5b87 ba38 efe6 7439 c1d3 2539 ce08 1f39
00000280: f687 0e38 183b c338 df3e 8538 4729 9738
00000290: f297 7938 4569 4e39 4b57 4339 32ba d238
000002a0: 546f b838 95da f438 6f14 0138 8840 a938
000002b0: 984a 3a38 5e17 5238 d24f 1139 d36a 8938
000002c0: 2b7c c138 8595 ab38 00f9 0938 8a1f b537
000002d0: eb5e eb38 80b0 8d38 4a47 7938 24cd 7f38
000002e0: 0e78 7d38 a247 ae39 667c a938 b8ae b438
000002f0: d70b 9639 2611 9338 8141 4038 1318 5f38
00000300: ce94 c937 5817 ca38 aa99 5538 dd65 d138
00000310: 5a0a 8838 450d 0339 7527 b038 19a4 0638
00000320: 1b75 1c38 2d01 2638 291f 4a39 68bc 0b38
00000330: 1677 0039 b1d8 ff38 5ece 1e39 12d2 3038
00000340: 93ec 0b38 74ca 0939 4b8d f837 7951 b139
00000350: 8287 0f39 1635 2b39 df49 7e38 5a21 0a39
00000360: 1755 8e38 09b4 0e3b 508e 3538 e544 bb3a
00000370: 15ab ab38 c0c3 9c37 ecf1 5338 33f2 0538
00000380: 5a07 8839 41d7 6839 d8b0 9638 9ba4 3839
00000390: bc61 6239 1537 fb38 6d1a 0738 35af 0839
000003a0: 7310 a038 0596 8438 e6de 3738 fd57 3d39
000003b0: 2c00 a337 41e1 1b38 ab0b d837 49d8 0638
000003c0: 0339 b039 db15 8c38 f302 8b38 bb14 2339
000003d0: 7c4d 6239 72f9 e738 d3d6 e137 e907 2d39
000003e0: 327c c738 b496 4639 aafc cc38 1235 d838
000003f0: 5c80 2438 8d50 9038 9b72 8438 4f81 3d38

exp_avg f4 [3]
0.0015823534 -0.001926715 0.00034436915
00000000: f866 cf3a d489 fcba 728c b439

exp_avg_sq f4 [3]
0.0009855947 0.00094660104 0.0001515214
00000000: 122f 813a 5225 783a b7e1 1e39
