2024:05:01_ckpts/relational/Linear/lr_0.001_epoch_100/4.pth (torch, 30291 bytes, 6 tensors)

linear.weight f4 [3, 768]
00000000: 5c9d 913e eafc 2f3d 1aba e03e e98c 70be
00000010: e176 183e 1516 a43b 9d27 aa3d 5a0d 0f3e
00000020: 9bf3 693d 156f b43d 820f cb3e 63fc 553e
00000030: 8652 953e 9657 943e 56dd 46be 9ef9 303c
00000040: eae9 25b9 caf6 bc39 e752 063e af1a ff3d
00000050: fc0c 913d f05c 4b3e 8781 7bbe 4a48 97bd
00000060: 4c2a 1f3f fa6c 23be b7ff 113f 42ed 483e
00000070: 22c2 92be 797f 1f3d c8f2 ad3d 668d 9ebd
00000080: a55f 723e e857 4d3c 0a05 47bc 5959 093f
00000090: 0e73 cc3d f8c2 b33d ba20 dfbd b9d6 f9bc
000000a0: ce2b 6d3e a7e0 2b3e 3ffd d6be 94e5 2dbe
000000b0: 7f5c 3ebe 89eb fa3c 45de 553d 3e6a 933e
000000c0: c073 093e 1806 bebe 9721 143e 2e68 063f
000000d0: 1049 96bd c924 03be 8798 833e cde7 0e3e
000000e0: dae0 4fbe 891b 29be 6c95 dbbe aa5b 7a3d
000000f0: 455a 8e3b 4fab 9a3c 5033 393e cf16 36be
00000100: 762e 2ebf 07e1 92bd 265e 0b3e 03fc a33d
00000110: 723c 4dbe b65f 043f 5d28 3d3e 97d6 6d3e
00000120: 8acc 0fbe cdf4 453e a7d4 d9bd 1c6d 2b3d
00000130: f5e0 dd3e 5798 51bc f531 97bc 2cf3 763e
00000140: ebfd 89be 58e4 663d ddd6 4bbd d7c1 293e
00000150: beab 353d ca81 abbd 1b64 223e 11a3 c13d
00000160: 0548 843e ba21 6b3e 88ea 47be 975f a6bd
00000170: 67ea 223c 9cef 34be 2c8a 8cbe f17c cd3d
00000180: 4065 e3be 7d2b d33d eb6a 803b f89c afbd
00000190: 64dc 383d 5a67 0a3e 161e 4abe d1e5 b7bd
000001a0: c21e c5be 09ea 26bd 5414 9a3e cce4 37be
000001b0: 6a41 e53c 807b b4bd 451e 2a3d 41f1 a4be
000001c0: 2d45 023e 7003 93be 3889 49bd f23d 77be
000001d0: 0520 023e 16c6 63be cfac 2b3e 0a21 f73d
000001e0: 98a8 923e 90f1 dcbe fb3b 3dbe 2e71 dfbe
000001f0: 3f45 ad3d 37ad 7cbb ce3f 4c3e 7599 51be
00000200: 2a90 e33d 1e14 1d3e 31c8 86be 8f45 0d3e
00000210: 0887 463e f801 293d 286f 983e 49e2 3d3e
00000220: 3f61 023e c3d7 dcbd c913 4c3e bcd0 f9be
00000230: 1ac9 2f3e 9dbe eebd 7657 94be def2 a43e
00000240: 0836 92be 085c c9bd 747e 023e 677b acbe
00000250: b0c8 7cbe ca3c b4be 0eb0 893d 7f3b ac3e
00000260: 9e81 88bc 4017 0e3e 77c9 d33c 96de 383d
00000270: 9a40 d9bd 9195 80be 1c0c 013d 74ef f4bd
00000280: 59f9 30be a073 d2bb f587 7ebe 2ad2 0bbd
00000290: 88ba 67bd fc5c e2bc c64f 283e 6627 19be
000002a0: 2503 a5be 731f ee3e 5ad3 e33c dc56 3fbd
000002b0: 1c28 b93e 0612 a43d ce43 64be 6781 983e
000002c0: 5524 13bf ef8f 153f 9d3b 0bbf 83ce 213e
000002d0: fa17 cfbe 9926 11bf bda7 b4bc a1db 553e
000002e0: 96e5 de3d 1545 e1bd 18eb 693d 8b87 4cbd
000002f0: df47 b23b 28f0 a6bd 3e8a b63e cd60 473e
00000300: 3740 59be 2354 dd3d 7c3c 273c c9ab 553e
00000310: f78a 363e 2c9d 9c3e 7906 f6be 4127 003e
00000320: b74c 6ebe 8638 8b3f 7983 7cbe 2015 dd3d
00000330: d8e0 53be cbbb 44be d3ed 92bb 1263 c1bd
00000340: da08 f53e 5244 adbd 6111 3abe 7b0a 883e
00000350: eb69 353e 66cd 2339 7619 103e f06c 193e
00000360: 8273 173e d805 ff3c 51d6 353f faf8 fe3c
00000370: 0579 4ebe 2f76 01bf 5832 a8be 0beb edbe
00000380: 674c df3d 15c0 d73d 1355 0b3d cff4 cabe
00000390: 227f f43b 7fbb 90be 6c9a 9cbd 9a25 15be
000003a0: debf 1d3f 1d18 bbbe eb1d f5be 1aac c43e
000003b0: 224e 2a3f 5693 5e3d ca48 963e 5b9e ecbd
000003c0: 1aa8 f73c b8eb e23e 1fa4 b53e b949 873d
000003d0: f8fb 24be d03f 45be be47 263f 4a71 853d
000003e0: 1e48 11be d94b d1bd 3c11 9b3e f5e1 053e
000003f0: ab9b f1bc e2b3 86be 5991 c3be 75c3 3a3f
0.28440368 0.042965807 0.43891984 -0.23491253 0.14889099 0.005007515 0.08308337 0.13969937
0.057117086 0.0881025 0.3966027 0.20897059 0.29164523 0.28973073 -0.1942037 0.010801701
-0.00015822766 0.00036042026 0.13117562 0.12456261 0.07082555 0.19859672 -0.2456113 -0.07386835
0.62173915 -0.1595954 0.57030815 0.19621757 -0.28663737 0.038939927 0.084935725 -0.07741813
0.23669298 0.0125331655 -0.0121471975 0.5365196 0.099828824 0.08777422 -0.10894914 -0.030497896
0.23161241 0.16784917 -0.41990086 -0.16982108 -0.18589972 0.03062989 0.052213926 0.28791994
0.13423061 -0.37114024 0.14465939 0.52502716 -0.07338154 -0.12807001 0.25702307 0.13955612
-0.20300618 -0.1651441 -0.42887437 0.061122574 0.004344257 0.018880514 0.1808598 -0.17782138
-0.68039644 -0.07171827 0.13610134 0.08007052 -0.2004259 0.51708543 0.18472429 0.23226391
-0.14042869 0.19331665 -0.10636263 0.0418521 0.4333569 -0.012792668 -0.018456439 0.241162
-0.26951537 0.05637011 -0.049765456 0.1657785 0.04435324 -0.08374365 0.158585 0.094549306
0.25836197 0.22962084 -0.1952306 -0.08123701 0.009943581 -0.17669529 -0.27449167 0.10033596
-0.44413185 0.10311029 0.0039189956 -0.08574861 0.045132056 0.13515988 -0.1973804 -0.08979381
-0.3850003 -0.040750537 0.30093634 -0.17958373 0.027985293 -0.08812618 0.041532774 -0.32215312
0.12721701 -0.2871356 -0.049203128 -0.24144724 0.12707527 -0.22243533 0.1676514 0.120668486
0.28644252 -0.43153048 -0.18479912 -0.43641037 0.08460473 -0.0038555393 0.19946215 -0.20468695
0.111114815 0.15339705 -0.2632461 0.13796066 0.19387448 0.041261643 0.29772305 0.18543352
0.12732409 -0.10783341 0.19929422 -0.48792064 0.17166558 -0.1165745 -0.28972977 0.32216543
-0.28556848 -0.09832007 0.1274355 -0.336879 -0.24685931 -0.35202628 0.06723033 0.33639142
-0.016663369 0.13876057 0.025852902 0.04513415 -0.10608025 -0.2511411 0.03150569 -0.119597346
-0.17282619 -0.006422475 -0.24856551 -0.034135975 -0.056574374 -0.027632229 0.16436681 -0.14956436
-0.32228962 0.4650837 0.027810741 -0.046713695 0.36163414 0.0801125 -0.2229149 0.29786226
-0.57477313 0.5842275 -0.5438784 0.15801434 -0.4044798 -0.5669952 -0.02205264 0.20884563
0.10883634 -0.109995045 0.05710897 -0.04993395 0.0054406966 -0.08151275 0.35652345 0.1947052
-0.21215902 0.108070634 0.010207292 0.20866312 0.17826448 0.30588663 -0.48051813 0.12514974
-0.23271452 1.0876625 -0.24659528 0.10795045 -0.2069124 -0.19212262 -0.0044839173 -0.09442724
0.47858316 -0.08460297 -0.18170692 0.26570496 0.17716186 0.00015621408 0.14072213 0.14982963
0.14790156 0.031130716 0.71030146 0.03112458 -0.20163353 -0.5057096 -0.3285091 -0.46468386
0.109032445 0.105346836 0.03401668 -0.396399 0.0074614445 -0.28268048 -0.07646641 -0.14565125
0.6162089 -0.36541834 -0.47874388 0.38412553 0.6652547 0.05433973 0.2935241 -0.115536414
0.030231524 0.44320464 0.35476777 0.06605858 -0.16111743 -0.19262624 0.6495322 0.06515749
-0.14187667 -0.10219545 0.30286586 0.13074477 -0.029493174 -0.26309115 -0.3819683 0.72954494

linear.bias f4 [3]
00000000: bcc6 e6bc d33a 3a3d 4190 e3bc
-0.028170936 0.045466255 -0.027778747

exp_avg f4 [3, 768]
00000000: a342 15b9 5254 3ab9 5d3b 05ba a8d8 4db9
00000010: dd6f 763b 5ee2 5a38 2963 423a 73df 98ba
00000020: 15ac e0b9 b868 683a 916f 03bb 99bc 1fba
00000030: cae1 4fba 79d7 a6ba 14ed 8cba 8e1e 88ba
00000040: 0483 afba a6c6 e9ba dde6 383b 8bab 41b9
00000050: 3f62 ff3a f7da 2fba d948 6d39 29af ff3a
00000060: af08 d2b9 a105 ce39 03ce d8ba 4744 f1ba
00000070: 03c7 ec39 6079 373b 2058 73ba 8f3a d3b9
00000080: b7e3 99ba 2446 1a39 a423 15bb 7b93 2938
00000090: 97a8 32ba 0e55 3c3a 18a1 bc3a 6b10 533a
000000a0: e8d7 adba 26cc 453b 5b53 07ba 4c34 583a
000000b0: cbf9 4ebb 242e bf3a e857 5d39 cfd2 803a
000000c0: bf86 d03a 66f5 e439 e8f5 f1ba db41 3939
000000d0: f6a0 1cba 4e88 7db9 79fa a4ba ef87 ccba
000000e0: 2225 de3a b2e6 623a 2747 f23a 3ad7 8f3a
000000f0: d878 7b3b 7242 1b38 fe50 a93a 49fb 533b
00000100: 9528 473a 2f0d bcb8 f915 0a39 a45a 553b
00000110: 6a09 c4b9 6f62 92ba f238 30b9 fdb5 00b7
00000120: 158a 9eb9 7dc0 e2b9 350a 6839 19ee 48bb
00000130: 9642 f439 4030 3a3c 8c1a 553a 0934 493b
00000140: 722d 093a acd9 0e3b 4cda 263c bbcf 83b7
00000150: 94bb 1c3a 2e85 743b 1ffb 4eb9 eab4 f7ba
00000160: c940 ac3a 00b4 04bb 2390 b53a 0d7e 913a
00000170: 41f9 fe3a 4eca 37bb bee6 c0b9 8755 073b
00000180: 4442 1d3b 6400 63bb dd3e 71ba fc48 8e39
00000190: 907c a3b9 2cb6 45bb 84c2 e5ba 9ecd 9bba
000001a0: 3299 2ebb 96fc 403a df63 36ba e190 913a
000001b0: b179 6dba b20c d43a c5dd 3b3c a5a3 c439
000001c0: 43c6 5c3a e68c 253a 6ecc 743a 5655 c33a
000001d0: a9f6 b039 7bf3 b339 e06a e83a 5b8e d7ba
000001e0: 3703 8c3a 5d78 033b cb2b 453a 3b6b 74b9
000001f0: d5ef 9f3a 742b a3ba 2739 c6b9 4358 92b9
00000200: aa9d 66ba 595d e339 bb54 4239 38d6 8bba
00000210: df83 d738 b9b2 ed3a 2888 cd3a d347 b7ba
00000220: 4c3e e83a 19e1 463a a07f d3b9 f1f3 903a
00000230: d53f f3b6 e309 8d3a 22e6 fc39 a19d 563a
00000240: d5b7 fd3a f1e2 2c38 49f5 d439 fe90 53ba
00000250: a696 3a3b 3a50 063a d2cf 00ba 8bb7 bb3a
00000260: 056a c73a 599e 883a c4e4 09bb bfbb e73a
00000270: ecf6 a7b9 64ce 393b 5305 87ba 12ba 423b
00000280: 291f 82ba e114 0dbb 43cc f83a d02f 47bb
00000290: f3d6 d4ba 437f a639 f1b1 e737 7f73 f039
000002a0: 073d 513a c54b 593a cb1a 1fbb 9275 4aba
000002b0: dd27 a03a 4816 753a e3e9 b03a f7dc 80b9
000002c0: 39f2 0eba a4ac fe3a 6b1b 59b9 019c 26ba
000002d0: ad2f df39 e30a 7e3b 70e2 533a d028 b13a
000002e0: 661b 04b9 aa5a 64bb a12b b5ba cf3f 6dba
000002f0: 028f 42ba 197b 14ba 3cd9 d33a b940 82ba
00000300: 2daa aeb9 b394 a6b7 034b 82bb b9e5 9fba
00000310: 6712 c439 8b96 efba 62af 04ba d8e3 57bb
00000320: b7bb 08b9 adc5 42ba 8a8b f83a 0fe8 9f39
00000330: 345f ab3a 4e0e 863b 0633 b93a ca2d 52ba
00000340: 346f 023a 35b0 c63a 3dad ad39 202e a63b
00000350: bece 3cbb 0507 1ebb 6328 063a 3867 59bb
00000360: 414f 6b3a c935 97bc 747f aeba 3ab2 293c
00000370: 5c92 023a 6785 0cba 7a68 8cba 3ef7 1f3a
00000380: 6a61 293a 112c 0fbb c9ad f438 08d0 87ba
00000390: 207d 2b39 6416 7f3b d939 e139 ebaf 84b9
000003a0: fd1e 6cbb 4bf2 ffb9 1c67 513a efb4 e33a
000003b0: a295 123a c397 26ba e2c0 02bb ce0e 25ba
000003c0: 6e32 76bb 8f43 85ba a752 dd39 7821 c7ba
000003d0: f5f8 743a 6c6c d4ba 6fc8 0b3a 9e64 89ba
000003e0: 9bdb 03ba 14f7 7cba ce76 9d3a c420 aa3a
000003f0: e1cf c039 cf1b a6ba c07d 84ba 7717 b2ba
-0.00014234571 -0.00017769754 -0.0005082393 -0.00019631034 0.0037603297 5.218607e-05 0.0007415289 -0.0011663273
-0.0004285282 0.0008865702 -0.0020055512 -0.0006093472 -0.00079300685 -0.0012729011 -0.0010751807 -0.0010385083
-0.0013390486 -0.0017835691 0.0028213777 -0.00018469819 0.0019484236 -0.00067083485 0.00022629219 0.0019507158
-0.0004006079 0.00039295576 -0.0016540888 -0.0018407189 0.00045161703 0.002799593 -0.0009282846 -0.00040288686
-0.0011740838 0.00014712714 -0.002275684 4.043009e-05 -0.0006815283 0.0007184305 0.0014391271 0.00080514577
-0.0013263198 0.0030181496 -0.0005162262 0.0008247539 -0.0031581994 0.0014585895 0.0002110895 0.0009828451
0.0015909298 0.00043670385 -0.0018460127 0.00017667508 -0.0005974913 -0.00024178738 -0.0012586854 -0.0015604476
0.0016948322 0.0008655592 0.001848434 0.0010974177 0.003837159 3.701676e-05 0.0012917814 0.0032345823
0.0007597295 -8.966994e-05 0.00013168891 0.0032555247 -0.00037391047 -0.0011168252 -0.00016805882 -7.671767e-06
-0.00030238988 -0.00043249494 0.00022129047 -0.0030659495 0.00046588917 0.011364043 0.0008129261 0.0030701181
0.0005232907 0.0021797223 0.010183882 -1.5713149e-05 0.0005978879 0.0037310827 -0.00019739241 -0.0018898521
0.0013141866 -0.002024889 0.001385216 0.0011100188 0.0019452946 -0.0028044167 -0.0003679301 0.0020650344
0.0023995796 -0.0034637684 -0.0009202788 0.00027138728 -0.0003118259 -0.0030168397 -0.0017529284 -0.001188684
-0.0026641604 0.0007361857 -0.0006957631 0.0011105799 -0.0009058966 0.00161781 0.011466448 0.00037505958
0.0008421877 0.0006315246 0.0009338324 0.0014902751 0.00033753112 0.00034322948 0.0017732047 -0.0016445623
0.001068211 0.0020060756 0.0007521479 -0.000233096 0.0012202213 -0.0012448863 -0.00037808085 -0.0002791305
-0.00087972975 0.00043366363 0.00018532846 -0.00106687 0.00010276562 0.0018134929 0.0015680837 -0.0013983197
0.0017718761 0.0007586643 -0.00040340144 0.0011059028 -7.2493954e-06 0.0010760393 0.00048236648 0.00081869407
0.0019357154 4.121935e-05 0.00040618543 -0.0008070617 0.002847114 0.0005123649 -0.000491378 0.0014321668
0.0015214091 0.0010423168 -0.0021040896 0.0017679854 -0.00032036693 0.0028351778 -0.0010301269 0.0029712957
-0.0009927499 -0.0021527337 0.0018981773 -0.0030393489 -0.0016238376 0.00031756805 2.7620206e-05 0.00045862418
0.0007981811 0.00082891836 -0.0024277444 -0.0007723208 0.0012218911 0.00093493285 0.0013497438 -0.00024578694
-0.0005452964 0.0019430113 -0.00020704947 -0.0006355644 0.00042569396 0.0038763813 0.0008082753 0.0013516191
-0.00012598708 -0.003484408 -0.0013822207 -0.0009050341 -0.00074218225 -0.0005664095 0.0016162763 -0.0009937502
-0.00033314657 -1.9857986e-05 -0.0039762272 -0.00121992 0.00037397744 -0.0018279118 -0.00050615345 -0.0032942202
-0.000130399 -0.00074299687 0.0018962484 0.0003049974 0.0013074637 0.0040910607 0.0014129586 -0.00080176874
0.0004975677 0.0015158715 0.00033126204 0.0050714165 -0.0028809751 -0.002411307 0.00051177124 -0.0033173095
0.00089763483 -0.018458264 -0.001331313 0.010357434 0.00049809157 -0.00053604547 -0.0010712289 0.00061022106
0.0006461354 -0.0021846334 0.00011667197 -0.0010361681 0.00016354444 0.0038923258 0.00042958444 -0.0002530807
-0.0036029213 -0.00048817912 0.0007988082 0.0017372648 0.0005591755 -0.0006355012 -0.0019951393 -0.00062964566
-0.003756668 -0.0010167229 0.00042213986 -0.001519247 0.0009344959 -0.0016206629 0.0005332296 -0.0010482257
-0.0005029977 -0.00096498546 0.0012013556 0.0012979736 0.00036775976 -0.0012673083 -0.0010108277 -0.0013587315

exp_avg_sq f4 [3, 768]
00000000: b65e d937 b40f 0c39 ff9c 3738 9062 ab39
00000010: 26da 4839 ecf1 fe38 6aa1 8338 adbf ed38
00000020: 424f 9b38 999e 9638 a074 9e38 5362 8439
00000030: db24 2e38 0d7e 2d39 7f83 0439 534c 0b39
00000040: 8c26 5939 e491 2939 560c ec38 28e4 9438
00000050: 76bb 7b38 a16d 5338 aefc 6638 d5fb 8838
00000060: 4d7c 9238 4014 4838 b9a3 1f38 f681 f037
00000070: 43a8 8138 8a5c 7138 9ff7 1738 dc10 b338
00000080: aa2f 0538 d4fd 4938 1819 3b39 cdca 9e37
00000090: 4b4c 1f38 c567 f137 c698 d839 5227 0638
000000a0: 0fdd 083a 9fe7 9e39 51e3 b337 90e7 b437
000000b0: 097d 8138 6142 8038 8c5d 8138 d689 cb38
000000c0: 7736 fb37 1572 0238 0900 5938 e6ac 1f38
000000d0: e05e 5a38 cb63 0c38 719f 2438 3915 3d39
000000e0: 712a 6738 0e26 4539 35c1 1f38 772d 4738
000000f0: 0b29 fc38 1e03 a33a 7b27 8338 e842 a438
00000100: cbee fe37 5748 0a38 6bab d637 52c3 1739
00000110: 3788 9438 70ab a938 baf3 1838 569c 5138
00000120: ade0 f737 64e8 bb39 a243 b738 43d9 9f39
00000130: 0348 0539 ad19 903c 8094 1c39 7a7c 5839
00000140: aad7 9937 84bb 2139 462c 4d3c 31e8 d838
00000150: c258 9938 a140 043a 4117 d137 0780 e238
00000160: bfbb e537 8fc1 2e38 07ce 8438 59ab c938
00000170: bfdf 9738 204d d738 6f4e 8a37 5cef cf38
00000180: a637 f837 e1c0 313a aa1f d537 5e1d c338
00000190: de24 1539 a0de 1939 c8ac 3f39 780b 6738
000001a0: 907c 0c39 d3cf 1c39 545a dd38 a745 8c39
000001b0: a47d d437 d09a 2739 c706 f73a da51 2039
000001c0: 3529 0339 f283 7438 e5eb 8438 b75d 2e39
000001d0: f70d ed37 6cb6 5138 ba2e 4e38 eaa8 7039
000001e0: f07a cd38 c1b1 de37 a4e1 9739 cec9 4438
000001f0: 8226 3939 ed53 0339 d434 d237 9097 ab38
00000200: 7c2c 8f38 803f ed37 2426 cb37 1d60 af39
00000210: b351 6838 26b8 9c38 7884 b938 d4f2 d537
00000220: 60b6 8039 9538 e537 b12e d537 c94c 3538
00000230: aa0b 8c38 8052 cd38 0ef3 a637 af10 9338
00000240: 3044 6139 411a d537 977a 4f37 0144 9b37
00000250: 4499 2f39 fa71 a438 b8f2 2a38 a1ec 1839
00000260: fe0a d138 2fc8 2338 db88 cf39 d758 d139
00000270: 861a c138 3e44 2e39 2c25 2c39 fcc7 2f39
00000280: 22d4 2738 8081 3439 3657 8539 92c5 5f39
00000290: e1ce d538 5b53 d238 ae5c 0439 e30d be38
000002a0: 0830 8b38 a07f 0239 a137 5839 6861 c138
000002b0: d577 3338 47ab 3c38 a61f 6a39 db3e 0338
000002c0: cf8e a638 61fb c138 61b8 9937 fabe 4338
000002d0: b85a 3838 a599 d538 feed e537 1311 4b38
000002e0: b8c9 3b38 9c54 4f39 f049 eb38 da31 8938
000002f0: 6867 7f39 c381 0e38 ed08 2538 1018 2c38
00000300: cb49 9d38 6db6 9938 2d90 af38 e8bb 7038
00000310: 4eac d138 00e8 3b38 9820 6a38 7cee ab38
00000320: ed8b 1638 b4dc ff37 ba9e 6c39 1936 0638
00000330: 7f5a c038 2b95 a939 2a4d 4439 d7c4 fa37
00000340: 0807 1f38 a5cb 2539 4a28 9337 4d27 4c39
00000350: 3726 9838 24ca 4239 7a2f 3238 091f a138
00000360: 3b0f e138 3955 133b 2097 9338 21a3 d73a
00000370: 73f5 2738 2bb7 2738 5bb7 9c38 e873 3238
00000380: 60dd 5d39 de46 4239 82c4 7e38 44cd 4638
00000390: 7ebc 2b39 d0a9 3439 6111 cc37 00c4 3739
000003a0: e281 8038 93ed 5c38 f1a4 1c38 1c06 8238
000003b0: ae00 7f37 c687 3638 bc3a 4d38 3188 9c37
000003c0: b4cc 8a39 7f2f 4738 2fb8 0538 4966 af39
000003d0: 72c7 cf38 9355 bd38 8f60 1138 29af 7839
000003e0: ceae 9138 d2f1 2239 cdb7 b138 f9a6 8838
000003f0: 6bad b138 eff3 0639 d21c a538 f21f 2438
2.5912519e-05 0.0001335729 4.3776814e-05 0.00032689096 0.00019154753 0.00012156725 6.2766325e-05 0.00011336743
7.405739e-05 7.1820985e-05 7.55575e-05 0.0002525026 4.1519157e-05 0.00016545523 0.00012637487 0.00013284506
0.00020709092 0.00016171444 0.00011255655 7.099687e-05 6.001765e-05 5.040842e-05 5.50716e-05 6.531893e-05
6.984975e-05 4.7702575e-05 3.8061033e-05 2.8670747e-05 6.1825405e-05 5.754506e-05 3.623182e-05 8.5385254e-05
3.175406e-05 4.815853e-05 0.00017843058 1.8929504e-05 3.7979607e-05 2.877776e-05 0.00041312556 3.198471e-05
0.00052209286 0.0003030868 2.1444315e-05 2.1565502e-05 6.174489e-05 6.11588e-05 6.168624e-05 9.705468e-05
2.9946894e-05 3.1100662e-05 5.1736864e-05 3.806958e-05 5.206361e-05 3.347154e-05 3.924914e-05 0.0001803235
5.511422e-05 0.0001880156 3.8088492e-05 4.748764e-05 0.00012023941 0.0012436842 6.2539206e-05 7.832592e-05
3.0390356e-05 3.2969136e-05 2.559061e-05 0.00014473245 7.082562e-05 8.090481e-05 3.6466612e-05 4.9975082e-05
2.9549317e-05 0.00035840564 8.7387176e-05 0.00030488716 0.00012710695 0.017590368 0.0001493264 0.00020645736
1.8339448e-05 0.00015424012 0.012522763 0.00010342932 7.312141e-05 0.0005045031 2.492557e-05 0.00010800367
2.7386353e-05 4.16651e-05 6.332626e-05 9.616343e-05 7.241917e-05 0.000102663646 1.6487405e-05 9.915113e-05
2.9589817e-05 0.00067807554 2.5406323e-05 9.303795e-05 0.00014223481 0.00014674151 0.00018279545 5.5085373e-05
0.00013397844 0.0001495474 0.00010554926 0.00026754776 2.5330875e-05 0.00015984033 0.0018846624 0.00015289281
0.00012508484 5.8297017e-05 6.338189e-05 0.00016628845 2.8259105e-05 4.9999377e-05 4.9157745e-05 0.00022951109
9.798061e-05 2.6547235e-05 0.0002896908 4.6917987e-05 0.0001765732 0.00012524398 2.505855e-05 8.182146e-05
6.827057e-05 2.8282171e-05 2.4217246e-05 0.0003345021 5.53892e-05 7.47296e-05 8.846162e-05 2.5504654e-05
0.00024549942 2.7325275e-05 2.5413321e-05 4.3225275e-05 6.677893e-05 9.7905286e-05 1.9901923e-05 7.012614e-05
0.00021483074 2.5403804e-05 1.2366704e-05 1.8509107e-05 0.00016746396 7.841359e-05 4.0757208e-05 0.00014584001
9.967944e-05 3.9048664e-05 0.00039584082 0.00039929777 9.2078975e-05 0.00016619355 0.00016417046 0.000167638
4.0013467e-05 0.0001721438 0.00025432714 0.00021340538 0.00010195166 0.000100291065 0.00012623027 9.0624926e-05
6.636983e-05 0.0001244531 0.00020620089 9.2211005e-05 4.2788528e-05 4.4982207e-05 0.00022327769 3.1291373e-05
7.942097e-05 9.24978e-05 1.832488e-05 4.6669484e-05 4.3953507e-05 0.0001018525 2.7409751e-05 4.8414873e-05
4.477214e-05 0.00019772578 0.00011219445 6.541955e-05 0.00024357217 3.397629e-05 3.934738e-05 4.1030406e-05
7.5000884e-05 7.329588e-05 8.371505e-05 5.739546e-05 9.997991e-05 4.480034e-05 5.5820303e-05 8.1983366e-05
3.5893103e-05 3.0501142e-05 0.00022565844 3.1998472e-05 9.17213e-05 0.0003234533 0.00018720762 2.9893983e-05
3.7915102e-05 0.0001581149 1.7542527e-05 0.00019469597 7.255043e-05 0.00018576585 4.2482723e-05 7.682859e-05
0.00010731673 0.0022481217 7.0376555e-05 0.0016451814 4.0044495e-05 3.998649e-05 7.472812e-05 4.2546453e-05
0.00021158671 0.00018527682 6.074133e-05 4.7398047e-05 0.0001637805 0.00017229398 2.4326788e-05 0.00017525256
6.127708e-05 5.2673346e-05 3.7346912e-05 6.200021e-05 1.5199343e-05 4.351863e-05 4.893051e-05 1.8660068e-05
0.00026473927 4.748953e-05 3.1881205e-05 0.0003345481 9.907679e-05 9.028162e-05 3.466062e-05 0.00023716375
6.946699e-05 0.00015539609 8.474253e-05 6.5160864e-05 8.472319e-05 0.00012870108 7.873181e-05 3.91304e-05

exp_avg f4 [3]
00000000: 4f83 2ebb 166f 3a3b a1b9 3eb9
-0.002662856 0.002844756 -0.00018188964

exp_avg_sq f4 [3]
00000000: 5b80 6e3a f850 6d3a fd5f bb38
0.0009098106 0.0009052898 8.934734e-05
