2024:05:01_ckpts/relational/Linear/lr_0.001_epoch_100/5.pth (torch, 30291 bytes, 6 tensors)

linear.weight f4 [3, 768]
-0.1423556 0.03452546 0.322168 0.0074806367 0.08270278 0.3073729 -0.058362734 -0.18839142
-0.033502094 0.17045148 -0.028555041 0.109843805 0.035148192 0.35458142 -0.12286375 0.16662465
0.052303795 -0.06026227 -0.20021755 0.3955828 -0.12130408 0.44352096 0.47365603 0.1419699
0.067707084 -0.23627488 0.100403786 0.2863359 -0.16508768 0.35560802 0.045504153 0.04623069
-0.092261404 -0.04739894 -0.16625947 -0.15930228 0.1074411 0.26183125 -0.37782374 0.08686156
0.13039514 0.08101416 0.035582166 0.086581446 0.33442384 0.010000657 -0.16964503 0.5583768
-0.08741657 -0.015669193 -0.14231093 0.39040846 0.11897187 0.20611717 -0.3533741 0.073895656
0.015937222 0.05109704 0.07059189 0.24186458 0.45542628 -0.016592633 -0.24590397 -0.32723945
-0.3238732 0.16057846 0.06239671 0.0007081299 -0.09087174 0.015091256 -0.31025004 0.12043237
-0.13411458 0.14829051 -0.3022295 0.092069216 0.4584958 0.035151772 0.22484283 0.31968543
-0.608032 0.20990363 -0.027787602 0.12798813 -0.044358112 0.04685401 0.21995649 0.184923
-0.12441809 0.45427358 -0.4037663 -0.08581343 -0.265 -0.17726201 0.054461002 0.13507214
0.103518814 0.07825723 0.4363653 -0.06348114 0.08657089 0.10737042 0.16253167 -0.25837433
-0.20973141 -0.016051255 0.18654266 -0.184262 0.016597183 0.105004385 0.030506834 -0.15883073
0.12924664 0.037455257 0.105651625 -0.3614185 -0.00020981955 -0.034561567 0.41753393 0.097848356
-0.07192699 -0.44390684 -0.3351887 -0.5123716 0.18991652 0.42222717 -0.34192756 -0.12546903
-0.2582971 -0.092664115 -0.34407195 0.121089384 0.65130687 -0.17967911 0.15997174 0.50441337
-0.097296305 -0.40926555 0.30622455 0.050174635 -0.04494954 0.00957383 0.35156882 -0.2738216
-0.23170975 0.20908263 0.09481795 0.28180537 -0.3224123 -0.11550962 -0.34885672 0.10816343
-0.16600625 0.19568926 -0.05632021 -0.047968786 0.25851083 -0.11572955 0.24059778 -0.06379347
0.35303262 -0.06574401 -0.16992636 0.060434155 -0.096048005 0.016880857 -0.23553132 0.001297603
-0.017450664 0.33347917 0.08235257 0.07941526 0.785795 0.2276657 -0.26889393 0.24465173
-0.18473317 0.48820117 -0.041275665 0.78412 0.035793863 -0.36489308 -0.093647376 -0.16622259
0.09024949 -0.28341407 0.3417959 -0.23116922 0.15003587 -0.10426268 -0.19313547 -0.1077989
-0.14270943 -0.014663939 -0.1626046 -0.011265488 -0.005028297 -0.021033961 -0.116222754 0.3302898
0.054794118 -0.0013804316 -0.47174093 0.18288285 0.24401976 0.0016443926 -0.055114165 -0.0051814266
0.20666946 -0.012779235 -0.049648933 0.23331808 0.1099612 0.3046652 -0.32051376 0.14567117
-0.09883009 0.04689164 0.571824 0.01442823 0.31625763 -0.41623342 -0.23916383 0.067556985
0.08554397 -0.23320173 0.19453304 -0.54564095 -0.06770849 -0.3594849 -0.15814489 -0.12975396
0.66201043 -0.13121328 -0.37879908 0.22506276 -0.010965161 -0.17341752 -0.034438793 0.14112948
-0.09262897 -0.001771297 0.53877985 0.10885189 0.3742547 -0.45427656 0.016588645 -0.14843957
-0.72222215 -0.05040807 0.33138517 -0.19255777 -0.4702213 0.2775056 -0.11824085 0.11352248
00000000: abc5 11be 926a 0d3d 34f3 a43e 2120 f53b
00000010: 1360 a93d fb5f 9d3e c30d 6fbd aee9 40be
00000020: 7e39 09bd d58a 2e3e 43ec e9bc caf5 e03d
00000030: 8df7 0f3d b28b b53e fd9f fbbd a79f 2a3e
00000040: 813c 563d 92d5 76bd d405 4dbe d489 ca3e
00000050: 466e f8bd 2e15 e33e 0b83 f23e 8f60 113e
00000060: 03aa 8a3d 0bf2 71be 80a0 cd3d 9e9a 923e
00000070: bf0c 29be 4112 b63e 9062 3a3d 645c 3d3d
00000080: 8cf3 bcbd 6425 42bd ec3f 2abe 2320 23be
00000090: 140a dc3d bf0e 863e 1d72 c1be 79e4 b13d
000000a0: 4e86 053e c0ea a53d 9bbe 113d 9d51 b13d
000000b0: 9a39 ab3e ccd9 233c 6db7 2dbe c8f1 0e3f
000000c0: 7507 b3bd ae5c 80bc f5b9 11be 9ee3 c73e
000000d0: 86a7 f33d 6110 533e 73ed b4be 9b56 973d
000000e0: c78e 823c 214b 513d 7b92 903d 59ab 773e
000000f0: a22d e93e 46ed 87bc 40ce 7bbe ee8b a7be
00000100: b5d2 a5be ae6e 243e b193 7f3d cba1 393a
00000110: f61a babd 5141 773c 18d9 9ebe 3fa5 f63d
00000120: 5555 09be 78d9 173e d3bd 9abe c98e bc3d
00000130: f6bf ea3e 4efb 0f3d 333d 663e cfad a33e
00000140: fca7 1bbf faf0 563e d3a2 e3bc 520f 033e
00000150: dab0 35bd fee9 3f3d 463c 613e 745c 3d3e
00000160: e9ce febd 8c96 e83e 75ba cebe f4be afbd
00000170: 14ae 87be 2c84 35be 8012 5f3d 5a50 0a3e
00000180: ac01 d43d 5445 a03d 466b df3e 6602 82bd
00000190: 144c b13d 06e5 db3d b46e 263e a449 84be
000001a0: d5c3 56be ec7d 83bc 0a05 3f3e 2daf 3cbe
000001b0: d1f6 873c 8a0c d73d 78e9 f93c 86a4 22be
000001c0: 3b59 043e af6a 193d e15f d83d d80b b9be
000001d0: 0203 5cb9 6e90 0dbd 02c7 d53e b864 c83d
000001e0: 754e 93bd c247 e3be da9d abbe c92a 03bf
000001f0: 7a79 423e 292e d83e 2111 afbe f47a 00be
00000200: 843f 84be afc6 bdbd 332a b0be b6fd f73d
00000210: 0cbc 263f cdfd 37be a2cf 233e 3c21 013f
00000220: 4943 c7bd 418b d1be 77c9 9c3e eb83 4d3d
00000230: 021d 38bd 8edb 1c3c d400 b43e 5832 8cbe
00000240: 5245 6dbe c219 563e ea2f c23d cb48 903e
00000250: 3a13 a5be 4f90 ecbd 599d b2be ca84 dd3d
00000260: 8bfd 29be c462 483e 05b0 66bd eb7a 44bd
00000270: 885b 843e 9d03 edbd 445f 763e 27a6 82bd
00000280: b1c0 b43e cca4 86bd 2d01 2ebe ce89 773d
00000290: d1b4 c4bd b949 8a3c 1f2f 71be 5514 aa3a
000002a0: b2f4 8ebc c8bd aa3e 77a8 a83d 78a4 a23d
000002b0: dc29 493f 3221 693e 77ac 89be fc85 7a3e
000002c0: b12a 3dbe 81f5 f93e ac10 29bd 17bc 483f
000002d0: 969c 123d 44d3 babe 32ca bfbd 4136 2abe
000002e0: bad4 b83d a61b 91be dfff ae3e a0b7 6cbe
000002f0: 01a3 193e ac87 d5bd 4ec5 45be abc5 dcbd
00000300: 6c22 12be 0541 70bc d281 26be e292 38bc
00000310: 6ac4 a4bb 6a4f acbc 3206 eebd bf1b a93e
00000320: cc6f 603d 99ef b4ba 0788 f1be a445 3b3e
00000330: 51e0 793e a988 d73a 64bf 61bd f5c8 a9bb
00000340: 29a1 533e ff5f 51bc ae5c 4bbd efea 6e3e
00000350: 5633 e13d 14fd 9b3e 611a a4be d32a 153e
00000360: 6e67 cabd 7311 403d 0f63 123f 6264 6c3c
00000370: 85ec a13e 8c1c d5be 5de7 74be 515b 8a3d
00000380: ad31 af3d 6fcc 6ebe ab33 473e 20af 0bbf
00000390: c0aa 8abd 680e b8be bcf0 21be 39de 04be
000003a0: 8479 293f c65c 06be f4f1 c1be da76 663e
000003b0: 38a7 33bc 5d94 31be b10f 0dbd 3f84 103e
000003c0: 42b4 bdbd dd2a e8ba 7aed 093f bded de3d
000003d0: 509e bf3e f096 e8be e9e4 873c 8b00 18be
000003e0: 8de3 38bf b178 4ebd 51ab a93e dd2d 45be
000003f0: d9c0 f0be 3715 8e3e 4228 f2bd 797e e83d

linear.bias f4 [3]
0.0155336615 0.01046449 -0.008967329
00000000: e680 7e3c 4173 2b3c b4eb 12bc

exp_avg f4 [3, 768]
-0.00011713037 0.0005348639 -0.0019911425 0.0074288542 -0.0020494482 0.001202173 -0.0035959957 0.00051170104
0.0017926157 0.00040740304 -0.000102824735 0.0049773008 0.00013497412 -0.001414989 0.0043092133 -0.0038651698
0.0049147527 -0.00022167103 0.00031681417 -0.0010281205 -0.0013009893 0.0009785079 0.0009964206 -0.002028061
-0.0021028775 -4.030046e-05 0.0004834252 0.0016683551 -0.0009518439 -0.00034367002 -0.00023500528 -0.0017588533
-2.135123e-05 -0.0010887848 0.0031869912 -0.0024824622 0.0029814716 0.0020091473 -0.0034455883 0.0018074316
0.0030106832 -0.0020964022 0.004013943 0.0023012809 0.001079816 -0.0023684693 -0.001060735 -0.0015724166
-0.00091117347 0.004244585 0.0013384154 0.0018381246 0.0019390727 -0.00095244474 0.00077185157 0.004803606
-0.0010054199 0.001964445 7.441184e-06 0.0026591998 0.0006190977 0.0031924883 9.1968206e-05 -0.0037410976
-0.0021292137 0.001899525 0.0010519641 -0.00022285449 0.0017840681 -0.0011623577 0.001860881 0.0014040893
-0.00096673734 -0.0048632524 -0.001571527 0.0023452856 -0.00020342422 -0.033511 0.0018992691 -0.0019160773
0.0003937893 -0.002080331 -0.011305121 0.0011798675 0.0015755747 -0.0017230015 -0.0014474881 0.0023396525
-0.0003235672 0.0007245411 0.0039423946 -0.0007054854 -0.00045751594 0.0017370502 0.0009635396 0.0027220324
0.00065100717 0.0014125099 0.0012014057 0.001322401 -0.0015571528 0.0019148645 0.00053904566 0.0030904755
0.004648924 0.0017964141 -0.002437433 -0.0012234807 -0.001662704 -0.0013174453 0.00065636245 0.0035661035
-0.0021036223 0.00046788662 -0.0008189376 -0.0015055735 -0.002100664 0.0016731366 -5.269318e-06 0.0033540234
0.00026130787 -0.00068168674 0.0016951631 0.0009863146 0.0019708588 -0.0023896059 -0.00021247333 0.0003352747
0.0021540783 0.0012126883 -0.0032883305 -2.7786802e-05 -0.00092218834 0.0014180404 0.00084091537 -0.0011313757
0.0009696845 0.000149855 0.0012946927 0.00016210876 -0.00027133513 -0.0054147677 0.0016010907 0.0017229173
-0.001037863 -0.0005013525 -0.0017065541 0.0019039556 0.0011018335 -0.0011544356 -0.00030619616 0.0036368584
0.001471709 0.0018429824 0.0023224372 0.004219707 -0.002992815 0.0011338649 0.0032279473 -0.0017887522
-0.00097492925 0.0028915612 -0.0028169716 0.0010456734 0.0027595018 -0.0024049298 0.0002525675 -0.003126868
0.0006950884 -0.00053473935 0.0014661435 -0.0031047063 -8.33095e-05 -0.002618402 0.00026830568 0.001232586
0.0016464524 0.0004071388 -0.0010065645 0.00024818996 -0.0002256426 -0.001892185 9.833061e-05 0.0013677203
-0.0018093816 -0.00032777633 -0.00075356883 0.00092009496 0.000319702 0.0014418489 -0.0009747243 0.0020840643
-0.00057609944 -0.00033215666 -0.0036621457 0.00018172685 -0.0021517803 -0.00062537333 0.0011152012 0.0007266302
0.0013140464 -0.0014280173 0.0019073146 -0.0031903032 -0.0033854966 -0.0023390166 -0.0006085668 -0.00079415645
0.00077184825 -0.00068698346 0.0006668403 -0.0024835772 9.962698e-05 0.0015360831 0.0020733967 -0.0015778334
0.0016040665 -0.0055552386 0.0009953392 -0.008076945 0.0013557116 0.000852898 0.0018482859 -0.00039754156
0.004696759 0.0052566146 -0.0010159353 0.0022825573 0.0020517034 -0.0034322962 -0.00016798671 0.0039445106
-0.0011040973 0.0017200664 0.0029137884 -0.00012961483 0.002521781 -0.00084752793 -0.0009246508 -0.0009418664
-0.008613259 0.0005193994 -0.0022864123 0.0020701103 0.0010537587 -0.004979596 -0.0015454385 0.0023153697
0.002537803 0.0041512237 -0.0017636463 0.0016854168 0.00328555 0.0025265028 0.000736422 0.00033466908
00000000: e3a3 f5b8 1c36 0c3a d47d 02bb bf6d f33b
00000010: 0950 06bb 3b92 9d3a ccaa 6bbb ad23 063a
00000020: 34f6 ea3a b698 d539 9ca3 d7b8 a018 a33b
00000030: d787 0d39 2777 b9ba 4d34 8d3b ca4e 7dbb
00000040: ef0b a13b 5d70 68b9 141a a639 00c2 86ba
00000050: f585 aaba 4741 803a 549a 823a 38e9 04bb
00000060: 6ed0 09bb 4a08 29b8 3b74 fd39 b5ac da3a
00000070: 2a85 79ba 9c2e b4b9 c06b 76b9 5389 e6ba
00000080: 6b1b b3b7 8eb5 8eba d7dc 503b ceb0 22bb
00000090: cb64 433b e6ab 033b 61cf 61bb 57e7 ec3a
000000a0: e24e 453b cb63 09bb 6587 833b 16d1 163b
000000b0: 9d88 8d3a 5238 1bbb 5c08 8bba 8c19 ceba
000000c0: d1db 6eba 2916 8b3b c56d af3a 3aed f03a
000000d0: 7c28 fe3a 7cad 79ba 1556 4a3a 9167 9d3b
000000e0: 4bc8 83ba ebbd 003b 49af f936 f845 2e3b
000000f0: f14a 223a 1139 513b 0edf c038 342d 75bb
00000100: 478a 0bbb 7cf9 f83a 0fe2 893a 0cae 69b9
00000110: 64d7 e93a 415a 98ba cee8 f33a 6b09 b83a
00000120: a56c 7dba eb5b 9fbb b2fb cdba 5db3 193b
00000130: 464e 55b9 d542 09bd e5f0 f83a e324 fbba
00000140: 8175 ce39 2a56 08bb 1d39 39bc c9a5 9a3a
00000150: 8483 ce3a 56d6 e1ba a4b9 bdba db54 193b
00000160: 74a4 a9b9 21ef 3d3a 342f 813b 53f0 38ba
00000170: c0de efb9 bcad e33a 0c96 7c3a 2064 323b
00000180: 5aa8 2a3a f823 b93a 7c78 9d3a 6a54 ad3a
00000190: 6119 ccba 31fc fa3a be4e 0d3a 9389 4a3b
000001a0: 0056 983b a875 eb3a 57bd 1fbb 335d a0ba
000001b0: 17ef d9ba 21ae acba bd0f 2c3a 4ab5 693b
000001c0: eddc 09bb ae4e f539 f9ad 56ba aa56 c5ba
000001d0: 4bab 09bb 264d db3a 19cf b0b6 2dcf 5b3b
000001e0: 2600 8939 39b3 32ba 3c30 de3a 3a47 813a
000001f0: 8629 013b ef9a 1cbb 60cb 5eb9 cfc7 af39
00000200: 702b 0d3b 11f3 9e3a 0881 57bb b417 e9b7
00000210: 03bf 71ba 8add b93a e070 5c3a ab4a 94ba
00000220: 6d32 7e3a 6522 1d39 aeb2 a93a bdfb 2939
00000230: fc41 8eb9 5d6e b1bb b0db d13a 83d3 e13a
00000240: e708 88ba 326d 03ba 74ae dfba 268e f93a
00000250: 666b 903a 6e50 97ba f488 a0b9 5c58 6e3b
00000260: 5ce6 c03a 3a90 f13a 0834 183b 7845 8a3b
00000270: 1b23 44bb 319e 943a f88b 533b 9074 eaba
00000280: 6592 7fba 5980 3d3b f19c 38bb fa0e 893a
00000290: c2d8 343b 079c 1dbb 096b 8439 24ec 4cbb
000002a0: 9836 363a c02d 0cba 9d2b c03a 5478 4bbb
000002b0: 72b6 aeb8 7f99 2bbb 61ab 8c39 b98e a13a
000002c0: c6cd d73a 3f75 d539 b3ee 83ba 7e1f 8239
000002d0: 799a 6cb9 3103 f8ba d836 ce38 1445 b33a
000002e0: c628 edba 65d9 abb9 268b 45ba 8732 713a
000002f0: ad9d a739 6cfc bc3a a484 7fba cc94 083b
00000300: 6105 17ba 5025 aeb9 9c00 70bb ee8d 3e39
00000310: e204 0dbb 18f0 23ba f12b 923a 547b 3e3a
00000320: 153c ac3a 4f2c bbba dcfe f93a 6814 51bb
00000330: 35df 5dbb 304a 19bb 3a88 1fba f02e 50ba
00000340: dc55 4a3a ae16 34ba e5ce 2e3a 83c3 22bb
00000350: d4ee d038 6556 c93a d3e1 073b 4ecf ceba
00000360: 8a3f d23a b808 b6bb 0b76 823a 2a55 04bc
00000370: 22b2 b13a 0495 5f3a 2f42 f23a 206d d0b9
00000380: 45e7 993b ae3f ac3b 2229 85ba f596 153b
00000390: df75 063b 60f0 60bb 9725 30b9 f440 813b
000003a0: 5cb7 90ba da73 e13a 42f5 3e3b 37e9 07b9
000003b0: 7744 253b a32c 5eba 4464 72ba 96e7 76ba
000003c0: a01e 0dbc 4e28 083a a2d7 15bb b0aa 073b
000003d0: 461e 8a3a e12b a3bb 5090 caba 75bd 173b
000003e0: 4551 263b fd06 883b 262a e7ba 34e9 dc3a
000003f0: 6252 573b af93 253b 720c 413a 8676 af39

exp_avg_sq f4 [3, 768]
6.244754e-05 0.00018018583 0.00013562026 0.0005048672 0.00020741648 0.00015471314 8.04541e-05 5.034528e-05
0.00012412803 4.0928535e-05 7.25741e-05 0.0005100578 6.7059664e-05 0.00015013662 0.00011957763 0.00021170772
0.00018615149 0.00013019907 5.918532e-05 6.7611385e-05 3.7127134e-05 3.5365894e-05 6.4017644e-05 0.00013792365
8.153378e-05 4.7684556e-05 5.0962604e-05 6.422006e-05 6.094732e-05 4.4905933e-05 4.4266064e-05 0.00021537427
4.897472e-05 0.00010366212 8.68461e-05 2.7887467e-05 9.990238e-05 3.4343822e-05 0.0002994155 7.332123e-05
0.00032971083 0.00035194732 7.3288924e-05 8.101498e-05 5.7615023e-05 7.683742e-05 7.038054e-05 7.630838e-05
5.2323787e-05 9.8375414e-05 7.7713514e-05 4.9105613e-05 3.694645e-05 5.0484738e-05 4.67933e-05 0.00017062198
2.810317e-05 0.00022167068 3.6802554e-05 6.609257e-05 7.124206e-05 0.0009208724 0.0001107258 8.5740365e-05
5.7141013e-05 5.2467887e-05 4.846294e-05 0.00013615213 3.8816455e-05 7.8897094e-05 6.046214e-05 9.5904e-05
3.4305394e-05 0.0002924244 4.4292017e-05 0.00029380183 0.00013110052 0.017976383 8.55437e-05 0.00027089985
5.0328308e-05 0.000100469944 0.0104887495 8.768418e-05 4.6259407e-05 0.0008297226 5.8437832e-05 0.00013548434
6.908471e-05 5.462841e-05 6.99946e-05 4.1516174e-05 7.778244e-05 0.00013620124 4.624664e-05 0.00011456491
3.9810297e-05 0.0007484229 2.4652e-05 0.00012882044 0.00016183748 0.00017305191 0.00016363813 5.451515e-05
0.00014627707 0.00015209614 0.00023477756 0.00014146761 3.554183e-05 3.0321173e-05 0.0011780729 0.00027812275
0.00013735972 6.531223e-05 3.4431243e-05 0.00018673457 3.3386204e-05 4.3900327e-05 4.9465496e-05 0.00011929201
5.4847984e-05 0.000108640146 0.0002463991 5.428734e-05 0.00020102196 0.00011318201 7.6287586e-05 7.177267e-05
8.9827634e-05 3.548648e-05 0.00013788675 0.0006085599 4.183977e-05 6.45198e-05 8.659854e-05 5.3014304e-05
0.00011821356 0.00019451689 3.1578187e-05 0.000111247224 4.3250304e-05 0.00016720341 3.1476786e-05 4.927794e-05
0.0002483475 1.8202798e-05 4.5098368e-05 3.821765e-05 0.00010590602 0.000102958074 5.5418306e-05 0.00013924598
0.00011014341 5.0500064e-05 0.00020674827 0.00033417196 8.136913e-05 0.00014349901 0.00018678649 0.00010323717
2.6245873e-05 0.00020052768 0.00022639327 0.00027517136 6.087044e-05 9.670554e-05 8.9956455e-05 0.00013020681
2.802673e-05 0.00014852262 0.00012364941 8.466884e-05 3.094745e-05 4.094616e-05 0.000122068945 4.679185e-05
7.195866e-05 7.521919e-05 5.469703e-05 5.733222e-05 5.0221795e-05 0.00013102598 4.3268352e-05 3.4540884e-05
6.154135e-05 0.00033657934 8.1867e-05 6.0321963e-05 0.00015358343 4.2739222e-05 3.6166624e-05 4.320146e-05
3.5247518e-05 9.068839e-05 6.789017e-05 6.440437e-05 0.000117159536 8.260059e-05 6.2203806e-05 2.5803369e-05
7.127807e-05 7.143473e-05 0.00019750666 7.208112e-05 8.6861124e-05 0.00037947035 0.0001077043 4.8754886e-05
3.3144795e-05 0.00012309427 9.602115e-05 0.00013371541 6.15109e-05 0.00023895262 6.9756556e-05 8.2661085e-05
0.00021928972 0.0023515099 0.00011127796 0.0018189243 5.501576e-05 2.6178132e-05 0.00017330964 3.1428175e-05
0.000256548 0.00021541098 3.1324646e-05 3.8594833e-05 0.00013556538 0.000189364 8.0654165e-05 0.000115389135
9.6454576e-05 7.8430305e-05 6.255293e-05 5.015658e-05 3.7379636e-05 4.368366e-05 5.3652242e-05 4.5488883e-05
0.00022237418 3.6418984e-05 4.8419308e-05 0.00013371126 5.892672e-05 6.922802e-05 3.353547e-05 0.0002376674
8.5865875e-05 0.00018021208 0.000101787795 7.11236e-05 6.765327e-05 0.00019081694 6.341008e-05 4.3792483e-05
00000000: 45f6 8238 44f0 3c39 4935 0e39 1059 043a
00000010: f07d 5939 7e3a 2239 77b9 a838 d529 5338
00000020: 5d28 0239 aeaa 2b38 ec32 9838 66b5 053a
00000030: 62a2 8c38 fe6d 1d39 c0c5 fa38 dcfd 5d39
00000040: a931 4339 0c86 0839 c13d 7838 96ca 8d38
00000050: f5b8 1b38 d755 1438 3641 8638 999f 1039
00000060: 1dfd aa38 e700 4838 aec0 5538 e2ad 8638
00000070: b0a1 7f38 6159 3c38 53aa 3938 17d6 6139
00000080: 356a 4d38 2d65 d938 2521 b638 e1ef e937
00000090: af82 d138 660c 1038 defa 9c39 09c4 9938
000000a0: 0add ac39 9285 b839 b1b2 9938 96e6 a938
000000b0: a9a7 7138 c723 a138 4499 9338 c007 a038
000000c0: 3d76 5b38 e64e ce38 20fa a238 c0f6 4d38
000000d0: f3f6 1a38 93bf 5338 ec43 4438 fde8 3239
000000e0: 19bf eb37 4570 6839 715c 1a38 2e9b 8a38
000000f0: ca67 9538 b366 713a 7635 e838 82cf b338
00000100: b2aa 6f38 f710 5c38 b044 4b38 0fc4 0e39
00000110: dace 2238 8e75 a538 ba98 7d38 1120 c938
00000120: 23e3 0f38 8a50 9939 31c6 3938 6a09 9a39
00000130: 0778 0939 3543 933c ed65 b338 9007 8e39
00000140: 9c17 5338 64b3 d238 01d9 2b3c 16e3 b738
00000150: a906 4238 be81 593a 251b 7538 cd10 0e39
00000160: 92e1 9038 cf20 6538 11ca 9238 a721 2e38
00000170: 211f a338 3ed1 0e39 f4f8 4138 9142 f038
00000180: fbf9 2638 d031 443a c4cb ce37 f913 0739
00000190: ebb2 2939 4575 3539 4796 2b39 32a7 6438
000001a0: f461 1939 ff7b 1f39 9f2e 7639 ec56 1439
000001b0: c012 1538 395a fe37 9169 9a3a 01d1 9139
000001c0: 3808 1039 3df8 8838 446a 1038 2ece 4339
000001d0: 2a08 0c38 9e21 3838 2c79 4f38 692c fa38
000001e0: 930c 6638 bcd5 e338 212f 8139 96b2 6338
000001f0: 6cc9 5239 215c ed38 96fc 9f38 a984 9638
00000200: d861 bc38 51d7 1438 b195 1039 c387 1f3a
00000210: 1c7d 2f38 ce4e 8738 3d9c b538 ad5b 5e38
00000220: 6ce9 f738 3bf7 4b39 d272 0438 664d e938
00000230: a967 3538 5353 2f39 f105 0438 c9af 4e38
00000240: a334 8239 36b2 9837 0128 3d38 e44b 2038
00000250: dd19 de38 32eb d738 f470 6838 8f02 1239
00000260: cbfc e638 08d0 5338 91ca 5839 cd33 af39
00000270: b8a4 aa38 3978 1639 1edc 4339 0981 d838
00000280: 952a dc37 bd44 5239 fb63 6d39 e044 9039
00000290: 234f 7f38 64ce ca38 01a7 bc38 2088 0839
000002a0: f21a eb37 bdbc 1b39 e3a7 0139 3d90 b138
000002b0: 92cd 0138 9bbd 2b38 44ff ff38 5e42 4438
000002c0: 83e8 9638 ffbe 9d38 7d6a 6538 0178 7038
000002d0: 3ea5 5238 0564 0939 0a7b 3538 fedf 1038
000002e0: c30f 8138 ea76 b039 03b0 ab38 3702 7d38
000002f0: 3d0b 2139 e442 3338 9eb1 1738 3733 3538
00000300: bcd6 1338 f52f be38 4260 8e38 d510 8738
00000310: 8cb3 f538 db39 ad38 6a73 8238 5074 d837
00000320: 1f7b 9538 3bcf 9538 ca19 4f39 422a 9738
00000330: 3629 b638 a6f3 c639 4edf e138 297e 4c38
00000340: f404 0b38 de12 0139 f65e c938 f535 0c39
00000350: 6aff 8038 5b8f 7a39 444a 9238 555a ad38
00000360: 23f1 6539 ca1b 1a3b e65d e938 f968 ee3a
00000370: b9c0 6638 1c99 db37 74ba 3539 bfd1 0338
00000380: 4a81 8639 f2df 6139 9562 0338 e3e0 2138
00000390: 8e26 0e39 0390 4639 e024 a938 12fd f138
000003a0: a847 ca38 f37a a438 d92e 8338 385f 5238
000003b0: 14c8 1c38 f938 3738 a808 6138 51cb 3e38
000003c0: 1d2d 6939 96c0 1838 d615 4b38 d834 0c39
000003d0: 1528 7738 832e 9138 70a8 0c38 5b36 7939
000003e0: e412 b438 50f7 3c39 e876 d538 3128 9538
000003f0: 13e1 8d38 0816 4839 07fb 8438 d2ad 3738

exp_avg f4 [3]
0.003680786 -0.0011517724 -0.002529005
00000000: 5739 713b 12f7 96ba aabd 25bb

exp_avg_sq f4 [3]
0.00077412877 0.00078259304 4.408234e-05
00000000: e7ee 4a3a ee26 4d3a 0de5 3838
