2024:05:01_ckpts/relational/Linear/lr_0.001_epoch_100/6.pth (torch, 30291 bytes, 6 tensors)

linear.weight f4 [3, 768]
0	0x3d73e13c	0.059540972
1	0x3cc2ab11	0.023763211
2	0x3ec2c5f7	0.3804166
3	0x3e7d9eb9	0.24767579
4	0xbd077c12	-0.033077307
5	0x3e8890f2	0.26673084
6	0x3ce7c1e8	0.028290704
7	0x3e020017	0.12695347
8	0xbddeba07	-0.10875326
9	0x3d1e0d66	0.038586996
10	0xbebeb86c	-0.37250078
11	0x3e2f075b	0.1709265
12	0xbe9dc9b2	-0.30817944
13	0x3e35520c	0.1770708
14	0xbf0f3d41	-0.5595284
15	0x3bf9a6a5	0.0076187425
16	0xbe62d1ca	-0.2215034
17	0x3e12c11d	0.1433148
18	0xbe98c724	-0.29839432
19	0x3e15a989	0.14615454
20	0xbf144528	-0.57918024
21	0x3e68c7dd	0.22732492
22	0xbcae4514	-0.021273173
23	0xba4b487b	-0.0007754636
24	0x3da53e08	0.08068472
25	0xbdd787c8	-0.10523945
26	0x3de38487	0.11109262
27	0xbe1f2ca6	-0.15544376
28	0xbe56cffe	-0.2097778
29	0x3f1453d0	0.5794039
30	0x3ead52b2	0.33852154
31	0x3c70b997	0.014692686
32	0xbe05bc5e	-0.13060138
33	0x3d8e53cd	0.069495775
34	0xbe00bdc0	-0.12572384
35	0xbebcef17	-0.3690116
36	0x3efadddf	0.489974
37	0xbdc72531	-0.097238906
38	0xbe11a92b	-0.14224689
39	0x3d975273	0.07388773
40	0x3d385eab	0.045012157
41	0xbd953c5c	-0.07286903
42	0xbe89110e	-0.26770824
43	0x3de117e0	0.10990882
44	0x3eb9b541	0.36271098
45	0xbe9562aa	-0.29176837
46	0xbd7b9618	-0.061422437
47	0x3f0909d0	0.535306
48	0xbeb02ac2	-0.34407622
49	0xbeaa68f2	-0.33283192
50	0x3d54fc05	0.051998157
51	0xbe02b4da	-0.12764302
52	0x3e56b0af	0.20965837
53	0x3ea3e339	0.32009295
54	0xbcd4a7b2	-0.02595887
55	0x3e8c1eca	0.2736724
56	0x3e80ec53	0.251803
57	0xbd816985	-0.063189544
58	0xbead77d7	-0.33880493
59	0xbd8c48d1	-0.06849826
60	0x3ef1ce53	0.47227725
61	0xbc6f6412	-0.014611261
62	0xbda832c6	-0.08212809
63	0xbde03b8a	-0.10948856
64	0xbee6e9c2	-0.45100218
65	0xbe231e1e	-0.15929458
66	0xbf2b4d17	-0.66914505
67	0xbdca50be	-0.098786816
68	0x3dde5e76	0.10857861
69	0x3de2cbd3	0.11074033
70	0x3d514ede	0.051100604
71	0xbe8c2a41	-0.27375987
72	0x3c97e6bf	0.018542645
73	0x3e0d5a41	0.1380396
74	0xbd91856e	-0.07105528
75	0x3b5630b3	0.0032682836
76	0x3e452838	0.19253623
77	0x3cd89f7c	0.026443236
78	0x3d820770	0.06349075
79	0x3eb1b49d	0.3470811
80	0xbeb6ff4f	-0.3574166
81	0x3bb111c3	0.0054037287
82	0xbceb3dcd	-0.028715992
83	0x3e7f3294	0.24921638
84	0xbe611fef	-0.21984838
85	0xbd23157c	-0.03981541
86	0xbd7cc289	-0.06170896
87	0x3e453cec	0.19261521
88	0xbe7b9063	-0.24566798
89	0x3ef7172d	0.4825987
90	0xbdf4aa69	-0.11946566
91	0xbc79e43c	-0.015252169
92	0xbed4cf6f	-0.4156451
93	0x3e3288da	0.17435017
94	0x3da49990	0.08037102
95	0x3db5c380	0.08875179
96	0x3ea2eeeb	0.31822905
97	0x3d4e0797	0.050300207
98	0xbef388f8	-0.47565436
99	0xbda89c24	-0.082329065
100	0xbd197344	-0.03746344
101	0x3ec236ff	0.37932584
102	0x3b41b507	0.0029557364
103	0xbe4e5ae5	-0.20151861
104	0xbdece801	-0.11567689
105	0xbe9e0293	-0.3086134
106	0x3dfc293e	0.12312554
107	0x3cfdd358	0.030984566
108	0x3e84516e	0.25843376
109	0xbeecd30f	-0.46254775
110	0x3d900af1	0.07033337
111	0xbe906327	-0.28200647
112	0x3e58c9d2	0.21170738
113	0xbe8a7b9d	-0.27047434
114	0x3f0c0e87	0.54709667
115	0xbf03e015	-0.515138
116	0xbf080fe8	-0.5314927
117	0xbca57d8a	-0.020201463
118	0xbe5c1e81	-0.21496011
119	0x3e2a6f34	0.16643983
120	0xbdfd2c65	-0.12361983
121	0xbf13b616	-0.57699716
122	0xbe355c28	-0.17710936
123	0xbe56a3d4	-0.20960933
124	0x3d21f2fa	0.03953836
125	0x3ebf0390	0.37307405
126	0x3f0f293d	0.559223
127	0xbe5e681a	-0.21719399
128	0xbcf45aa4	-0.029828377
129	0x3f19d7a6	0.6009468
130	0x3e89c451	0.2690759
131	0xbc86a3c7	-0.016435517
132	0x3e8128f1	0.25226548
133	0x3e2a5e79	0.16637601
134	0x3f0d7d87	0.55269665
135	0x3e3cdc2a	0.18443361
136	0xbd604247	-0.054750707
137	0x3d1fe550	0.03903705
138	0x3ef16f2d	0.47155133
139	0xbe17200c	-0.14758319
140	0x3e8a1024	0.2696544
141	0xbe4a1309	-0.19733824
142	0x3f0c0101	0.5468903
143	0xbdf52b78	-0.11971182
144	0xbd9390e4	-0.0720537
145	0x3de8a44d	0.11359463
146	0x3e37d830	0.17953563
147	0x3eb041a0	0.34425068
148	0xbeb3497b	-0.35017
149	0xbd731906	-0.059350036
150	0x3cec7426	0.028863978
151	0x3dd325f0	0.103099704
152	0xbd43a14b	-0.047761243
153	0x3e8af6a6	0.27141303
154	0xbd46ecd1	-0.04856569
155	0xbd4c1623	-0.0498258
156	0x3e4a2963	0.1974235
157	0xbe2dd8bd	-0.1697721
158	0x3e38e9eb	0.18057983
159	0xbe930b42	-0.28719527
160	0x3e174183	0.14771084
161	0x3e03d7ba	0.12875262
162	0xbe78e4c7	-0.24306022
163	0x3e4e69b2	0.20157507
164	0xbe8ec969	-0.2788804
165	0x3d9bd9aa	0.076098755
166	0xbf0d587e	-0.55213153
167	0x3dad4f3d	0.08462379
168	0xbed45aa0	-0.4147539
169	0x3e9dcdde	0.30821127
170	0x3e07c8af	0.13260148
171	0x3ce1ca70	0.02756235
172	0x3e4c080a	0.19924942
173	0xbe6fd2c0	-0.23420238
174	0xbea2cb77	-0.31795856
175	0x3e924a69	0.28572395
176	0xbe00fc13	-0.12596159
177	0x3f1d8179	0.61525685
178	0x3d8971df	0.06711172
179	0x3efcbbdd	0.49362078
180	0xbe33270e	-0.17495367
181	0xbeceeb48	-0.4041388
182	0x3d8089da	0.06276293
183	0x3d8a8ac2	0.06764747
184	0xbe9f9f80	-0.31176376
185	0xbe504ce5	-0.20341833
186	0x3dbe3bb9	0.09288735
187	0xbdc023dc	-0.0938184
188	0xbd2dedcc	-0.04246311
189	0xbe3b33ca	-0.18281475
190	0xbb8cd302	-0.004297615
191	0xbd1074b4	-0.035267547
192	0xbe34f55c	-0.17671722
193	0xbe81f0f6	-0.2537915
194	0x3e1a3103	0.15057759
195	0x3da86a8a	0.08223446
196	0x3ed760e3	0.42066106
197	0x3e3a4b25	0.18192728
198	0xbea25b03	-0.3171006
199	0xbe40dd85	-0.18834503
200	0x3d4cd889	0.05001119
201	0x3e42b3d0	0.19013906
202	0xbef9422d	-0.486833
203	0x3ee970ea	0.4559396
204	0x3e48dab8	0.19614685
205	0xbdaadaf0	-0.0834254
206	0xbe844abb	-0.25838265
207	0x3e7871b6	0.24262127
208	0xbe566322	-0.20936254
209	0x3d23cc5f	0.039989825
210	0xbe87e093	-0.26538524
211	0x3e084a1d	0.13309522
212	0xbcda8dc2	-0.026678924
213	0x3ba2d4a3	0.004969196
214	0xbee68dac	-0.45029962
215	0xbe2281be	-0.15869805
216	0xbe5b2af6	-0.21403107
217	0x3b6000cd	0.0034180165
218	0x3eb8fc6f	0.36130092
219	0xbc8aed84	-0.01695896
220	0x3dd99a8e	0.10625182
221	0x3bb78662	0.0056007365
222	0xbf0e7e0f	-0.556611
223	0x3d9a52b7	0.07535308
224	0x3e684e28	0.22686064
225	0xbe06024b	-0.13086812
226	0xbd9f0aa4	-0.077657014
227	0xbd415f23	-0.04720987
228	0x3e51d85b	0.2049269
229	0xbe8ac31b	-0.2710198
230	0xbde595f2	-0.112102404
231	0x3de9efaf	0.11422669
232	0x3eea342c	0.4574293
233	0xbe770414	-0.2412265
234	0xbe016642	-0.12636665
235	0x3e4dcf1a	0.20098534
236	0x3da60846	0.08107047
237	0xbf09cdcd	-0.5382965
238	0xbc37c337	-0.011215976
239	0x3db77e0e	0.0895959
240	0xbdda3f93	-0.10656657
241	0x3e756daf	0.23967622
242	0xbe01e863	-0.12686305
243	0x3e02ead3	0.12784891
244	0x3e972cd3	0.29526386
245	0xbea7418a	-0.3266719
246	0xbe61395a	-0.21994534
247	0xbe8c1c6c	-0.27365434
248	0xbe704c96	-0.23466715
249	0x3de5b4fc	0.11216161
250	0x3dc4b98b	0.09605702
251	0xbe8df8eb	-0.27728972
252	0x3e10b2f0	0.14130759
253	0x3dcb01a4	0.09912422
254	0xbd1caafd	-0.038249005
255	0x3e70fb04	0.23533255

linear.bias f4 [3]
0	0xbcd80a5e	-0.026372131
1	0xbceec55b	-0.02914684
2	0xbd50a6b0	-0.050940216

exp_avg f4 [3, 768]
0	0x39cb06c8	0.0003872423
1	0xbb6599ae	-0.0035034227
2	0x3b7cf3b1	0.00385974
3	0xba35ac96	-0.00069303194
4	0x3b4eda2c	0.0031563146
5	0x3b2fefb7	0.0026845762
6	0x3a1b78f6	0.00059308053
7	0x38a15294	7.6924596e-05
8	0xbb3e7d4d	-0.0029066384
9	0xbb44a7a4	-0.0030007148
10	0x3b44ab4b	0.0030009325
11	0xbb59851f	-0.0033190919
12	0x3ae09b3b	0.0017136106
13	0xb9b31537	-0.00034157347
14	0xbaaa0034	-0.0012970031
15	0x3aad8daf	0.0013241078
16	0xbb35b6ef	-0.0027727445
17	0x3b2558d6	0.0025229952
18	0xbab7fd36	-0.0014037255
19	0xbb41428d	-0.002948913
20	0x3a5eb5b5	0.00084957044
21	0x3a1aa46c	0.00058991346
22	0xbb2bb0a8	-0.0026197825
23	0x3b6ae6b5	0.0035843079
24	0x3ad593b2	0.0016294627
25	0x3af99a8d	0.0019043252
26	0xbb639d8a	-0.0034731352
27	0x37cbae5f	2.4280684e-05
28	0x3b9a9c21	0.004718319
29	0xbb663504	-0.0035126815
30	0xba92f11e	-0.0011210775
31	0x3ac92290	0.0015345383
32	0xbb1b54e9	-0.0023701733
33	0x3b656c5b	0.0035007212
34	0xbaf2e0f6	-0.0018530178
35	0xb8d57561	-0.00010178495
36	0x3b86b3b1	0.0041107764
37	0x3ab557a4	0.0013835323
38	0x3b14a19b	0.0022679332
39	0xba78a59d	-0.00094851275
40	0x3a3fa0fc	0.00073100603
41	0x3bb4f6bc	0.005522577
42	0xbb3fb2fa	-0.0029250965
43	0xbb150a43	-0.0022741712
44	0xbb0c0bc5	-0.002136932
45	0x3b06282e	0.0020470726
46	0x3a1c277c	0.00059568114
47	0xbab34ed1	-0.0013680105
48	0x3b063909	0.0020480773
49	0xba49e3fd	-0.00077015144
50	0xbb14b69f	-0.0022691858
51	0xb9d39691	-0.00040357237
52	0xbb14f716	-0.0022730283
53	0x39ef42cd	0.00045635403
54	0xb900dfc3	-0.00012290389
55	0xbb252f6d	-0.002520527
56	0x3a895ad2	0.0010479337
57	0xbb2968c5	-0.00258498
58	0xbb7ff951	-0.0039058516
59	0xbae86108	-0.0017729113
60	0x3a31136a	0.0006754907
61	0xbb161033	-0.002289784
62	0x3a2e2e08	0.00066444324
63	0x39d10793	0.0003986923
64	0x39a6d41c	0.0003182002
65	0xbb877555	-0.00413386
66	0xba32b10f	-0.0006816545
67	0x3b4569e0	0.003012292
68	0xb81ac61b	-3.690096e-05
69	0xbad32a5e	-0.0016110649
70	0xbb041b8a	-0.0020158016
71	0xbaf1ca12	-0.0018447062
72	0xba9533de	-0.0011383255
73	0x3b5d36e9	0.0033754653
74	0x3a67b07f	0.00088382507
75	0xba64bff0	-0.00087261107
76	0x3a07613c	0.00051643304
77	0x3cc9bdfb	0.024626723
78	0xbb030a2e	-0.0019995081
79	0x3b8fb8b3	0.0043860315
80	0x39b4ea31	0.00034506762
81	0xbafd045a	-0.0019303665
82	0x3c8a2586	0.016863596
83	0x39fc27e0	0.00048094895
84	0xbb461532	-0.0030225036
85	0x3be4dd6a	0.0069844024
86	0x3ad2a95e	0.0016072204
87	0xba8662e7	-0.0010252864
88	0x3b23f693	0.0025018796
89	0x3a8dc543	0.0010816235
90	0xbac53a0d	-0.0015047208
91	0xba711a74	-0.0009197362
92	0x3a942d55	0.0011305014
93	0xba8aa350	-0.0010577235
94	0xb98356fb	-0.00025051073
95	0x3b219893	0.0024657592
96	0xb9342cfd	-0.00017182897
97	0xb9c45aac	-0.0003745159
98	0x3a8be31c	0.0010672542
99	0xba25d204	-0.0006325545
100	0x3b25288a	0.0025201165
101	0xb9294edc	-0.00016146473
102	0xba697e16	-0.0008907033
103	0xbb431bca	-0.0029771202
104	0xba7c2a8d	-0.00096193777
105	0xb835e78a	-4.33694e-05
106	0x3b506cf5	0.0031803225
107	0x3aa611fe	0.0012670157
108	0xba2a4c44	-0.000649635
109	0x3aa4f361	0.001258474
110	0x3b2bc63a	0.0026210682
111	0xbb9f7082	-0.004865707
112	0xb991da99	-0.00027819423
113	0x3ae3ac18	0.0017370014
114	0xba83922c	-0.001003807
115	0x3ae3fe03	0.0017394427
116	0x3a5ba708	0.00083790766
117	0xb9c1a828	-0.00036937115
118	0x3b193ded	0.0023382858
119	0x3a7ca957	0.0009638271
120	0x3acf4b13	0.001581522
121	0x3acfc76d	0.001585228
122	0xb9c24b0b	-0.00037058475
123	0xba48ef47	-0.00076650496
124	0xba25a66e	-0.00063190504
125	0x3a66ec5e	0.0008809025
126	0xb93a05bc	-0.00017740479
127	0xbb0c9f9c	-0.002145744
128	0x3a4f9424	0.0007918498
129	0xba8d9772	-0.001080258
130	0x39bc9baa	0.00035974133
131	0xbbbf09e1	-0.005830035
132	0x39d0e28c	0.00039841642
133	0xb870b533	-5.7389214e-05
134	0x3a4eaca2	0.00078840007
135	0x3adc2c34	0.0016797842
136	0xbb1f4ff2	-0.0024309126
137	0xba7006c8	-0.0009156284
138	0xb91855e0	-0.0001452784
139	0x3a4e5ff9	0.00078725774
140	0xb9d4aa1e	-0.00040562538
141	0x3b8bf12a	0.0042706924
142	0xb9a6ba40	-0.00031800754
143	0xba7f33c2	-0.00097351905
144	0x3ba0852e	0.0048986888
145	0xb82ad95a	-4.0733583e-05
146	0x38389013	4.4003198e-05
147	0x39e95d61	0.00044510796
148	0x398214dd	0.00024811077
149	0x3b337418	0.002738243
150	0xb9ab7ef5	-0.00032710252
151	0xbb9ebb0b	-0.0048440746
152	0x3a0a416e	0.0005274032
153	0x3b056a08	0.002035739
154	0xbb570a8d	-0.0032812685
155	0xbbae3ad4	-0.0053170715
156	0x3acd61f1	0.0015669448
157	0xba2f204f	-0.00066805346
158	0xbaef943a	-0.0018278428
159	0x3a9a798a	0.0011785489
160	0xbb20de43	-0.002454654
161	0xbb7c4209	-0.0038491508
162	0x3b555f29	0.003255794
163	0xbac6aaef	-0.0015157143
164	0xbaf77898	-0.0018880544
165	0x3badcb28	0.005303759
166	0xbade21b2	-0.0016947298
167	0x3b478ef4	0.0030450197
168	0xbaa19aac	-0.0012329421
169	0x3a2f405a	0.00066853093
170	0xbb6828da	-0.003542474
171	0x3ae296e9	0.0017287406
172	0xbad4fbe8	-0.001624939
173	0x39c8231f	0.0003817314
174	0x3b84e723	0.004055874
175	0xba8d6f8f	-0.0010790693
176	0xba878047	-0.0010337912
177	0x379dde60	1.881941e-05
178	0xbb3918ed	-0.0028243617
179	0xbb312959	-0.0027032702
180	0x3a93b8b1	0.0011270252
181	0x3b043ff0	0.0020179711
182	0xba095e1c	-0.00052401586
183	0x3a40a622	0.00073489745
184	0xba7e6184	-0.0009703862
185	0xbb992fd1	-0.0046748896
186	0xbb147234	-0.0022651078
187	0xbaa366ae	-0.0012466514
188	0xba1425de	-0.00056513946
189	0xb9c73885	-0.00037998348
190	0x3ae10cf0	0.0017169993
191	0xba3f0a34	-0.0007287592
192	0xba165650	-0.00057349075
193	0x399e529a	0.0003019765
194	0xb9740807	-0.00023272644
195	0xba324b7c	-0.0006801409
196	0x38b5ce41	8.66917e-05
197	0xbab588ac	-0.0013849935
198	0xb9bd8a6d	-0.00036152024
199	0x39f1ece5	0.00046143602
200	0xbaf1c105	-0.0018444365
201	0x3a843d01	0.0010088981
202	0xba8bf5c4	-0.0010678102
203	0x3ac427e1	0.0014965498
204	0xbba2a1f1	-0.0049631526
205	0xba8b8f65	-0.0010647593
206	0x3a0e8dc0	0.00054379925
207	0xbb353734	-0.0027651312
208	0xba4853c0	-0.0007641874
209	0x3a9433fa	0.0011306994
210	0xbaf176a9	-0.0018422204
211	0xba61ce2f	-0.00086137926
212	0x3ad90ce2	0.0016559626
213	0xbad9db23	-0.0016621094
214	0xbb0924eb	-0.0020926546
215	0xba27f091	-0.00064063916
216	0x3bad2580	0.0052840114
217	0x3c7df983	0.015501383
218	0xbb36c754	-0.0027889805
219	0xbaac6aaa	-0.0013154347
220	0xba1ec013	-0.0006055843
221	0xba814021	-0.0009861031
222	0xb8ac651d	-8.220433e-05
223	0x38292f9c	4.033708e-05
224	0xbb029b65	-0.0019929048
225	0xba7e6d05	-0.0009705576
226	0x3a471ef4	0.000759586
227	0xba770070	-0.00094223674
228	0xbb4d5399	-0.0031330346
229	0x3b2cf896	0.0026393286
230	0x3a91b3d2	0.0011116213
231	0x3b1036ec	0.0022005392
232	0x37a8a19f	2.0102421e-05
233	0xbaf5edf5	-0.0018762933
234	0xbabc5091	-0.0014367272
235	0x3b1a41f1	0.002353784
236	0xbb01eb94	-0.0019824253
237	0xbac1f732	-0.0014798401
238	0xb9f8f3ea	-0.00047483976
239	0xba46ee6c	-0.0007588628
240	0xbb20c332	-0.0024530408
241	0xbabfcfa0	-0.0014634021
242	0x3ad3c979	0.0016158066
243	0xb9e98ab1	-0.00044544556
244	0xbb09737e	-0.002097338
245	0x3aa575ad	0.0012623571
246	0x3ad21c06	0.001603008
247	0xbad88c20	-0.0016521253
248	0xb9e9c522	-0.00044588099
249	0xbba114e2	-0.0049158195
250	0x3ac841ed	0.0015278436
251	0xbab9e28b	-0.0014181895
252	0x38a12417	7.6838005e-05
253	0xbb52e444	-0.0032179514
254	0x3b18a2a3	0.0023290298
255	0xbaf9afa4	-0.0019049537

exp_avg_sq f4 [3, 768]
0	0x37e7996d	2.760879e-05
1	0x3935eca0	0.00017349655
2	0x39375c87	0.00017486709
3	0x39984c14	0.00029048382
4	0x397cdd18	0.00024114957
5	0x3912f253	0.00014013918
6	0x381a179c	3.673845e-05
7	0x3882412a	6.211021e-05
8	0x383f3562	4.5587665e-05
9	0x3860679e	5.3502263e-05
10	0x38823387	6.208481e-05
11	0x398ff741	0.00027459304
12	0x3893e9c7	7.053051e-05
13	0x39130443	0.000140206
14	0x38d8a263	0.000103299295
15	0x394d2c51	0.00019566833
16	0x38f4fa78	0.0001168148
17	0x389868d8	7.2674535e-05
18	0x3854def9	5.07524e-05
19	0x38a616ee	7.919768e-05
20	0x387eec62	6.0778468e-05
21	0x38086c9a	3.252607e-05
22	0x38c9f886	9.630718e-05
23	0x38cb271c	9.687079e-05
24	0x38e50587	0.000109206005
25	0x385ed0d1	5.31234e-05
26	0x389b940a	7.4185504e-05
27	0x3883c81a	6.2838386e-05
28	0x38c6b6ca	9.475423e-05
29	0x38948a19	7.0829126e-05
30	0x37f08311	2.8671262e-05
31	0x3926a3e5	0.00015892049
32	0x38427c9c	4.6369256e-05
33	0x394991d0	0.00019223173
34	0x38b9c6da	8.8585264e-05
35	0x37fb1eaf	2.993582e-05
36	0x3882f88d	6.245179e-05
37	0x384c85ad	4.8761885e-05
38	0x39db237b	0.0004179737
39	0x38a2f24b	7.7698925e-05
40	0x395d76fb	0.00021120526
41	0x39b2c154	0.00034094846
42	0x386c0e23	5.627995e-05
43	0x3875576e	5.8493977e-05
44	0x38c90862	9.585988e-05
45	0x38a3009b	7.7725585e-05
46	0x388b00cd	6.628186e-05
47	0x38c7fd35	9.536223e-05
48	0x3806d916	3.2150267e-05
49	0x388ba9c4	6.659658e-05
50	0x38920fa1	6.9647336e-05
51	0x37bc6ff8	2.2463486e-05
52	0x3877ad4c	5.9050784e-05
53	0x37f9361e	2.9708313e-05
54	0x3865fea3	5.4835004e-05
55	0x3903d20e	0.00012571385
56	0x37dd98ef	2.6416468e-05
57	0x3926476a	0.00015857597
58	0x38420625	4.6258927e-05
59	0x3816eab4	3.598137e-05
60	0x3888a7d5	6.5162465e-05
61	0x3a592c0d	0.0008284457
62	0x38a29202	7.751958e-05
63	0x38a4502e	7.835064e-05
64	0x386d3b93	5.6560686e-05
65	0x390e2823	0.00013557127
66	0x37efe67a	2.8598344e-05
67	0x38bc3ae3	8.975507e-05
68	0x38445152	4.6805777e-05
69	0x380c729f	3.348535e-05
70	0x38b45b3c	8.6000626e-05
71	0x388f9863	6.8471556e-05
72	0x37e74f08	2.7574148e-05
73	0x3981f0c0	0.0002478417
74	0x38425533	4.6332552e-05
75	0x396c58ed	0.00022539841
76	0x384d2aa8	4.8915535e-05
77	0x3cb36369	0.021897988
78	0x38c77899	9.5115225e-05
79	0x396c5981	0.00022540057
80	0x37dd4c39	2.6380747e-05
81	0x387dd469	6.0517723e-05
82	0x3c24fc33	0.010069895
83	0x38b256dc	8.50388e-05
84	0x38d7f9b9	0.000102985134
85	0x3a3df8d0	0.0007246854
86	0x384adf74	4.836866e-05
87	0x39009411	0.0001226219
88	0x3817961f	3.6141017e-05
89	0x381c7f7d	3.731203e-05
90	0x3865353e	5.464744e-05
91	0x38518731	4.995539e-05
92	0x38087453	3.2533262e-05
93	0x390aa94c	0.00013223774
94	0x38373273	4.3677584e-05
95	0x38fc78db	0.000120388075
96	0x380bce1c	3.3332137e-05
97	0x3a3ac36d	0.00071244576
98	0x37be65bd	2.269714e-05
99	0x3937e323	0.00017536855
100	0x3917a934	0.00014463515
101	0x388a508a	6.595354e-05
102	0x395efaef	0.0002126505
103	0x38b5f567	8.676462e-05
104	0x3889c709	6.569742e-05
105	0x394512c5	0.00018794376
106	0x39723c74	0.00023101439
107	0x38fefc76	0.00012158688
108	0x382e9092	4.1619474e-05
109	0x37ade27b	2.072867e-05
110	0x3a1ea623	0.0006051978
111	0x3959a852	0.00020757437
112	0x38e368a7	0.000108436965
113	0x38236730	3.895833e-05
114	0x37fae5d4	2.9909344e-05
115	0x390540c5	0.00012707997
116	0x382e1321	4.1502648e-05
117	0x384fdb65	4.9556973e-05
118	0x3852ec2e	5.028786e-05
119	0x38b0c3e0	8.4288185e-05
120	0x38b62971	8.686155e-05
121	0x38357cb7	4.3269913e-05
122	0x3999902c	0.0002928985
123	0x3833bca9	4.285263e-05
124	0x39370b9d	0.00017456566
125	0x38caf9d8	9.6786476e-05
126	0x3846ab46	4.736639e-05
127	0x387160cc	5.7549027e-05
128	0x388b216b	6.634261e-05
129	0x37cd97b9	2.4508556e-05
130	0x3801ad01	3.091712e-05
131	0x3a35df1f	0.00069378497
132	0x385def0a	5.291313e-05
133	0x387ee002	6.0766943e-05
134	0x38a9aa90	8.090318e-05
135	0x38b5e5a2	8.673525e-05
136	0x388f52c1	6.8341855e-05
137	0x388c09ec	6.677568e-05
138	0x37d87fd5	2.5808733e-05
139	0x385366f7	5.0402214e-05
140	0x385431e1	5.0591192e-05
141	0x39650364	0.00021840405
142	0x37ce1e53	2.4571234e-05
143	0x381260d3	3.4899287e-05
144	0x398f1100	0.0002728775
145	0x37a07b1f	1.9130819e-05
146	0x38001020	3.0532596e-05
147	0x37ffb780	3.0483818e-05
148	0x388423b2	6.300899e-05
149	0x38e23b90	0.00010787614
150	0x386be5aa	5.6242257e-05
151	0x3902375f	0.00012418393
152	0x3916a0c7	0.00014365009
153	0x3893310c	7.018642e-05
154	0x38e310e0	0.00010827347
155	0x39c91d13	0.0003835937
156	0x39068395	0.00012828254
157	0x390be891	0.00013342711
158	0x38b9453d	8.834384e-05
159	0x38cf00f3	9.870706e-05
160	0x38074db7	3.2258886e-05
161	0x3958a7ae	0.00020661831
162	0x39aae617	0.00032596357
163	0x38e97b3b	0.00011133259
164	0x380e9116	3.399056e-05
165	0x39670e91	0.00022035303
166	0x389570c1	7.125876e-05
167	0x38914acb	6.92807e-05
168	0x380329ae	3.127165e-05
169	0x39157807	0.00014254461
170	0x392b8d40	0.0001636045
171	0x386feb30	5.7201076e-05
172	0x3839e2ce	4.4318665e-05
173	0x37e60e89	2.7424905e-05
174	0x393baa4c	0.0001789715
175	0x38c17411	9.224576e-05
176	0x386f3b07	5.7037014e-05
177	0x3875bac7	5.8586502e-05
178	0x384f345b	4.9401406e-05
179	0x386a51f9	5.586629e-05
180	0x38444320	4.6792557e-05
181	0x387be3f7	6.0055372e-05
182	0x383d7e8c	4.5178967e-05
183	0x3823e06e	3.9071245e-05
184	0x38659bca	5.4742944e-05
185	0x39adb02c	0.0003312839
186	0x38467d3a	4.7323505e-05
187	0x3859fc75	5.197195e-05
188	0x3935678a	0.00017300076
189	0x38141942	3.5309473e-05
190	0x3857fb73	5.1494175e-05
191	0x3806182e	3.197061e-05
192	0x37d809a5	2.5753698e-05
193	0x38be61a9	9.0780966e-05
194	0x3871f375	5.7685615e-05
195	0x3864b06d	5.4523745e-05
196	0x38238bcb	3.899242e-05
197	0x38a8e41f	8.053355e-05
198	0x38851618	6.3460495e-05
199	0x37b451ba	2.1495729e-05
200	0x38c51d85	9.3991905e-05
201	0x38304047	4.2021533e-05
202	0x39328238	0.00017023913
203	0x3895661b	7.123892e-05
204	0x38e324d0	0.0001083106
205	0x3953a3a3	0.00020183488
206	0x3856f863	5.1252904e-05
207	0x38a5ab2c	7.899696e-05
208	0x37ec16ae	2.8143953e-05
209	0x38ff2d49	0.000121677826
210	0x38c4f6a4	9.391949e-05
211	0x38eace91	0.000111964655
212	0x38789941	5.9270536e-05
213	0x3949bd2d	0.00019239327
214	0x382925bc	4.0327883e-05
215	0x38a1ec0a	7.721044e-05
216	0x39ba3958	0.0003551941
217	0x3b3a6dc8	0.0028446782
218	0x389713f5	7.2039584e-05
219	0x3b11afe5	0.0022230085
220	0x37ec17fc	2.8144561e-05
221	0x37dbfe93	2.622538e-05
222	0x38b21af1	8.49272e-05
223	0x38790a36	5.9375736e-05
224	0x395a0738	0.0002079279
225	0x3942d4e6	0.00018580593
226	0x3887714b	6.458404e-05
227	0x38175abc	3.608571e-05
228	0x39022cc5	0.00012414444
229	0x38cf5215	9.885818e-05
230	0x3863b9b0	5.4293952e-05
231	0x38999bb4	7.3246105e-05
232	0x38ae858c	8.3218416e-05
233	0x38cbe956	9.7232565e-05
234	0x3882f758	6.2449544e-05
235	0x3838dea0	4.4076354e-05
236	0x38107ec0	3.445032e-05
237	0x3838b42b	4.4036813e-05
238	0x388db0ef	6.7563604e-05
239	0x378d4e04	1.6844839e-05
240	0x3984802a	0.00025272492
241	0x37e14e3a	2.6858517e-05
242	0x381d0681	3.7437774e-05
243	0x38c12314	9.209491e-05
244	0x38331235	4.2693882e-05
245	0x38cdf661	9.8210534e-05
246	0x3844bb5b	4.690453e-05
247	0x39a77f2b	0.0003194747
248	0x388992fe	6.5600485e-05
249	0x38d16eb5	9.9865174e-05
250	0x38710be9	5.746997e-05
251	0x3884c04b	6.330068e-05
252	0x38a7c6fb	8.0002435e-05
253	0x397401b6	0.0002327029
254	0x38ecf588	0.00011299091
255	0x3839278d	4.414427e-05

exp_avg f4 [3]
0	0xbb95db19	-0.0045732376
1	0x3b94b592	0.0045382464
2	0x3812ccc4	3.4999815e-05

exp_avg_sq f4 [3]
0	0x3a46a416	0.00075775513
1	0x3a45af47	0.0007541072
2	0x37ea4187	2.7925487e-05
