2024:05:01_ckpts/relational/Linear/lr_0.001_epoch_100/7.pth (torch, 30291 bytes, 6 tensors)

linear.weight f4 [3, 768]
0	0x3e23a2a4	0.15980011
1	0xbc8475e8	-0.016169503
2	0x3e0625e1	0.13100387
3	0xbe0919e8	-0.13388789
4	0x3e1ad3fb	0.15119927
5	0x3ea9165c	0.3302487
6	0xbf0f0d04	-0.55879235
7	0x3e7d30d9	0.24725665
8	0x3ed61cdd	0.41818896
9	0xbe3e62d3	-0.18592386
10	0xbe8810c1	-0.26575282
11	0x3e8143bb	0.25246987
12	0xbe819e2b	-0.25315985
13	0xbdf3dd4a	-0.11907442
14	0xbed4d576	-0.41569108
15	0x3e029997	0.12753902
16	0x3df3f475	0.11911861
17	0x3cbf3830	0.023342222
18	0xbaa280cf	-0.0012398007
19	0xbd6825b6	-0.05667659
20	0xbeb06034	-0.34448397
21	0x3eb8f898	0.36127162
22	0x3dac3db1	0.08410204
23	0x3dbb26ff	0.09138297
24	0x3edc8a01	0.4307404
25	0xbebc80d2	-0.36817032
26	0x3deadcec	0.11467919
27	0x3df3f1bb	0.11911341
28	0xbe1be4f2	-0.15224054
29	0x3e5d78c4	0.216281
30	0x3ed71030	0.42004538
31	0x3e7d0940	0.2471056
32	0x3e790fd3	0.24322443
33	0xbdc344d5	-0.09534613
34	0x3e2f3698	0.1711067
35	0x3da4db87	0.08049684
36	0x3f238dfb	0.6388852
37	0xbd028530	-0.0318653
38	0x3d9b8f59	0.07595701
39	0xbe40b472	-0.18818834
40	0xbeb06e01	-0.34458926
41	0x3cac2ec3	0.021018391
42	0xbf15a7cc	-0.5845916
43	0x3f0a2dc9	0.5397611
44	0x3e86f0f1	0.263557
45	0xbd201a50	-0.039087594
46	0xbe641aee	-0.22275898
47	0x3f076361	0.52886015
48	0x3ea8b534	0.32950747
49	0x3c1282e5	0.0089423405
50	0xbe0dd51a	-0.13850823
51	0x3e776d80	0.24162865
52	0x3edc0239	0.42970446
53	0x3e48ac16	0.19596896
54	0xbdd74616	-0.10511415
55	0x3e92ed0c	0.28696477
56	0xbda15af7	-0.07878678
57	0xbe60b486	-0.21943864
58	0xbe7a60e1	-0.24451019
59	0xbe340b53	-0.17582445
60	0x3e2548ad	0.16141005
61	0x3dc64558	0.09681195
62	0xbd9ccafe	-0.07655905
63	0x3ec96940	0.39338112
64	0x3d90b5cc	0.07065925
65	0xbda24168	-0.079226315
66	0xbf39bad7	-0.7255072
67	0x3dd90c5a	0.10598059
68	0x3e26028b	0.16211908
69	0xbe986228	-0.29762387
70	0x3e76280d	0.24038716
71	0xbd59f670	-0.053213537
72	0x3eee4960	0.46540356
73	0x3dcee04c	0.10101375
74	0xbdae1c4b	-0.0850149
75	0xbd5c73b8	-0.053821295
76	0x3dc11336	0.09427492
77	0x3b6fc952	0.0036588502
78	0x3e4b3010	0.19842553
79	0x3e34c9fb	0.17655174
80	0x3cde8bb7	0.02716623
81	0xbe89e4a7	-0.2693226
82	0xbd3088cc	-0.04309921
83	0x3e539910	0.20663857
84	0xbf1094a4	-0.5647681
85	0x3cc4a4b9	0.024004327
86	0xbe1999a4	-0.15000015
87	0x3e3e2aa1	0.18570949
88	0xbe982348	-0.29714417
89	0xbe784501	-0.24245073
90	0xbe959edd	-0.29222766
91	0x3e05e860	0.13076925
92	0x3e2dd42d	0.1697547
93	0xbe0c829c	-0.13721699
94	0xbe331b35	-0.17490847
95	0x3eae9bdb	0.34103283
96	0xbde467e5	-0.11152629
97	0x3e2990a2	0.1655908
98	0x3c2b18dd	0.01044294
99	0xbda4ba1a	-0.080433086
100	0x3e34750f	0.1762278
101	0xbe89cb3c	-0.26912868
102	0xbd670eec	-0.056410715
103	0xbcb4897e	-0.022038218
104	0xbef817c4	-0.48455632
105	0xbeb30e74	-0.34971964
106	0x3be5ff4a	0.007018958
107	0xbe845eae	-0.25853485
108	0x3f132ce2	0.5749036
109	0xbf047f25	-0.5175651
110	0x3f01b8a0	0.5067234
111	0xbe38f165	-0.18060835
112	0x3e795f7b	0.24352829
113	0x3c7af6e1	0.01531765
114	0x3d64662e	0.05576151
115	0xbdd513ca	-0.10404165
116	0xbdae5ba8	-0.08513576
117	0x3d890bff	0.06691741
118	0xbd99abf1	-0.07503498
119	0x3e6d2d09	0.23161711
120	0xbca01dec	-0.019545518
121	0xbe1ebe7f	-0.15502356
122	0xbd47f010	-0.048812926
123	0xbed55888	-0.41669106
124	0xbc090560	-0.008363098
125	0x3df36227	0.118839554
126	0x3e618fe9	0.22027554
127	0xbea6d7bf	-0.32586476
128	0xbe1b09ba	-0.15140429
129	0x3f26fc53	0.65228766
130	0x3e34e83e	0.17666718
131	0xbb224f62	-0.0024766554
132	0xbdad4162	-0.084597364
133	0xbe2302f2	-0.15919092
134	0xbdebfff7	-0.11523431
135	0xbe84f15b	-0.2596539
136	0xbdfb32bf	-0.122655384
137	0xbd0dfeaf	-0.034666713
138	0x3bd27c0e	0.00642348
139	0xbf017343	-0.505665
140	0xbe6089bb	-0.2192754
141	0xbbda44de	-0.0066610416
142	0x3e95eaae	0.2928061
143	0xbe2ceba4	-0.16886765
144	0xbdaa358b	-0.08310994
145	0xbbe2bf40	-0.0069197714
146	0x3e6d4178	0.23169506
147	0x3d346fa3	0.044051778
148	0xbe76d8bf	-0.2410612
149	0xbcb65efe	-0.022262093
150	0x3d1a3579	0.03764865
151	0x3e18eb68	0.1493355
152	0x3b75982a	0.003747473
153	0x3f2a36d9	0.6648994
154	0x3dbbbf12	0.09167303
155	0xbe9f70e9	-0.3114083
156	0x3e8d0ffb	0.27551255
157	0x3e28e9e8	0.16495478
158	0x3ead8be6	0.33895797
159	0xbee94538	-0.45560622
160	0x3ea498dc	0.32147872
161	0x3e674ab8	0.22587097
162	0xbe0d5a20	-0.13803911
163	0x3d4b848d	0.049686957
164	0x3dec46ad	0.11536918
165	0xbe6328e5	-0.22183569
166	0xbecb22dc	-0.39675033
167	0x3e260af4	0.16215116
168	0xbea8ace9	-0.3294442
169	0x3eec4b9c	0.46151435
170	0x3d39941d	0.045307267
171	0xb9a50f7c	-0.0003148279
172	0x3e33207b	0.17492859
173	0x3e155c0b	0.14585893
174	0xbecf890e	-0.40534252
175	0x3b6c8e8f	0.0036095714
176	0xbe75aa73	-0.23990802
177	0x3dbfaec9	0.093595095
178	0x3edb6bfa	0.42855817
179	0xbd45a18a	-0.04824976
180	0x3d6e4ec3	0.05818058
181	0xbe90218d	-0.28150597
182	0x3e7284be	0.2368345
183	0xbe531732	-0.20614317
184	0x3f08389d	0.53211385
185	0xbd6be90f	-0.05759531
186	0xbe7f61e7	-0.2493969
187	0x3e7b9596	0.24568781
188	0x3defcc26	0.1170886
189	0xbe98d132	-0.29847103
190	0xbe8896c0	-0.26677513
191	0x3bab1968	0.0052215345
192	0xbe2e00de	-0.16992518
193	0xbe505443	-0.20344643
194	0xbdee3118	-0.11630458
195	0xbdd945e2	-0.10609032
196	0x3ea3ccc0	0.3199215
197	0x3e4337d5	0.19064267
198	0xbd1fa504	-0.03897573
199	0xbe759724	-0.23983437
200	0x3e79d006	0.24395761
201	0x3b4a2aa0	0.003084816
202	0xbe178fee	-0.14800999
203	0xbe91f3bb	-0.28506264
204	0x3df6b377	0.12045949
205	0xbe5fa5d6	-0.21840605
206	0xbdf295ab	-0.11844953
207	0xbd11d7fd	-0.035606373
208	0xbe4df7cb	-0.20114057
209	0xbe8a26c2	-0.26982695
210	0xbe8bb3a1	-0.27285483
211	0xbc047e24	-0.008086715
212	0xbe733ccd	-0.23753662
213	0x3dfa4c19	0.12221546
214	0xbed63b3e	-0.41842073
215	0x3e543ab9	0.20725526
216	0xbcc39d6a	-0.023878772
217	0x3d0005bc	0.03125547
218	0x3eb59c8a	0.35470992
219	0xbc33abca	-0.010966251
220	0xbe474b71	-0.19462372
221	0x3cff4662	0.03116149
222	0xbe85df61	-0.26146987
223	0x3de7d7b1	0.11320437
224	0xbd0ecca8	-0.034863144
225	0xbec425e7	-0.38310167
226	0x3d7771af	0.06041115
227	0xbec4aa29	-0.38411072
228	0x3db70531	0.08936537
229	0xbecccabe	-0.3999843
230	0xbed846df	-0.4224157
231	0xbbc81cc2	-0.006106944
232	0x3ea6c9f7	0.32575962
233	0xbef77c72	-0.48337132
234	0xbeade4d6	-0.3396365
235	0xbd1cafd8	-0.038253635
236	0xbeab2f0a	-0.33434325
237	0xbe889afd	-0.26680747
238	0x3eb1c117	0.34717628
239	0x3ea22244	0.31666768
240	0xbeb03f2a	-0.3442319
241	0xbe141733	-0.14461975
242	0xbd6f1215	-0.058366854
243	0x3e0b4f1c	0.13604397
244	0x3c8996cb	0.016795537
245	0xbdc0bbcb	-0.09410819
246	0xbf0bb716	-0.5457624
247	0xbc116f07	-0.008876569
248	0xbf2465b3	-0.6421768
249	0x3e05f557	0.13081871
250	0x3d0b77b9	0.034049723
251	0xbee9d9d0	-0.4567399
252	0xbe191885	-0.1495076
253	0xbe49173f	-0.19637774
254	0xbd813bd1	-0.06310237
255	0x3e477891	0.19479586

linear.bias f4 [3]
0	0x3cccec6b	0.025015077
1	0xbd0d9bc3	-0.034572374
2	0xbd155af6	-0.0364637

exp_avg f4 [3, 768]
0	0x39a32002	0.0003111363
1	0x3a7efc0e	0.000972689
2	0xbacc3ded	-0.001558242
3	0x3b3f25d9	0.0029166846
4	0x3a4b1f88	0.0007748534
5	0xbad07276	-0.0015903253
6	0xb8fcd7ab	-0.00012056468
7	0x392c2fb1	0.00016420965
8	0x38985b25	7.264902e-05
9	0xb911d6dd	-0.0001390832
10	0xb8931007	-7.0124916e-05
11	0x3a2cf37a	0.000659756
12	0xb957a21b	-0.00020564387
13	0xbadb1404	-0.0016714339
14	0x3a293c74	0.00064558466
15	0xbbb2aacd	-0.00545249
16	0x3afb10a1	0.0019154736
17	0x39f07f60	0.0004587127
18	0x3af5b647	0.001874634
19	0x3a72fc3b	0.00092691527
20	0xbb10cec2	-0.0022095894
21	0xb9f36b62	-0.00046428578
22	0x3b24e6c8	0.002516197
23	0xba4f4fb0	-0.00079082977
24	0xbad34851	-0.0016119574
25	0xba22092e	-0.00061811775
26	0xba260694	-0.00063333777
27	0xba0e0153	-0.00054170674
28	0xba2642bc	-0.00063423417
29	0x3abfc4fe	0.0014630852
30	0xb92d9774	-0.00016554986
31	0x39c5cea2	0.00037728722
32	0xb9ea645e	-0.00044706737
33	0x35da3796	1.6258443e-06
34	0x3b677f81	0.00353238
35	0xba1bb52b	-0.0005939777
36	0xb9a05fec	-0.00030589045
37	0x3a580fe2	0.0008242113
38	0xbb61a205	-0.0034428847
39	0x3b272e1a	0.0025509656
40	0xba4f5443	-0.00079089793
41	0xbb319f2e	-0.0027102935
42	0x3a8b9a8b	0.0010650916
43	0xbac3710b	-0.0014911009
44	0xb860f47d	-5.363346e-05
45	0x3b203a57	0.0024448836
46	0xbb1902f8	-0.0023347717
47	0xbb6274d1	-0.0034554491
48	0xb97a8d77	-0.00023894558
49	0xba7a2fc0	-0.00095438585
50	0x3b617563	0.0034402243
51	0xb91f2198	-0.00015175936
52	0x39cf43fb	0.00039532766
53	0x3b2614aa	0.0025341907
54	0x3b0a7153	0.0021124675
55	0x3aa61cb9	0.0012673355
56	0xbb04af1f	-0.0020245982
57	0x3b16bf7a	0.0023002313
58	0x399e6901	0.00030214342
59	0xbb173357	-0.0023071372
60	0x3999b777	0.00029319126
61	0x3a85a6d1	0.001019681
62	0xba6f5b6f	-0.0009130751
63	0x3afb692e	0.0019181126
64	0xba96363f	-0.0011460258
65	0xb9b78666	-0.00035004615
66	0x3a8f1ecb	0.0010919211
67	0xb9b0c868	-0.0003371865
68	0x3ac26674	0.0014831559
69	0xba4c1646	-0.00077853014
70	0x39d8e6d6	0.00041370717
71	0xb96ef6cc	-0.00022789388
72	0x397cd810	0.00024113082
73	0xbb04a60b	-0.002024057
74	0x397bb033	0.00024002865
75	0x3a079ef2	0.0005173526
76	0x3b2b9107	0.0026178972
77	0xbd32896e	-0.043588094
78	0x3b0eb45f	0.002177499
79	0xba932d1f	-0.0011228657
80	0x3a8f32fa	0.0010925226
81	0x3ab3107d	0.001366153
82	0xbbd9cdaf	-0.006646834
83	0xb99d1648	-0.00029961974
84	0x3a8ba09b	0.0010652723
85	0xbac9eae7	-0.0015405089
86	0xbaae09e3	-0.0013278093
87	0x3a9fc968	0.0012190761
88	0xbb2fccad	-0.0026824877
89	0x392e13c5	0.00016601298
90	0x3b1f4835	0.0024304513
91	0xba909e3d	-0.0011033487
92	0xba7fedf7	-0.00097629376
93	0x3b43f5f5	0.002990124
94	0x3ac19b48	0.0014771009
95	0x39a8c464	0.0003218978
96	0x3a382d42	0.0007025787
97	0x3c17d52b	0.009267132
98	0xba1208a1	-0.0005570744
99	0xb83e945a	-4.5437693e-05
100	0x382b2a14	4.0808765e-05
101	0x3af7eed0	0.0018915776
102	0xb930ca7d	-0.00016860101
103	0x3a2ea6b8	0.0006662416
104	0x3a5b0acb	0.0008355795
105	0x3a424744	0.0007411132
106	0xbb72ecc0	-0.0037067384
107	0xbb0f5c38	-0.0021875035
108	0xb9aaa0c6	-0.00032544712
109	0x3ab47189	0.0013766746
110	0xb90c5306	-0.00013382369
111	0x3b681fa8	0.003541926
112	0x3ab71210	0.0013967175
113	0xb9f2fffc	-0.0004634856
114	0xba6ede7a	-0.0009112131
115	0xbb4b2ee0	-0.0031003281
116	0x39da44e2	0.00041631522
117	0x39ddea5f	0.00042327025
118	0xb9407829	-0.0001835531
119	0x3a77af22	0.0009448399
120	0x3af049a3	0.0018332492
121	0xba182b82	-0.0005804823
122	0xba212e2b	-0.0006148542
123	0xb8b4585b	-8.599526e-05
124	0xba9ed009	-0.0012116443
125	0xba2cb92a	-0.0006588871
126	0xbab22377	-0.0013590892
127	0xba7d533d	-0.00096635876
128	0x3a02c351	0.0004988211
129	0xba8f3619	-0.0010926157
130	0xbaa2b50a	-0.0012413573
131	0x3adafac9	0.001670682
132	0x3a3b0595	0.00071343157
133	0x3ab8eec9	0.001410925
134	0xba9d5ff5	-0.0012006747
135	0xba3d73a9	-0.00072270125
136	0x3b09961c	0.0020994013
137	0xbade5fbe	-0.0016965789
138	0xba6f46c8	-0.00091276737
139	0xba2f6596	-0.00066908577
140	0xbab3c5cf	-0.0013715568
141	0xb8f53da4	-0.00011693992
142	0x3a95ffe2	0.0011444057
143	0xb952e37a	-0.00020111902
144	0x39c79623	0.00038068098
145	0x3a81b0c2	0.0009894597
146	0xba67da3c	-0.000884447
147	0xb9932c5b	-0.00028071072
148	0xba279303	-0.0006392451
149	0xba96ea4d	-0.0011513919
150	0x3b15d9a5	0.0022865322
151	0x3ab2f72a	0.0013653983
152	0x39dfd4b4	0.0004269235
153	0xb9650eb6	-0.00021844622
154	0x3b34e4c0	0.0027602166
155	0x3b1548b4	0.002277893
156	0xb7f0a53a	-2.868717e-05
157	0x3a25f294	0.00063303974
158	0xb860b27d	-5.3571992e-05
159	0x3a002cfd	0.0004889516
160	0xba18c544	-0.0005827735
161	0x3ba3260e	0.0049789017
162	0xb9af79ac	-0.00033469254
163	0xb8f9f80a	-0.00011919446
164	0x3aada454	0.0013247826
165	0xba8ff333	-0.0010982513
166	0xb9f36d5f	-0.0004643006
167	0xbaeef6c8	-0.0018231506
168	0xb9383a28	-0.00017569272
169	0xbaca5a6c	-0.0015438325
170	0x3b0bf672	0.002135661
171	0xbb0ebf61	-0.0021781551
172	0x3a272f6b	0.000637761
173	0xb6109972	-2.154699e-06
174	0xb9b934ca	-0.0003532528
175	0xba46f9e5	-0.0007590338
176	0xba2aa411	-0.0006509433
177	0x3a186190	0.0005812878
178	0xba4cfe28	-0.00078198547
179	0x3ab8e6bd	0.0014106851
180	0x3a3c1ddb	0.00071760797
181	0x3a32626d	0.0006804828
182	0xb9cfd312	-0.00039639376
183	0xb975bebb	-0.00023436073
184	0xbaddaf9e	-0.00169133
185	0x3a0d6592	0.00053938583
186	0xbb2e0e9f	-0.0026559008
187	0x3b064559	0.0020488112
188	0x3b333c87	0.002734931
189	0x385d4b9d	5.2760926e-05
190	0xb9020667	-0.00012400151
191	0x3a6449b3	0.0008708492
192	0xb8842fdb	-6.303164e-05
193	0x3b0d6e23	0.002158054
194	0x3b05694c	0.0020356951
195	0x3ac42b3c	0.0014966498
196	0xbabbd4d2	-0.0014330393
197	0x3a975c94	0.0011547976
198	0x3b178385	0.0023119163
199	0x3a7cfe69	0.0009650947
200	0x3a23b5c1	0.000624504
201	0xb9f0d59e	-0.00045935524
202	0xb91f1f20	-0.00015175017
203	0xbb02ffc2	-0.001998887
204	0xba45c4e1	-0.0007544291
205	0x3a202140	0.000610847
206	0x3a5e7978	0.0008486728
207	0x3a6e75c6	0.0009096529
208	0xba9ed91a	-0.0012119145
209	0xbafa206c	-0.0019083149
210	0x3aed80c0	0.0018120036
211	0xbb1d07ba	-0.0023960904
212	0xb9aaeb31	-0.00032600158
213	0x3b30afb5	0.0026960198
214	0x39d180b2	0.00039959472
215	0xba557abe	-0.0008143595
216	0x3a239479	0.00062400807
217	0x3c079938	0.008276276
218	0x3b5b4ace	0.0033461335
219	0xbc512236	-0.012764504
220	0x39ae40c8	0.00033236132
221	0x39a82bf6	0.0003207621
222	0xb8a98198	-8.082687e-05
223	0xb80b18ac	-3.316316e-05
224	0x3abc3320	0.0014358498
225	0x3a83a7b1	0.0010044483
226	0x3a86a629	0.0010272908
227	0xb95b0bea	-0.00020889906
228	0x3ad557da	0.0016276792
229	0xba435d75	-0.0007452586
230	0xbab8a0a0	-0.0014085956
231	0x3a987097	0.0011630234
232	0xbadc5c60	-0.0016812198
233	0xb9354afe	-0.00017289442
234	0xba26f188	-0.00063683884
235	0xbb52d9c4	-0.0032173255
236	0x3ad71b77	0.0016411383
237	0x3a91430b	0.0011082602
238	0x3aa0605c	0.0012235749
239	0x3a1a9d88	0.0005898108
240	0x3ac3af5c	0.001492958
241	0x3aeefa2a	0.0018232514
242	0x3a5a0e41	0.0008318164
243	0x39c1cefc	0.00036966044
244	0x3acccb05	0.0015624469
245	0xbb47517b	-0.0030413556
246	0x39a1867c	0.00030808512
247	0xbaa99611	-0.00129384
248	0xb884cadb	-6.332035e-05
249	0xba4d69b2	-0.0007835879
250	0xba98ee15	-0.0011667634
251	0x3b2ef5aa	0.002669672
252	0x3a824232	0.0009937941
253	0x39d4a76a	0.00040560524
254	0xbb3563a5	-0.00276778
255	0xba338797	-0.00068485126

exp_avg_sq f4 [3, 768]
0	0x38586dd5	5.1600702e-05
1	0x39404844	0.00018337468
2	0x3998a6c3	0.00029115946
3	0x3967d23a	0.00022108192
4	0x396703d8	0.00022031309
5	0x396aba60	0.00022385409
6	0x37e9c606	2.7867976e-05
7	0x38fb2211	0.00011974958
8	0x38099486	3.280167e-05
9	0x38e62fa0	0.000109761255
10	0x38bcbb8f	8.999474e-05
11	0x3955e670	0.00020399108
12	0x38b6a3c8	8.708943e-05
13	0x38a7f983	8.009656e-05
14	0x38ea1fa9	0.00011163887
15	0x39728e48	0.00023131922
16	0x38c092e0	9.182631e-05
17	0x3828a868	4.0211162e-05
18	0x38337946	4.278987e-05
19	0x38954fb9	7.119723e-05
20	0x38361497	4.3411357e-05
21	0x38aaf920	8.152635e-05
22	0x38dd9a61	0.000105668565
23	0x38c099d4	9.183926e-05
24	0x38695f54	5.564031e-05
25	0x38408942	4.59042e-05
26	0x38314d1c	4.2271902e-05
27	0x38989733	7.276088e-05
28	0x38378c35	4.3761178e-05
29	0x3910f36b	0.0001382359
30	0x381254a9	3.488796e-05
31	0x3960350d	0.00021382068
32	0x387f9e02	6.0943894e-05
33	0x38a8dc93	8.0519494e-05
34	0x3902278f	0.00012412503
35	0x37c742cb	2.3753752e-05
36	0x38757d52	5.8529266e-05
37	0x39016e3d	0.00012343466
38	0x3972be20	0.00023149746
39	0x3844d60c	4.692939e-05
40	0x39344525	0.00017191896
41	0x399e395f	0.00030178853
42	0x38901551	6.8704256e-05
43	0x37f485a1	2.9149292e-05
44	0x381b2a06	3.6994017e-05
45	0x38902525	6.873374e-05
46	0x383bee2e	4.4806096e-05
47	0x38973a6d	7.211124e-05
48	0x37ac44cd	2.0536036e-05
49	0x38343659	4.296596e-05
50	0x38858e1f	6.368406e-05
51	0x37b0fe1a	2.109916e-05
52	0x3828852b	4.0178344e-05
53	0x38449e9d	4.687776e-05
54	0x380f6796	3.419033e-05
55	0x38d6c5eb	0.0001024118
56	0x380e7aee	3.3969925e-05
57	0x396a3503	0.00022335727
58	0x38772c7e	5.8930826e-05
59	0x385263be	5.0160794e-05
60	0x389d8d21	7.512631e-05
61	0x3a212087	0.00061465095
62	0x38aab2ac	8.139512e-05
63	0x386ec6fc	5.692894e-05
64	0x3822e07a	3.883287e-05
65	0x383753bb	4.370858e-05
66	0x37c6c2f3	2.369422e-05
67	0x38b122ea	8.446521e-05
68	0x37f26450	2.889536e-05
69	0x380ae8c2	3.3118537e-05
70	0x39224e07	0.00015478591
71	0x38bbdfea	8.958562e-05
72	0x380cabeb	3.3538712e-05
73	0x397ea545	0.00024284895
74	0x382edf74	4.169294e-05
75	0x3930d337	0.00016863352
76	0x3882bca2	6.234019e-05
77	0x3ca2103b	0.01978313
78	0x38fee7f9	0.00012154872
79	0x39b453c5	0.0003439469
80	0x38185e19	3.632726e-05
81	0x387952f6	5.944349e-05
82	0x3be88c97	0.0070968377
83	0x38c0f70a	9.201288e-05
84	0x38ef71d6	0.00011417612
85	0x3a0aed82	0.00052996736
86	0x38498399	4.8044694e-05
87	0x39113a51	0.00013850002
88	0x382156d3	3.8466253e-05
89	0x381ac348	3.689833e-05
90	0x394ecfc7	0.00019723094
91	0x3895ef7f	7.149483e-05
92	0x38201e5f	3.8175258e-05
93	0x39387de1	0.00017594501
94	0x38447960	4.684308e-05
95	0x3926f3aa	0.00015921766
96	0x381f4a2d	3.7977636e-05
97	0x3a2c5fe4	0.0006575568
98	0x37fc9d60	3.0114024e-05
99	0x3904deea	0.00012671543
100	0x3917e2c8	0.00014484965
101	0x388b72fc	6.649454e-05
102	0x3965354e	0.00021859
103	0x38db1eee	0.00010448495
104	0x3806466f	3.2013686e-05
105	0x38fd4898	0.00012077502
106	0x39c362da	0.00037266948
107	0x389329ba	7.0172784e-05
108	0x37f4d615	2.9186756e-05
109	0x38032f1e	3.1276715e-05
110	0x376211a4	1.3474757e-05
111	0x399d4e19	0.0003000356
112	0x3926dce1	0.00015913277
113	0x3849f124	4.8146714e-05
114	0x3811f746	3.4800985e-05
115	0x38f2079e	0.00011540878
116	0x37fc71ef	3.0093795e-05
117	0x3903852c	0.00012542744
118	0x37dba5e6	2.6184087e-05
119	0x38bcb010	8.997333e-05
120	0x3808692d	3.252288e-05
121	0x38015bc7	3.084147e-05
122	0x39437463	0.00018640007
123	0x38313c05	4.2255986e-05
124	0x398aabc1	0.00026449378
125	0x3867a2dd	5.522637e-05
126	0x381e45d4	3.7735168e-05
127	0x387786a6	5.901479e-05
128	0x388d35b7	6.733409e-05
129	0x37f40f9e	2.9094339e-05
130	0x37daffa8	2.6106674e-05
131	0x39eef6ab	0.0004557868
132	0x385d9c72	5.2836207e-05
133	0x3873e34b	5.8147398e-05
134	0x38369b95	4.353708e-05
135	0x38a82fb4	8.01975e-05
136	0x387d23e4	6.0353326e-05
137	0x38a18894	7.702518e-05
138	0x37a792d1	1.9976318e-05
139	0x38cf24c8	9.87738e-05
140	0x3812e9ad	3.502674e-05
141	0x392e7dc0	0.00016640779
142	0x37dc5dc9	2.6269716e-05
143	0x37cbf64c	2.4314177e-05
144	0x390c3ea5	0.00013374777
145	0x37b9250d	2.2070972e-05
146	0x389132f2	6.923628e-05
147	0x3802fca7	3.1229716e-05
148	0x38405c6e	4.586245e-05
149	0x388f180a	6.823249e-05
150	0x38a5cbed	7.905797e-05
151	0x3924d03f	0.00015717837
152	0x38482ff1	4.7728365e-05
153	0x3863358e	5.4170894e-05
154	0x396cd59c	0.0002258629
155	0x39c59a13	0.00037689562
156	0x38363ce9	4.344891e-05
157	0x38d56907	0.00010176194
158	0x38927dd8	6.985263e-05
159	0x388e61b9	6.78929e-05
160	0x37a57e1b	1.9728255e-05
161	0x397eddd7	0.0002430597
162	0x395e2780	0.00021186285
163	0x38af7029	8.365542e-05
164	0x38183acf	3.6294394e-05
165	0x390fb7c0	0.00013705995
166	0x38804a13	6.117313e-05
167	0x38a43d9d	7.831606e-05
168	0x380258d9	3.107716e-05
169	0x38fba78f	0.00011999823
170	0x392492cf	0.00015694949
171	0x3841f82b	4.624591e-05
172	0x382abdd6	4.0707957e-05
173	0x3800076e	3.0524498e-05
174	0x3931080d	0.00016883035
175	0x386e5d5f	5.683058e-05
176	0x38c7961d	9.51702e-05
177	0x385e2faa	5.2973315e-05
178	0x37de067e	2.6467485e-05
179	0x37ed3bc5	2.8280434e-05
180	0x389aab7f	7.375236e-05
181	0x38117e83	3.4688517e-05
182	0x387fceed	6.0989452e-05
183	0x382257a7	3.8705442e-05
184	0x38837b34	6.269515e-05
185	0x394134f8	0.00018425647
186	0x3845c238	4.714934e-05
187	0x391abb2e	0.00014756314
188	0x38d3376d	0.00010071588
189	0x386013da	5.342425e-05
190	0x38d09af2	9.947074e-05
191	0x38adb971	8.283824e-05
192	0x3838cbee	4.4058943e-05
193	0x38db54b6	0.000104585124
194	0x38ab1839	8.158427e-05
195	0x386743ee	5.5137956e-05
196	0x37f58bc7	2.9271365e-05
197	0x389d936c	7.513803e-05
198	0x38d4b159	0.00010141981
199	0x37e48481	2.724142e-05
200	0x388b1b6b	6.6331435e-05
201	0x380623d6	3.1981464e-05
202	0x392de291	0.00016582968
203	0x38aef576	8.342687e-05
204	0x38a403af	7.8208155e-05
205	0x38bdf480	9.057764e-05
206	0x3881090e	6.152886e-05
207	0x3802e904	3.1211428e-05
208	0x37e3b825	2.7146258e-05
209	0x38a076be	7.651512e-05
210	0x3824f1a7	3.9325703e-05
211	0x38eadced	0.0001119914
212	0x38eacc11	0.00011196
213	0x39ac67d3	0.00032883752
214	0x382a24a0	4.0565268e-05
215	0x3811078e	3.457773e-05
216	0x39608729	0.00021412656
217	0x3b3436c1	0.0027498456
218	0x390e9647	0.00013598158
219	0x3b031eb3	0.0020007312
220	0x37f33a3c	2.8994975e-05
221	0x37e55cdc	2.7342168e-05
222	0x3878fbd8	5.9362355e-05
223	0x38b66dd7	8.6988955e-05
224	0x3960b1e4	0.00021428574
225	0x38f3e9c1	0.00011630683
226	0x380c6109	3.3468972e-05
227	0x37e6cbde	2.751307e-05
228	0x3939cd66	0.00017719492
229	0x38d6375d	0.000102146274
230	0x386e5263	5.682035e-05
231	0x38607f7c	5.352449e-05
232	0x38851ba5	6.3470834e-05
233	0x38fa6c3a	0.00011941088
234	0x38913eef	6.925861e-05
235	0x388f849c	6.843472e-05
236	0x384075ca	4.5886067e-05
237	0x381c8dc7	3.732534e-05
238	0x38094ba7	3.2733802e-05
239	0x37e0b1d9	2.6785698e-05
240	0x392d3546	0.00016518412
241	0x37a6c24b	1.9879217e-05
242	0x381cd61b	3.73927e-05
243	0x38f24033	0.00011551417
244	0x382b4031	4.082936e-05
245	0x38c88b44	9.5626834e-05
246	0x3854c42d	5.072744e-05
247	0x395381e1	0.00020170912
248	0x3845b45a	4.7136426e-05
249	0x38b9f221	8.8665875e-05
250	0x389b1925	7.3956595e-05
251	0x38e0fb22	0.000107279295
252	0x3866379f	5.4888074e-05
253	0x394c37ec	0.00019475789
254	0x388aacfa	6.612572e-05
255	0x3865ea26	5.4815922e-05

exp_avg f4 [3]
0	0x3b1ec809	0.0024228117
1	0xbac63815	-0.0015122915
2	0xba6eaf77	-0.0009105126

exp_avg_sq f4 [3]
0	0x3a2661d6	0.0006346976
1	0x3a2648c1	0.00063432386
2	0x3771af92	1.44055975e-05
