2024:05:01_ckpts/relational/Linear/lr_0.001_epoch_100/8.pth (torch, 30291 bytes, 6 tensors)

linear.weight f4 [3, 768]
-0.46271718 -0.005573925 -0.11914859 0.1760103 0.22874123 0.11477213 -0.7012588 0.3182233
-0.2888678 -0.33182415 0.15733369 0.4569996 0.094065614 0.15619558 -0.5003889 0.25146607
-0.066833116 0.19873308 0.10806705 -0.029500963 -0.10962715 0.061381243 -0.10666734 -0.033228245
0.3870971 0.1712996 0.19367269 0.65301317 0.13540816 -0.07006652 -0.040575698 -0.013585856
0.045666978 0.12934357 0.018730432 0.022684388 0.25263095 -0.33137992 -0.054204106 -0.14880909
0.1302148 0.2637835 0.053604733 0.6434636 0.07832605 -0.061842237 -0.14234436 0.5881863
-0.13386561 -0.17463033 0.09916326 0.30203578 -0.2392354 0.31784463 0.08817371 0.15122443
-0.21097715 0.045217793 -0.2525281 -0.33928904 -0.12892547 0.022203872 0.32459664 0.22161599
0.17090566 0.063000455 0.14510743 -0.100763895 0.18523765 -0.23333243 0.11261488 0.095283076
0.106731735 0.27095333 0.08948364 -0.17661001 -0.12105249 -0.006357963 -0.20903662 0.15335508
0.60714775 -0.028025238 -0.13580416 0.1409367 -0.5265455 -0.011273316 0.07437226 -0.14529718
-0.20498958 -0.18580742 -0.2893984 0.2605827 -0.114188954 0.040766697 0.0013870144 0.16073725
0.28428817 0.06937497 -0.21026558 0.13534881 0.25066653 0.29328644 -0.25293833 0.13184378
-0.32107663 -0.27394962 0.0011302469 -0.26395392 0.31107488 -0.20719993 -0.30591553 -0.26402944
0.062489036 -0.30275863 -0.13920003 -0.19325574 -0.4121448 0.4326657 -0.166791 -0.03106268
-0.08917252 0.15932932 0.051211394 -0.4436444 -0.25803506 0.1817477 0.13281159 -0.25110117
-0.2616021 0.25168923 0.07659785 0.0062400033 -0.657092 0.07493918 -0.10587234 -0.29536182
-0.11033168 0.15684494 -0.25549066 -0.08489839 0.16387597 0.07233498 0.22043906 0.024593564
-0.19314304 -0.17543873 -0.17251068 -0.23532225 0.15199924 -0.024972381 0.22204274 -0.1453742
-0.21417595 0.44287667 0.11078985 -0.2962249 0.025877198 -0.10202106 0.44336402 -0.3039767
-0.030907923 0.13817129 -0.051825553 0.07860548 -0.0804061 0.15787809 -0.38629377 0.06352258
-0.57051265 0.1400803 -0.25657865 0.8227111 0.36855832 -0.31822133 -0.30698034 0.1325439
-0.16018856 0.1570827 0.35003912 0.18532455 -0.19236933 0.18197218 -0.2203198 -0.6424627
-0.032689817 -0.0270707 -0.029779974 0.09411689 0.016596941 -0.3485655 -0.037688747 -0.17288855
0.08074969 0.38156977 -0.21179134 0.019647555 -0.08091798 -0.009902383 0.16670905 -0.14434722
0.20567672 -0.09442678 -0.3457901 -0.09374531 0.05599176 -0.011693585 0.19119959 0.3807883
-0.12254363 -0.2725906 -0.36259776 0.19901083 0.13386224 0.12989183 -0.15861349 -0.05997047
-0.1873089 0.027596453 0.15774243 -0.009086541 0.26421592 0.064149834 -0.47750083 0.1500394
0.145789 -0.4485111 -0.010380767 -0.14027938 0.20497982 -0.44252557 -0.02563107 -0.17594045
0.471282 -0.26257512 -0.20262854 -0.07849825 -0.42381597 -0.4432555 0.2551186 -0.045979712
-0.11515325 0.18706143 -0.21039383 -0.0062680016 -0.13332449 -0.021795265 0.051881656 0.13628511
-0.08543145 0.071554184 0.12577282 -0.201299 -0.54325026 -0.39731923 0.29164127 0.16316333
00000000: 44e9 ecbe 79a5 b6bb 2d04 f4bd 0b3c 343e
00000010: 243b 6a3e a70d eb3d b285 33bf 2aee a23e
00000020: 7be6 93be dbe4 a9be 151c 213e dafb e93e
00000030: 79a5 c03d bcf1 1f3e 7d19 00bf 29c0 803e
00000040: cddf 88bd af80 4b3e 4252 dd3d 01ac f1bc
00000050: 3384 e0bd e66a 7b3d 6874 dabd 571a 08bd
00000060: 9731 c63e 2a69 2f3e 2252 463e df2b 273f
00000070: 70a8 0a3e 097f 8fbd b432 26bd 3697 5ebc
00000080: 4c0d 3b3d a472 043e 9070 993c 9cd4 b93c
00000090: d858 813e a1aa a9be 2005 5ebd 6961 18be
000000a0: 0757 053e a20e 873e a390 5b3d 08ba 243f
000000b0: 6869 a03d 494e 7dbd b8c2 11be 6193 163f
000000c0: 1114 09be 4bd2 32be 1b16 cb3d 6fa4 9a3e
000000d0: 20fa 74be 88bc a23e 6b94 b43d 94da 1a3e
000000e0: 650a 58be 4b36 393d 5d4b 81be 4bb7 adbe
000000f0: 0a05 04be e5e4 b53c 8831 a63e 4def 623e
00000100: e501 2f3e 6206 813d 0b97 143e 4d5d cebd
00000110: f0ae 3d3e b2ee 6ebe a1a2 e63d c623 c33d
00000120: 2b96 da3d 65ba 8a3e 3343 b73d 41d9 34be
00000130: 5eea f7bd 7656 d0bb b20d 56be 1d09 1d3e
00000140: 096e 1b3f 2f95 e5bc 3f10 0bbe b651 103e
00000150: b0cb 06bf b7b3 38bc 7c50 983d c9c8 14be
00000160: cae8 51be 4d44 3ebe 072c 94be 186b 853e
00000170: e6db e9bd fbfa 263d 7bcc b53a 4e98 243e
00000180: 388e 913e 7714 8e3d dc4f 57be e198 0a3e
00000190: 5d57 803e a429 963e 2281 81be 0e02 073e
000001a0: 2864 a4be 2043 8cbe cb24 943a f824 87be
000001b0: 3545 9f3e 382c 54be f6a0 9cbe de2e 87be
000001c0: 81f4 7f3d 2e03 9bbe 748a 0ebe d5e4 45be
000001d0: a504 d3be 5c86 dd3e 43cb 2abe 2977 febc
000001e0: 15a0 b6bd 3a27 233e 0ac3 513d 5c25 e3be
000001f0: 2c1d 84be 121c 3a3e c3ff 073e 5590 80be
00000200: b6f0 85be 69dd 803e 55df 9c3d f178 cc3b
00000210: 2e37 28bf b679 993d 99d3 d8bd aa39 97be
00000220: 93f5 e1bd f69b 203e accf 82be 35df adbd
00000230: 1acf 273e 5d24 943d c7ba 613e 7178 c93c
00000240: 4ac7 45be 36a6 33be a4a6 30be 51f8 70be
00000250: b0a5 1b3e e192 ccbc 2c5f 633e f9dc 14be
00000260: f150 5bbe bbc0 e23e cae5 e23d caaa 97be
00000270: 6bfc d33c 6bf0 d0bd 9c00 e33e d6a2 9bbe
00000280: 9d32 fdbc c67c 0d3e 0847 54bd e9fb a03d
00000290: f4ab a4bd cbaa 213e 4cc8 c5be 2018 823d
000002a0: 1e0d 12bf 3671 0f3e 475e 83be 329d 523f
000002b0: adb3 bc3e e8ed a2be 872c 9dbe 97b9 073e
000002c0: 7808 24be 4ada 203e 5438 b33e b8c5 3d3e
000002d0: 77fc 44be ea56 3a3e 839b 61be 6f78 24bf
000002e0: c2e5 05bd 5fc3 ddbc 22f5 f3bc 5bc0 c03d
000002f0: 4ff6 873c 2d77 b2be 845f 1abd b209 31be
00000300: 1860 a53d 1d5d c33e d4df 58be e9f3 a03c
00000310: 53b8 a5bd 9b3d 22bc c7b5 2a3e c2cf 13be
00000320: eb9c 523e d462 c1bd 660b b1be 8bfd bfbd
00000330: 9e57 653d 7396 3fbc d3c9 433e aff6 c23e
00000340: 28f8 fabd ff90 8bbe 6aa6 b9be 7fc9 4b3e
00000350: 2f13 093e 5d02 053e 936b 22be 98a3 75bd
00000360: e7cd 3fbe f511 e23c 3b87 213e b7df 14bc
00000370: 4f47 873e fd60 833d fd7a f4be eea3 193e
00000380: b649 153e 3fa3 e5be 1814 2abc 66a5 0fbe
00000390: 3be6 513e b692 e2be 40f8 d1bc bc29 34be
000003a0: e04b f13e 3f70 86be db7d 4fbe b1c3 a0bd
000003b0: 68fe d8be 63f2 e2be e89e 823e 3955 3cbd
000003c0: 78d5 ebbd 088d 3f3e 7b71 57be cf63 cdbb
000003d0: 3786 08be fc8b b2bc dc81 543d 538e 0b3e
000003e0: aff6 aebd 008b 923d 97ca 003e 5321 4ebe
000003f0: 7312 0bbf 6d6d cbbe 0152 953e 4a14 273e

linear.bias f4 [3]
-0.023563948 0.005821399 -0.02342412
00000000: 2e09 c1bc 6fc1 be3b f1e3 bfbc

exp_avg f4 [3, 768]
-0.00067445723 0.0048490833 -0.00039957138 0.0013681616 -0.0015648656 -0.00036255998 -0.0007865361 0.00022676037
-0.00040862642 0.0003558279 0.00038111766 0.0020901368 0.001125451 0.00016274732 0.0028105679 0.0022138353
0.0008021445 -0.0004343585 0.0007756393 0.0015057699 0.0014142845 0.00014646392 0.0015217068 -0.0014604202
-0.0005038856 0.00048582567 0.0008931683 -0.00036749383 0.00034539227 -0.00035578426 -0.0009631535 -0.0023765136
-0.00026779115 0.00029694274 0.00112913 -0.00036625206 -0.002179471 0.0017374558 -0.002297112 3.0666684e-05
0.0017045544 -0.004496876 0.00019767693 -0.0005914836 0.0008133375 -0.0010369039 -0.0009950409 0.00027680007
-6.664961e-05 -0.0017718595 -0.0014766823 0.0014463249 -0.0017431938 -0.0024730416 -0.00033351302 -0.0014783109
-0.000115737996 0.0033019348 -0.0015278468 0.0014338371 0.0028701762 -0.00011877109 -0.0026076238 -0.0020639093
0.0013769908 0.0010364068 -0.00041004762 0.00275168 -0.0026466276 0.00035253158 0.0008654053 0.002181197
0.00028084082 -0.0018806602 0.0018144728 0.0018115267 -0.0019205934 -0.02136817 0.0034799115 -0.00021032103
-7.879526e-05 -1.24324015e-05 -0.007962592 0.0019571115 0.0016631983 -0.004563261 -0.00062849827 0.0013959971
0.0019448557 -0.00036331263 0.0010085009 0.0015382738 0.00070767844 0.0023192149 -0.00071896333 0.0010718118
0.00017842534 0.0030818626 -1.9462734e-05 0.0018227324 -0.0012767275 -0.0013692988 0.0005488973 -0.0008518537
-0.0012169628 0.0025897247 -0.001553287 -0.00132463 -0.0025319655 -0.0011966401 -0.0009168244 0.0006956635
-0.0004763772 0.0024005247 0.00019232187 0.0019450615 0.002337948 0.002270754 5.466132e-06 0.0026626298
0.00052069523 -0.0015723995 0.001131909 -0.00020003138 0.0015409373 0.00045779775 -0.00135593 -0.0019418332
-0.00014885189 -0.0014861978 0.0001813051 0.0059159514 -0.00019750447 0.0005386971 0.00019431704 -0.0001371157
-0.0017920887 -0.0014509765 -0.0012694732 -0.0003869129 -0.0010083179 -0.0021585864 -0.0014926341 0.00039453374
-0.0023431277 -0.0010339045 -0.0016652597 -0.0003187827 0.00018460018 0.001765291 -0.00016842788 0.0014236817
0.0006675229 -5.3320375e-05 0.002076733 0.00022304687 -0.0010253062 -0.0012593226 0.0024587829 0.002083845
0.00017405793 0.0009167385 -0.0016962739 0.0010399764 -0.0023021456 -0.00017193197 0.00032276948 0.00013966994
-0.00075417245 0.0007099229 0.0013555612 0.0019619293 5.9039332e-05 -0.00039780117 0.00024056665 0.0014769471
0.0013307307 -0.001739547 0.000778395 0.00079033343 0.0011643947 0.000728502 -0.0008415038 -0.00048312446
0.0012442935 0.0021867987 0.0013015993 -0.0020420495 -0.00035278208 -0.0017380189 -0.0011124923 0.00041105528
0.00092861475 -0.0010693595 -0.0004985701 -0.002362485 -0.00020950213 0.00055840594 -0.0022100562 0.00084461254
0.0019604282 0.0006840703 0.002174204 0.00038840374 -0.001522653 -0.0023030667 0.0028231097 0.0009299422
0.0006041707 -0.0017445574 -0.0003059781 0.00036964667 -0.00091971963 0.0016675232 -0.00017110021 0.0003195465
0.0016871474 0.008415766 0.0031324755 -0.008799878 0.0014849461 0.00043318135 -9.7272736e-05 -0.00026158843
0.0021557836 0.003118282 0.00065434386 0.00079758494 0.0027040748 -0.0013571351 -0.00019848869 -0.0021464543
-0.0008777543 -0.0020322267 -0.00019645794 9.964565e-05 0.001346585 -0.00243207 0.0018247446 0.00012786752
-0.0038574191 -0.00062229217 -0.00050639367 0.0013184575 0.0025671332 0.00089962897 0.0013993117 0.0013849897
0.0017369367 0.0014309905 0.0007033086 0.0033926826 0.00218007 0.001056207 -0.00032960105 -0.00012882682
00000000: 0fce 30ba 0fe5 9e3b 907d d1b9 e353 b33a
00000010: 2d1c cdba fa15 beb9 8b2f 4eba 86c6 6d39
00000020: e93c d6b9 6a8e ba39 bfd0 c739 adfa 083b
00000030: de83 933a 27a7 2a39 8131 383b fe15 113b
00000040: 0247 523a 9cba e3b9 4654 4b3a 415d c53a
00000050: 835f b93a 1c94 1939 0274 c73a 926b bfba
00000060: 3117 04ba 6bb6 fe39 8323 6a3a 30ac c0b9
00000070: c415 b539 8e88 bab9 237c 7cba 48bf 1bbb
00000080: 5266 8cb9 fbae 9b39 51ff 933a 8505 c0b9
00000090: 75d5 0ebb 58bb e33a 258b 16bb 1aa0 0038
000000a0: 5b6b df3a 885a 93bb 7f47 4f39 cb0d 1bba
000000b0: 2836 553a b9e8 87ba 086c 82ba 7a1f 9139
000000c0: 3dc6 8bb8 bd3d e8ba 3c8d c1ba 9c92 bd3a
000000d0: e17b e4ba c112 22bb 5cdb aeb9 e2c3 c1ba
000000e0: 5db8 f2b8 4665 583b 0842 c8ba 97ef bb3a
000000f0: 9119 3c3b be14 f9b8 abe4 2abb a742 07bb
00000100: 257c b43a 0bd8 873a a9fb d6b9 8855 343b
00000110: 0b73 2dbb fdd3 b839 5edc 623a 6af2 0e3b
00000120: d13d 9339 7c80 f6ba 9bd3 ed3a c070 ed3a
00000130: 6cbc fbba 4d0c afbc 3a0f 643b 9f89 5cb9
00000140: e23e a5b8 c294 50b7 8875 02bc e242 003b
00000150: adff d93a 6887 95bb cec1 24ba e4f9 b63a
00000160: 87ea fe3a ff7a beb9 ad2f 843a e79f c93a
00000170: 7f83 393a f8fd 173b d078 3cba 097c 8c3a
00000180: b017 3b39 13f9 493b e743 a3b7 c0e8 ee3a
00000190: de57 a7ba 0b7a b3ba e0e3 0f3a ef4e 5fba
000001a0: 7f82 9fba 5fb8 293b aa97 cbba 359f adba
000001b0: 55ef 25bb 94d8 9cba 0b57 70ba 305d 363a
000001c0: 44c2 f9b9 1f52 1d3b 02aa 4939 6ff1 fe3a
000001d0: 4238 193b eed0 143b b769 b736 847f 2e3b
000001e0: 447f 083a f918 ceba 905c 943a 84bf 51b9
000001f0: 47f9 c93a 9304 f039 76b9 b1ba 1c85 feba
00000200: 2015 1cb9 86cc c2ba b81c 3e39 99da c13b
00000210: 3419 4fb9 5a37 0d3a 95c1 4b39 b7c6 0fb9
00000220: 85e4 eaba b12e beba 7464 a6ba 92da cab9
00000230: 8929 84ba 1277 0dbb 7da4 c3ba 6cd9 ce39
00000240: 298f 19bb 1484 87ba d844 daba 4a22 a7b9
00000250: 3c91 4139 5661 e73a 049c 30b9 d59a ba3a
00000260: b4fc 2e3a 51a4 5fb8 cc19 083b b0e1 6939
00000270: 9163 86ba db0f a5ba 8823 213b 1e91 083b
00000280: 5283 3639 4851 703a 8255 deba d14f 883a
00000290: 98df 16bb a348 34b9 6339 a939 5d74 1239
000002a0: a8b3 45ba 1f1a 3a3a 16ad b13a b693 003b
000002b0: 00a1 7738 f88f d0b9 9e40 7c39 1f96 c13a
000002c0: ea6b ae3a 8301 e4ba 340d 4c3a 612e 4f3a
000002d0: 9a9e 983a f1f8 3e3a 5d98 5cba de4b fdb9
000002e0: 9017 a33a 6550 0f3b 6d9a aa3a e8d3 05bb
000002f0: 9cf5 b8b9 3dce e3ba 0cd1 91ba e882 d739
00000300: 486e 733a c029 8cba 79b2 02ba ecd3 1abb
00000310: cdad 5bb9 fd61 123a 97d6 10bb fd68 5d3a
00000320: 877a 003b 2e53 333a 177d 0e3b aba2 cb39
00000330: c293 c7ba 0cef 16bb ec03 393b 5dc7 733a
00000340: 3661 1e3a a2a9 e4ba af6b a0b9 23cd c139
00000350: 5719 71ba cb90 da3a 5d69 33b9 ce88 a739
00000360: 4623 dd3a 48e2 093c 384a 4d3b 5d2d 10bc
00000370: 86a2 c23a 9e1c e339 e7fe cbb8 ce25 89b9
00000380: 0c48 0d3b 175c 4c3b 4688 2b3a 0515 513a
00000390: d936 313b e6e1 b1ba 6721 50b9 87ab 0cbb
000003a0: 1819 66ba 1b2f 05bb 4700 4eb9 daf8 d038
000003b0: e57f b03a 5d63 1fbb 452c ef3a 2d14 0639
000003c0: c1cc 7cbb 5221 23ba 81bf 04ba 18d0 ac3a
000003d0: 593d 283b 14d5 6b3a 1c69 b73a 8b88 b53a
000003e0: eda9 e33a 1390 bb3a 3e5e 383a c557 5e3b
000003f0: 81df 0e3b 6d70 8a3a 4ece acb9 b015 07b9

exp_avg_sq f4 [3, 768]
5.962363e-05 0.00014111392 0.00023621586 0.00021839108 0.00021920897 0.00013660202 2.0145435e-05 0.0001092794
4.3184325e-05 9.766578e-05 7.8729e-05 0.00017909374 7.984091e-05 6.615213e-05 7.0796064e-05 0.00016628447
0.00013283547 5.2502608e-05 7.223467e-05 7.5732285e-05 4.025262e-05 9.740607e-05 7.331158e-05 7.071599e-05
7.539195e-05 8.7001485e-05 5.9047077e-05 5.4023312e-05 6.1444196e-05 0.00011631899 3.4768083e-05 0.00012248702
3.2052758e-05 4.2243868e-05 8.788145e-05 5.3304742e-05 5.5804416e-05 5.3256623e-05 0.0002665797 0.00011738764
0.00014411895 0.0003955062 5.5751323e-05 3.1269352e-05 8.596833e-05 6.231539e-05 4.9411447e-05 8.1202335e-05
2.7797963e-05 5.9540464e-05 5.4638796e-05 6.131585e-05 4.7836398e-05 4.3617692e-05 3.907304e-05 0.00011079339
2.9544326e-05 0.00028833986 3.2802094e-05 3.8890223e-05 6.848317e-05 0.0003871124 6.241476e-05 4.973157e-05
4.3264223e-05 4.920775e-05 3.2288797e-05 8.383665e-05 2.9202745e-05 3.7361588e-05 0.00012120747 8.94564e-05
2.9039831e-05 0.0002025323 6.298319e-05 0.00018406298 0.00011977501 0.017465262 0.0001230036 0.00030491356
3.1944805e-05 5.114e-05 0.005488172 9.600017e-05 6.0546525e-05 0.0005356064 6.309182e-05 9.932129e-05
4.280686e-05 2.8261013e-05 0.000115303556 6.50782e-05 4.582257e-05 0.00015974975 4.1879517e-05 0.000110158624
3.3192584e-05 0.00080722914 4.650893e-05 9.131473e-05 0.0001360718 4.406364e-05 0.00018895377 7.637347e-05
3.8957343e-05 9.9048324e-05 0.00034408088 9.304139e-05 4.6286383e-05 2.9001361e-05 3.9260565e-05 0.00026823775
0.0001892504 9.8847624e-05 3.137453e-05 0.00010474339 5.896115e-05 6.518882e-05 4.3786793e-05 9.956573e-05
3.4630564e-05 5.612218e-05 0.00027629646 4.7239304e-05 0.00023364637 6.932559e-05 4.3890002e-05 7.369747e-05
6.0902676e-05 5.2585605e-05 1.4817357e-05 0.00043748735 2.795677e-05 6.285409e-05 5.27748e-05 0.00014074969
5.3899443e-05 5.89807e-05 9.655667e-05 0.000108831955 7.577592e-05 0.00015787935 5.17012e-05 2.8424784e-05
0.00010388495 5.5868575e-05 5.5678825e-05 4.0084273e-05 3.512634e-05 8.22366e-05 4.0834133e-05 0.00010592104
6.862146e-05 4.8382684e-05 0.00014859124 0.0004386753 6.557673e-05 0.00010762888 6.199972e-05 6.9196714e-05
5.0791346e-05 0.00026503473 0.00020529139 9.0693065e-05 3.7420916e-05 0.000110363275 9.728906e-05 7.079959e-05
3.2124717e-05 0.000108443215 9.788932e-05 3.398963e-05 6.1703664e-05 2.2414453e-05 0.00011903203 6.482722e-05
5.936332e-05 5.6776484e-05 3.5137233e-05 3.889019e-05 5.0921397e-05 3.554782e-05 6.724497e-05 4.8333182e-05
8.750327e-05 0.00020238677 5.101943e-05 0.00015170775 0.00016097461 7.7539604e-05 7.6488475e-05 6.452205e-05
2.814483e-05 8.412757e-05 0.00013308438 5.392344e-05 4.1765983e-05 8.432352e-05 0.000100798934 2.6759295e-05
0.00011172567 3.2523858e-05 0.00016582732 5.0871113e-05 8.727989e-05 8.890968e-05 6.932632e-05 2.226609e-05
3.46243e-05 8.514224e-05 7.25585e-05 8.909336e-05 0.0001498287 0.00019153745 3.143413e-05 5.3852982e-05
0.00016335711 0.0024817581 0.00010869397 0.0021379688 5.873968e-05 3.49655e-05 4.4621727e-05 0.00022602556
0.00016656115 0.00011106435 0.0001092688 2.5392801e-05 0.00018394183 9.135787e-05 8.946513e-05 8.529251e-05
9.889772e-05 0.00021892524 0.000114930954 5.8686033e-05 3.455735e-05 5.332694e-05 0.00011646566 3.7110676e-05
0.000198757 2.134818e-05 4.03564e-05 0.00013704777 9.936409e-05 0.00015025078 6.773551e-05 0.00029171476
6.156687e-05 5.1365314e-05 0.00011352159 0.00013891704 7.6400356e-05 9.433744e-05 5.921614e-05 8.9921916e-05
00000000: 6314 7a38 fbf7 1339 b6b0 7739 e9ff 6439
00000010: 76db 6539 d33c 0f39 fefd a837 ee2c e538
00000020: d120 3538 ebd1 cc38 4f1b a538 1ccb 3b39
00000030: 4370 a738 28bb 8a38 5978 9438 a65c 2e39
00000040: c049 0b39 3f36 5c38 b17c 9738 76d2 9e38
00000050: ecd4 2838 7c46 cc38 dbbe 9938 5c4d 9438
00000060: bf1b 9e38 9174 b638 51a9 7738 1797 6238
00000070: 9adb 8038 48f0 f338 f2d3 1138 dc6f 0039
00000080: 6370 0638 022f 3138 ff4c b838 8893 5f38
00000090: 890f 6a38 dd5f 5f38 b9c3 8b39 022e f638
000000a0: a31e 1739 f25b cf39 87d6 6938 3627 0338
000000b0: e549 b438 52af 8238 233f 4f38 2c4b aa38
000000c0: ac2f e937 16bb 7938 f62b 6538 b296 8038
000000d0: f1a3 4838 24f2 3638 5be2 2338 c059 e838
000000e0: f5d5 f737 522c 9739 fb94 0938 0f1e 2338
000000f0: 9f9e 8f38 59f5 ca39 abe4 8238 de96 5038
00000100: 9b76 3538 6b64 4e38 d56d 0738 75d1 af38
00000110: 6bf8 f437 b3b4 1c38 c430 fe38 8a9a bb38
00000120: 909a f337 da5e 5439 d815 8438 0801 4139
00000130: b82f fb38 4f13 8f3c 87fa 0039 cedc 9f39
00000140: 79fc 0538 287f 5638 20d6 b33b b353 c938
00000150: 56f3 7d38 f067 0c3a 2a50 8438 b64a d038
00000160: 848b 3338 1012 ed37 20cf f138 987a 8838
00000170: 9c31 4038 7f82 2739 caa7 2f38 f604 e738
00000180: 4438 0b38 3b9c 533a 9512 4338 3980 bf38
00000190: 7fae 0e39 f9d0 3838 e421 4639 b22a a038
000001a0: 2166 2338 2ab8 cf38 c165 b439 371f c338
000001b0: a023 4238 f347 f337 b6ab 2438 43a2 8c39
000001c0: 8471 4639 6a4c cf38 2598 0338 aea9 db38
000001d0: 0e4d 7738 fbb5 8838 b6a7 3738 f2cd d038
000001e0: 4940 1138 bb64 6b38 e2db 9039 d122 4638
000001f0: f8fe 7439 e562 9138 8816 3838 078e 9a38
00000200: c071 7f38 5d8f 5c38 1098 7837 8f5e e539
00000210: b584 ea37 88d0 8338 835a 5d38 3596 1339
00000220: 1612 6238 0b62 7738 787e ca38 b63c e438
00000230: e3e9 9e38 6a8c 2539 bed9 5838 c271 ee37
00000240: cfdc d938 6d54 6a38 af88 6938 2920 2838
00000250: 9f54 1338 7076 ac38 5145 2b38 ed21 de38
00000260: dee8 8f38 83ee 4a38 28cf 1b39 01fe e539
00000270: 3d86 8938 d1b6 e138 d905 8238 b41d 9138
00000280: cb08 5538 5cf4 8a39 7d43 5739 7832 be38
00000290: 67f4 1c38 d572 e738 ab07 cc38 3e7a 9438
000002a0: a7bd 0638 026c e338 ee49 cd38 1690 0e38
000002b0: e766 8138 ac06 bc37 d6a0 f938 d9f3 8738
000002c0: e1fc 7838 4923 6e38 5160 1338 061e 2338
000002d0: 6f94 5538 2e19 1538 de05 8d38 5cb9 4a38
000002e0: f681 b738 c937 5439 b2fd 5538 bd13 1f39
000002f0: 4bcb 2839 c29c a238 7068 a038 0350 8738
00000300: 9018 ec37 a56d b038 918c 0b39 da2b 6238
00000310: e22d 2f38 d8d6 b038 0464 d338 2679 e037
00000320: 434e ea38 3a6a 0838 efe1 2d39 715e 5538
00000330: 090a b738 0575 ba38 4963 9138 10c8 ba37
00000340: 8f39 1138 648e b238 8c2a 9838 a2d7 ba38
00000350: 561b 1d39 71d7 4839 24d8 0338 33e0 6138
00000360: d74a 2b39 fea4 223b a1f2 e338 2a1d 0c3b
00000370: 405f 7638 eba7 1238 3728 3b38 4601 6d39
00000380: eba6 2e39 38eb e838 3e27 e538 a002 d537
00000390: 82e0 4039 6297 bf38 3a9f bb38 11df b238
000003a0: 4f67 cf38 4c8f 6539 1607 f138 a625 7638
000003b0: acf1 1038 5eab 5f38 063f f438 49a7 1b38
000003c0: 6d69 5039 de14 b337 5b44 2938 7bb4 0f39
000003d0: b161 d038 a38c 1d39 3a0d 8e38 4bf1 9839
000003e0: 761d 8138 1671 5738 7112 ee38 42aa 1139
000003f0: 2139 a038 07d7 c538 d95e 7838 7694 bc38

exp_avg f4 [3]
0.0025375863 -0.0024927258 -4.4853892e-05
00000000: a24d 263b 005d 23bb 8021 3cb8

exp_avg_sq f4 [3]
0.00058527954 0.00058423186 4.1909984e-06
00000000: 726d 193a 2327 193a 67a0 8c36
