2024:05:01_ckpts/relational/Linear/lr_0.001_epoch_100/9.pth (torch, 30291 bytes, 6 tensors)

linear.weight f4 [3, 768]
0	0xbd7c375c	-0.061576232
1	0x3dbd1250	0.092320085
2	0x3c3f6d52	0.011683779
3	0x3d280497	0.041020002
4	0x3d420c97	0.047375288
5	0x3e26272c	0.1622588
6	0x3e5059f3	0.20346813
7	0x3e5546f3	0.20827846
8	0xbe8ab0fe	-0.2708816
9	0xbeb346e3	-0.3501502
10	0xbd3b5477	-0.04573485
11	0x3e1c3052	0.15252808
12	0x3dff1c00	0.124565125
13	0xbc8c77e8	-0.01714702
14	0xbeb7e6d4	-0.35918295
15	0x3d8dd7d0	0.069259286
16	0xbe1c3c20	-0.15257311
17	0x3e2e2da9	0.17009605
18	0xbe41aaf2	-0.18912867
19	0xbd3d11e6	-0.046159647
20	0x3c8c0e0b	0.01709654
21	0x3e044d24	0.12920052
22	0xbe99edcd	-0.3006424
23	0xbd07d6ac	-0.03316371
24	0x3df46765	0.119337834
25	0x3de86547	0.11347442
26	0x3e33809c	0.1752953
27	0xbdd40d80	-0.103541374
28	0x3ec29cb7	0.3801019
29	0x3ea9ea56	0.33186597
30	0x3e05aca8	0.13054144
31	0x3d7538ca	0.05986861
32	0xbdf4a960	-0.11946368
33	0xbe4d8582	-0.2007046
34	0x3c2196ca	0.009862611
35	0x3e3e9211	0.18610407
36	0x3d21b3b6	0.039478026
37	0x3c4a3336	0.012341311
38	0xbdef2c45	-0.116783656
39	0xbe278beb	-0.16361968
40	0x3ded04fc	0.11573216
41	0x3e42035f	0.18946598
42	0xbd99c76a	-0.07508738
43	0x3e4d6fe3	0.20062213
44	0x3e56588e	0.20932218
45	0xbe00a20b	-0.12561814
46	0xbe9ef6c1	-0.31047633
47	0x3ece9287	0.40346166
48	0xbe9aa058	-0.30200458
49	0x3e823499	0.25430754
50	0xbe38761c	-0.18013805
51	0xbe3c0e1a	-0.18364754
52	0xbe37daf7	-0.17954622
53	0xbc013b23	-0.007887634
54	0x3e8b02f2	0.27150685
55	0x3d25b6c3	0.0404575
56	0xb9046b93	-0.00012628575
57	0x3db54d9e	0.08852695
58	0xbe42c6b1	-0.19021107
59	0xbe03a204	-0.12854773
60	0xbdbd252e	-0.09235607
61	0x3d2ab916	0.041680418
62	0xbd2a9f9a	-0.041656114
63	0xbe3a3975	-0.1818598
64	0xbcaaf6b9	-0.0208696
65	0xbd80e26e	-0.06293188
66	0xbda51ba2	-0.08061911
67	0x3e1a62d6	0.15076765
68	0x3e82066c	0.25395525
69	0x3dd55fcd	0.10418663
70	0x3d8bc079	0.068238206
71	0x3d8d51d4	0.06900373
72	0x3e87ff92	0.26562172
73	0x3d46167b	0.048361283
74	0x3f158856	0.5841116
75	0x3e438e12	0.19097164
76	0x3ddf7143	0.10910275
77	0x3d34fbbe	0.044185393
78	0xbddacae1	-0.10683227
79	0xbe0e9d2d	-0.13927145
80	0x3de72682	0.11286642
81	0xbdb7b001	-0.08969117
82	0xbcfb1030	-0.030647367
83	0x3da806dc	0.08204433
84	0xbe16d605	-0.1473008
85	0x3da198f3	0.07890501
86	0xbebedac3	-0.37276277
87	0xbd8b1b38	-0.06792301
88	0xbdd82d70	-0.105555415
89	0xbe3d9e3a	-0.1851739
90	0xbe1f399c	-0.1554932
91	0x3d581a32	0.052759357
92	0xbed24ff9	-0.4107664
93	0xbb9c84cc	-0.004776573
94	0x3e76b494	0.24092323
95	0x3f32a4b0	0.69782543
96	0x3e52f6d0	0.20601964
97	0x3dbc4c09	0.0919419
98	0xbf092a39	-0.5358005
99	0x3d5139ad	0.051080395
100	0x3e4caa69	0.19986881
101	0x3e667af7	0.22507845
102	0xbc2e7f7e	-0.010650514
103	0xbce91a42	-0.028454904
104	0xbd7e363d	-0.062063444
105	0xbe4f9e18	-0.20275152
106	0xbd097ea0	-0.033568025
107	0xbe052b28	-0.13004744
108	0x3ecbcc9f	0.3980455
109	0x3e97cff0	0.2965083
110	0xbdcc6e9e	-0.09982036
111	0xbe23ffab	-0.16015498
112	0x3e14bfad	0.14526244
113	0xbb19e6e0	-0.002348356
114	0xbdc10a92	-0.09425844
115	0xbd4e3f4b	-0.05035333
116	0x3db8b91a	0.0901968
117	0x3d413296	0.047167383
118	0x3d2398d3	0.039940666
119	0x3d89cdef	0.06728732
120	0xbe8cdecd	-0.27513734
121	0xbe059d9a	-0.13048401
122	0xbd7bd3f4	-0.06148143
123	0xbf296bd9	-0.6618019
124	0xbdeae533	-0.114694975
125	0xbdec02f4	-0.11524001
126	0x3e516341	0.20448019
127	0xbf13053e	-0.57429874
128	0xbf4ad164	-0.79225755
129	0x3e1dcf28	0.15411055
130	0xbec0c9bc	-0.3765391
131	0x3d63ee4a	0.055647172
132	0x3db08a43	0.08620121
133	0xbddf3359	-0.10898466
134	0xbe6ea7b5	-0.23306163
135	0x3e555003	0.20831303
136	0x3c3f3d90	0.0116723925
137	0xbe4b8e9d	-0.19878621
138	0x3d7bc161	0.061463717
139	0x3dfe2123	0.12408664
140	0xbbe37400	-0.0069413185
141	0x3e715e2d	0.23571081
142	0x3e4569d6	0.19278654
143	0xbe3a4a80	-0.18192482
144	0x3e09b4f7	0.13447939
145	0xbc27dc82	-0.010245444
146	0xbba67d68	-0.0050808676
147	0xbd95b4f9	-0.073099084
148	0xbd4f6661	-0.050634746
149	0x3e9d7e98	0.30760646
150	0x3dc01357	0.09378689
151	0xbd2f64c1	-0.042820696
152	0xbe355fa0	-0.1771226
153	0x3ec80f48	0.3907416
154	0xbbc0eab6	-0.0058873547
155	0xbe8f38a2	-0.27972895
156	0xbe263883	-0.16232495
157	0xbec21ba5	-0.37911716
158	0x3e254da9	0.16142906
159	0xbe3cce98	-0.18438184
160	0x3e82a3a8	0.25515485
161	0x3e1b3dd5	0.15160306
162	0xbb8bf588	-0.004271213
163	0x3eac961a	0.33708268
164	0xbd0b35e1	-0.03398693
165	0x3e10287e	0.14077947
166	0xbe8c86b7	-0.2744653
167	0x3e638deb	0.22222106
168	0xbe853209	-0.26014736
169	0x3e865341	0.26235393
170	0x3e30816d	0.17236872
171	0x3f02a01f	0.51025575
172	0x3f46804a	0.77539504
173	0x3d3b5b66	0.04574146
174	0xbe23cb40	-0.15995502
175	0x3d9f285b	0.07771369
176	0xbeb2ce0c	-0.34922826
177	0x3cbf270b	0.023334047
178	0x3e8e35bb	0.27775368
179	0xbbfaf5f3	-0.007658714
180	0xbe3d5754	-0.18490344
181	0x3db45b33	0.08806457
182	0xbd77e722	-0.06052316
183	0xbee8986d	-0.45428792
184	0xbe93ea48	-0.2888968
185	0xbca77925	-0.020443508
186	0xbdb0bec7	-0.08630138
187	0x3e9ac1fd	0.30226126
188	0x3d22a73c	0.03971027
189	0x3cd38de2	0.025824491
190	0xbe69b7a1	-0.22823955
191	0xbe87f218	-0.2655189
192	0x3ebb4102	0.36573035
193	0x3e6d80af	0.2319362
194	0x3e77202b	0.24133365
195	0x3e73e6eb	0.23818557
196	0x3e115e52	0.14196137
197	0x3ddf25f0	0.10895908
198	0xbe7004d5	-0.23439343
199	0xbe7c00c9	-0.24609675
200	0x3d8e96f3	0.06962385
201	0x3df254f4	0.1183261
202	0xbec03400	-0.37539673
203	0xbeb0a4b7	-0.34500667
204	0x3d7b467f	0.061346527
205	0x3ccd3fbd	0.025054807
206	0x3d19357b	0.03740452
207	0x3e8f82c5	0.28029457
208	0x3e088b8c	0.13334483
209	0xbe23e6e7	-0.16006051
210	0xbd6434a9	-0.055714283
211	0x3e13be01	0.1442795
212	0xbd66ab01	-0.056315426
213	0x3e0aa81f	0.13540696
214	0xbe7fd37e	-0.24983022
215	0x3d7f38b1	0.062309925
216	0xbe6a8e11	-0.22905757
217	0x3da4e3d2	0.08051266
218	0xbd6c2130	-0.057648838
219	0x3cd4ddba	0.025984634
220	0x3ebfecd7	0.37485382
221	0xbdb6e1aa	-0.08929761
222	0xbd8a4ad4	-0.067525536
223	0x3eb89939	0.360544
224	0x3dcc9796	0.0998985
225	0xbe91646b	-0.28396925
226	0x3d503fcf	0.050842103
227	0x3e9e8a66	0.30964965
228	0x3e9b060e	0.30278057
229	0x3e04099d	0.12894292
230	0x3e485694	0.19564277
231	0xbe862418	-0.26199412
232	0xbd3e0504	-0.046391502
233	0xbdc7c4d5	-0.097543396
234	0x3e135ff2	0.14392069
235	0xbd96d307	-0.07364469
236	0xbe10d398	-0.14143217
237	0xbe91af32	-0.28453976
238	0x3da0a29b	0.078435145
239	0xbe4452bf	-0.1917219
240	0xbe1d25a8	-0.15346396
241	0x3d9a301f	0.075287096
242	0xbdbcc54e	-0.092173204
243	0x3b99bf0b	0.0046919635
244	0x3e00351b	0.12520258
245	0xbe312b8d	-0.1730177
246	0xbdd53f31	-0.104124434
247	0x3de88b2b	0.11354669
248	0x3e9c0d1a	0.30478746
249	0x3d58ed2b	0.052960556
250	0x3bfa0d6e	0.0076309955
251	0xbea0e09b	-0.3142136
252	0xbd93ce32	-0.07217063
253	0xbe471dbb	-0.19444935
254	0x3ebc41f7	0.36769077
255	0x3e146a6a	0.14493719

linear.bias f4 [3]
0	0x3cdbd337	0.026834114
1	0x3d40198b	0.04689936
2	0xbcf8b720	-0.030360758

exp_avg f4 [3, 768]
0	0xba20ce7d	-0.0006134285
1	0x394b239c	0.00019372854
2	0xba706de2	-0.0009171647
3	0x3b3aec40	0.0028522164
4	0x395d4dbd	0.00021105162
5	0xbbe01379	-0.006838259
6	0xba040cae	-0.000503729
7	0x3b4f463c	0.0031627556
8	0xbad25c6d	-0.0016049274
9	0x3b2cec1e	0.0026385854
10	0xbbbc40e3	-0.00574504
11	0x3b4319af	0.0029769947
12	0x3c0354e2	0.008015843
13	0xbb35024b	-0.0027619775
14	0x3bdedf00	0.006801486
15	0x3ad9298f	0.0016568172
16	0x3b0b1e95	0.0021227945
17	0x3a1a306d	0.000588185
18	0xbab87aa7	-0.0014074639
19	0x3b8ee3e8	0.0043606646
20	0x3b3ae923	0.0028520308
21	0x3b3067ae	0.0026917267
22	0x3a07ff51	0.00051878864
23	0xbb90b974	-0.004416639
24	0xbab5620f	-0.0013838428
25	0xbb1ebc69	-0.0024221188
26	0xbb69fe6e	-0.003570463
27	0x3b971658	0.004610818
28	0xbb309d3f	-0.0026949195
29	0x3a0a28d7	0.0005270368
30	0xbaa2672c	-0.0012390367
31	0xbb886e54	-0.0041635428
32	0x3b543c87	0.003238471
33	0x3ab8ed2c	0.0014108769
34	0x3ad49197	0.0016217706
35	0xbae1e7a3	-0.0017235171
36	0xbb128502	-0.002235711
37	0x3bee1555	0.0072657266
38	0xbb83a976	-0.004018004
39	0x3a8dab17	0.0010808435
40	0xbaa91c22	-0.0012902061
41	0xbc2fa7c5	-0.010721152
42	0x3b5446dc	0.0032390868
43	0xb803186a	-3.125557e-05
44	0xbb303ccc	-0.0026891707
45	0xbb0ec2f9	-0.0021783693
46	0xbb7ec77b	-0.0038876224
47	0x399f7a1b	0.0003041782
48	0xbb77a0b8	-0.0037785005
49	0xb9dbfc7d	-0.00041959053
50	0x3af373ec	0.0018573976
51	0x3a655d88	0.0008749594
52	0x3b045b1f	0.0020195914
53	0x3b7c72e2	0.0038520624
54	0xbb2b40e5	-0.002613121
55	0xb9d57f1f	-0.00040721238
56	0x3a6fde19	0.00091502216
57	0x3b343dcf	0.002750266
58	0x3ad747a1	0.0016424545
59	0xba69e82b	-0.00089228404
60	0xb9359215	-0.00017315925
61	0xbb6e9d4d	-0.0036409677
62	0xbb3c54ba	-0.0028737024
63	0x3a635268	0.0008671642
64	0x3b5edbe9	0.0034005588
65	0xba14eae4	-0.00056807534
66	0xbac926fb	-0.00153467
67	0x3afcd85f	0.0019290558
68	0x3b1e35dd	0.0024140992
69	0x3b4ca936	0.0031228787
70	0x3b50757b	0.0031808305
71	0x3bcea70e	0.0063065356
72	0xb80935f1	-3.2713582e-05
73	0xbb0ccbba	-0.0021483735
74	0xbabbd959	-0.0014331742
75	0x3b59dcd7	0.0033243203
76	0xbba3ddc9	-0.005000804
77	0xbd26ac2d	-0.040691543
78	0xbb01e29a	-0.0019818903
79	0xbbbbf670	-0.0057361647
80	0x3b723718	0.0036959108
81	0xbbd0421a	-0.006355536
82	0xbcc5e598	-0.02415733
83	0xbb1307ff	-0.0022435186
84	0xbba9cd3d	-0.005181937
85	0xbaa0063a	-0.0012208887
86	0xbb909c41	-0.004413158
87	0xbb63a2e5	-0.0034734544
88	0x3afd9c6e	0.0019348988
89	0x3a73b842	0.0009297171
90	0x3b4c9411	0.0031216184
91	0x386df137	5.6729852e-05
92	0x3a90f91b	0.0011060567
93	0x3b65ca36	0.0035063154
94	0xbb1fb278	-0.002436785
95	0xbb5b5054	-0.0033464627
96	0x3bc512de	0.006014212
97	0x3bf57e8d	0.0074918927
98	0x3b219c64	0.0024659866
99	0xbb0aa51b	-0.002115554
100	0xbbb0c172	-0.005394154
101	0x3ae147f0	0.0017187577
102	0xbbaabc11	-0.0052104075
103	0x3903caf6	0.00012568742
104	0x3a15d2d1	0.0005715313
105	0x3b6c2c53	0.0036037161
106	0xbbfa0bcd	-0.0076308013
107	0x3b451f19	0.003007835
108	0xbaf5627e	-0.001872137
109	0xbadc04c6	-0.001678609
110	0xbc0e112b	-0.008671085
111	0x3c09c388	0.008408435
112	0xb806cbf5	-3.213804e-05
113	0x3b472606	0.0030387654
114	0xbb0a72b3	-0.0021125495
115	0xb9d74494	-0.0004105909
116	0x3bddf08b	0.0067730597
117	0x3bdbe88a	0.0067110704
118	0x3b50666a	0.0031799325
119	0x3ae98d41	0.0017818586
120	0xbb3aa5f5	-0.0028480266
121	0xbb8bc7aa	-0.004265745
122	0xbb318e9c	-0.0027093058
123	0xbaf856f6	-0.0018946815
124	0x3abb9527	0.0014311419
125	0xbb350d8a	-0.0027626478
126	0x39e630fb	0.00043905512
127	0x3ba81bb6	0.0051302565
128	0xbb10a57e	-0.0022071297
129	0xba4562d3	-0.00075296796
130	0xba9f7d73	-0.0012168124
131	0x3c4516e7	0.012029386
132	0xba4ebfad	-0.0007886838
133	0xba07dcee	-0.00051827624
134	0xbb120ee6	-0.0022286712
135	0xbbb8900d	-0.0056324066
136	0x3b06d504	0.0020573745
137	0xbba5120c	-0.0050375517
138	0xbb298365	-0.002586567
139	0xb8dd23a7	-0.00010544742
140	0xbb1bbbd6	-0.0023763082
141	0xba74f1c0	-0.0009343885
142	0xb9a107ca	-0.00030714116
143	0xbae743d8	-0.001764412
144	0xbb367ddb	-0.0027846012
145	0xb9fdc360	-0.00048401486
146	0x3bde9aed	0.006793371
147	0x3bb8f753	0.0056447177
148	0xbac017da	-0.0014655546
149	0xbbbbcce9	-0.0057312143
150	0x3b1a4214	0.002353792
151	0x3b9e8bc3	0.0048384382
152	0x398c7dee	0.00026796706
153	0xba2e7852	-0.00066555024
154	0x3bbd3ac4	0.0057748277
155	0xb9afaee2	-0.000335089
156	0x3aff98a2	0.0019500444
157	0xbaf1a2c6	-0.0018435351
158	0x3b27d683	0.0025610037
159	0xbb26acb2	-0.0025432524
160	0x3aad1892	0.0013206175
161	0x3ba16cab	0.0049262843
162	0xbae7df28	-0.0017690407
163	0x3ad1ad43	0.0015997071
164	0x3b3bbe43	0.002864734
165	0xbbb2c95a	-0.005456132
166	0x3bcef225	0.006315487
167	0xbaae86cc	-0.0013315319
168	0xbb3c0676	-0.0028690374
169	0x3b95cda1	0.004571632
170	0x3b544517	0.0032389814
171	0x3b75c6a4	0.0037502432
172	0x39a5c5c1	0.0003161859
173	0x3ab39a87	0.0013702669
174	0xba962f20	-0.0011458136
175	0x3b28ff2e	0.0025786865
176	0x3a8c90b5	0.0010724278
177	0xbb678425	-0.0035326567
178	0xbba1c23b	-0.004936484
179	0x3b9875cb	0.004652714
180	0x39e3ac90	0.00043425383
181	0xb9daddda	-0.00041745492
182	0x3b029691	0.001992617
183	0xbad84a48	-0.001650163
184	0x39e8cdad	0.0004440373
185	0x3be464d9	0.00697003
186	0x3b00aa16	0.001963263
187	0x3b24cb57	0.0025145614
188	0xbb6db827	-0.0036273093
189	0x3a58a79d	0.00082647224
190	0xbad8b9c5	-0.0016534856
191	0x3b8c2a8c	0.004277533
192	0x3ab6fb81	0.0013960452
193	0xbb51f1c9	-0.0032034984
194	0xbc2a71d8	-0.010403119
195	0xbae726e0	-0.0017635487
196	0x3a63457e	0.0008669718
197	0x3bb019df	0.005374178
198	0xbb9864d8	-0.0046506934
199	0xbacbb60f	-0.0015541929
200	0x3b7d402e	0.003864299
201	0x3b22427f	0.0024758873
202	0xbb2dde10	-0.0026530065
203	0x3a960fda	0.0011448816
204	0x3a6dff01	0.0009078831
205	0xbb06eed8	-0.002058914
206	0x3ab4f06d	0.0013804563
207	0xbaf0dca1	-0.0018376299
208	0x3b10b872	0.0022082594
209	0xbb1d483f	-0.002399936
210	0x3b6fdeb0	0.0036601238
211	0x3a596bf3	0.0008293979
212	0xbbe63042	-0.0070247957
213	0x3be1282d	0.0068712444
214	0x3adb2e10	0.0016722102
215	0x3bb32f73	0.005468303
216	0x3b0c2af4	0.0021387907
217	0xbb6ef2af	-0.0036460569
218	0x3bb7bcb3	0.0056072115
219	0xbbf20c39	-0.007386711
220	0xb88c7fc8	-6.699521e-05
221	0xb9ddbbb8	-0.00042292266
222	0xba96788a	-0.0011480015
223	0xbb930ccf	-0.004487611
224	0x3b7dfb4c	0.003875452
225	0x3c47da4e	0.012198044
226	0x3a7011fe	0.00091579545
227	0x3b21f4e5	0.002471262
228	0x3b3ce8bf	0.002882525
229	0xbb96fc58	-0.0046077184
230	0x3ba6554d	0.0050760866
231	0xbb3b66bb	-0.0028595168
232	0xbb152be7	-0.0022761764
233	0xbbb4eeac	-0.005521616
234	0x3ae2718f	0.0017276275
235	0xbbdc6e69	-0.006727029
236	0x39c80a8c	0.0003815483
237	0xbb125484	-0.0022328207
238	0x3bfc4e23	0.0076997443
239	0x3bc0a688	0.005879227
240	0xbbb4bc9b	-0.0055156476
241	0x39a213d9	0.00030913836
242	0x3b253c91	0.0025213102
243	0x3aa98a1b	0.0012934835
244	0x3bbe3ee2	0.005805836
245	0xbade58fe	-0.0016963778
246	0x3ac66089	0.0015134971
247	0x3bd1839e	0.006393864
248	0x3a363f6b	0.0006952199
249	0x3a5d5283	0.0008442776
250	0x3a99c9d7	0.0011733127
251	0x3baa5832	0.005198502
252	0x3baab14e	0.0052091246
253	0x3b013e7b	0.001972108
254	0x3a33ae91	0.00068543205
255	0xbb5f9ec2	-0.0034121727

exp_avg_sq f4 [3, 768]
0	0x38311300	4.2217784e-05
1	0x38a2bf4c	7.760394e-05
2	0x399b052d	0.0002956776
3	0x398f4baf	0.00027331474
4	0x399e2f23	0.00030171228
5	0x39474832	0.00019005014
6	0x3819e759	3.6693502e-05
7	0x3914dfc2	0.00014197736
8	0x383b404f	4.4644166e-05
9	0x38aad765	8.146352e-05
10	0x391ea27c	0.00015128584
11	0x3938efff	0.00017637013
12	0x389b1e7b	7.3966534e-05
13	0x38c2d628	9.2905306e-05
14	0x38c237c4	9.261028e-05
15	0x3916340a	0.00014324501
16	0x3932bb2e	0.00017045133
17	0x3870f46a	5.7448087e-05
18	0x38b11d3b	8.445462e-05
19	0x3880ddbf	6.144819e-05
20	0x38b74928	8.7397464e-05
21	0x3914246c	0.00014127948
22	0x38cd967c	9.803192e-05
23	0x38d88f3c	0.00010326362
24	0x38af9c99	8.373819e-05
25	0x38bbeb07	8.960632e-05
26	0x385a8d00	5.2106567e-05
27	0x38a656da	7.931674e-05
28	0x38db5515	0.000104585815
29	0x3889361c	6.542748e-05
30	0x38544bfc	5.0615505e-05
31	0x3981d0ee	0.00024760462
32	0x38833e7e	6.258207e-05
33	0x382b157b	4.0789582e-05
34	0x38a1dcee	7.7182296e-05
35	0x3818d46b	3.6437454e-05
36	0x383f270c	4.5574314e-05
37	0x38d66082	0.00010222291
38	0x3910502c	0.00013762777
39	0x384ebce4	4.9290145e-05
40	0x38e35724	0.00010840435
41	0x39ae9a67	0.00033302905
42	0x389b7c87	7.414171e-05
43	0x3848c35c	4.786566e-05
44	0x390e4751	0.00013568743
45	0x37ffb833	3.0484143e-05
46	0x3870a844	5.737717e-05
47	0x3877064e	5.889526e-05
48	0x381e8f7c	3.7803766e-05
49	0x387346d5	5.8001682e-05
50	0x38340a7f	4.292512e-05
51	0x380252a8	3.1071395e-05
52	0x3806b644	3.2117838e-05
53	0x384b59a6	4.8482463e-05
54	0x385db06a	5.2854804e-05
55	0x38a7812a	7.987239e-05
56	0x38177dde	3.611843e-05
57	0x397606da	0.0002346294
58	0x38d264f7	0.000100323865
59	0x383405a1	4.2920587e-05
60	0x387f7218	6.0902996e-05
61	0x392144d0	0.00015379791
62	0x3894946a	7.084834e-05
63	0x382314e6	3.888169e-05
64	0x385da12e	5.2840616e-05
65	0x38cfe9b1	9.9140576e-05
66	0x38884e3a	6.499556e-05
67	0x3910bf00	0.00013804063
68	0x387fab7c	6.0956445e-05
69	0x388d0368	6.7240384e-05
70	0x394bced1	0.00019436634
71	0x389ea779	7.565221e-05
72	0x37e1205a	2.6837155e-05
73	0x3967d0b1	0.0002210762
74	0x38842e10	6.30283e-05
75	0x39188a19	0.00014547295
76	0x391b94ba	0.00014837357
77	0x3c396104	0.011314634
78	0x38bea3b5	9.090399e-05
79	0x398dfb24	0.0002708073
80	0x38bf53d1	9.123202e-05
81	0x39056e95	0.00012725063
82	0x3b83fd70	0.004028015
83	0x392a00ec	0.00016212807
84	0x38a37d5a	7.795794e-05
85	0x3a0e4b89	0.0005428126
86	0x38650eb5	5.461155e-05
87	0x38f260b0	0.00011557469
88	0x38e8fbca	0.000111095214
89	0x3817a11a	3.6151243e-05
90	0x392910c5	0.00016123343
91	0x389d1e64	7.492004e-05
92	0x389f663f	7.6007556e-05
93	0x3979aeb8	0.00023811578
94	0x3834971a	4.305607e-05
95	0x3898ecf1	7.2920586e-05
96	0x3846d4fc	4.7405236e-05
97	0x39d7a870	0.0004113349
98	0x3819e7a7	3.6693786e-05
99	0x3892eb19	7.005613e-05
100	0x3900f26d	0.00012297342
101	0x389b4a74	7.404844e-05
102	0x3951272f	0.0001994639
103	0x392943d2	0.00016142361
104	0x3866d938	5.5038574e-05
105	0x3898205d	7.253953e-05
106	0x39bbc4f6	0.00035814167
107	0x39127b2f	0.00013969534
108	0x38686cdb	5.541449e-05
109	0x385b043b	5.221761e-05
110	0x38a86628	8.029892e-05
111	0x39ca74c1	0.0003861543
112	0x3918b287	0.00014562356
113	0x38695799	5.563311e-05
114	0x38832843	6.254066e-05
115	0x38fe80fa	0.000121356876
116	0x38ded4f1	0.00010625448
117	0x3912e33b	0.00014008295
118	0x3812c587	3.4993074e-05
119	0x389f4a2e	7.595528e-05
120	0x386ab1c8	5.595552e-05
121	0x386350cf	5.4196276e-05
122	0x3937a6bb	0.00017514352
123	0x3848c8b3	4.787063e-05
124	0x39c0ae9e	0.00036751194
125	0x386faf7a	5.7145466e-05
126	0x3848ea33	4.790183e-05
127	0x38bd00d6	9.012378e-05
128	0x38155eab	3.5612535e-05
129	0x38828f40	6.2255654e-05
130	0x38200274	3.8149257e-05
131	0x3a0e0829	0.0005418086
132	0x384a14e5	4.8180013e-05
133	0x38766ec1	5.8754118e-05
134	0x38b8d659	8.813729e-05
135	0x391c2378	0.00014890532
136	0x389a4f78	7.3580944e-05
137	0x388a9309	6.60774e-05
138	0x38cad16c	9.6711185e-05
139	0x381d679a	3.7528203e-05
140	0x38be76b2	9.082015e-05
141	0x39049ba7	0.00012646486
142	0x389577a3	7.127158e-05
143	0x384b04c3	4.8403406e-05
144	0x38c079ae	9.177938e-05
145	0x38270a98	3.982577e-05
146	0x3898ea15	7.291526e-05
147	0x385d8231	5.2811756e-05
148	0x3861d052	5.3838194e-05
149	0x38dc1d9a	0.00010495931
150	0x38bfad4e	9.13987e-05
151	0x3921c10d	0.00015426074
152	0x3852df21	5.0275707e-05
153	0x38b59ffc	8.660552e-05
154	0x390dee46	0.00013535572
155	0x3971dad2	0.00023065068
156	0x3869c50c	5.5735043e-05
157	0x38e94dd1	0.000111248
158	0x38934799	7.022842e-05
159	0x3868adb0	5.547487e-05
160	0x38ec9c1b	0.00011282434
161	0x395e1fad	0.0002118337
162	0x3944cdbe	0.00018768662
163	0x38b519c6	8.635553e-05
164	0x3854ad54	5.0706163e-05
165	0x38b474e7	8.6048436e-05
166	0x38b7d62f	8.766015e-05
167	0x385c8333	5.2574276e-05
168	0x3867ffb8	5.531285e-05
169	0x38ad2f72	8.25812e-05
170	0x38fa8129	0.00011944987
171	0x3842ea11	4.6471196e-05
172	0x3858bac2	5.1672345e-05
173	0x3835b1bb	4.3319287e-05
174	0x3896755d	7.174418e-05
175	0x388c53fa	6.691362e-05
176	0x385f1e78	5.319572e-05
177	0x38cb8287	9.704107e-05
178	0x388c5b8c	6.692772e-05
179	0x38d18958	9.991479e-05
180	0x386a0080	5.5790413e-05
181	0x387ac026	5.9783597e-05
182	0x3883d1ed	6.2856685e-05
183	0x381bcfd3	3.714843e-05
184	0x38848f34	6.320924e-05
185	0x3915c0a4	0.00014281512
186	0x380a83d5	3.3024542e-05
187	0x391818d5	0.000145051
188	0x3925774f	0.00015780072
189	0x3891d180	6.953161e-05
190	0x38dd663c	0.00010557144
191	0x38f10e51	0.00011494442
192	0x380cba7b	3.3552275e-05
193	0x38d9c825	0.00010384646
194	0x391b179c	0.00014790747
195	0x3882a9dd	6.2305226e-05
196	0x38af8360	8.369121e-05
197	0x38a2bc73	7.7598634e-05
198	0x38f0588d	0.00011460586
199	0x38ad2b80	8.257385e-05
200	0x39612300	0.0002147071
201	0x3856ae3d	5.1183848e-05
202	0x3907f5b3	0.00012966133
203	0x3803fe8c	3.14699e-05
204	0x390cacd2	0.00013415821
205	0x38bae2b1	8.911396e-05
206	0x38f703d9	0.000117785945
207	0x38751b32	5.843788e-05
208	0x38957016	7.125751e-05
209	0x38e50577	0.00010920589
210	0x38c38ee5	9.324941e-05
211	0x386d3c07	5.6561108e-05
212	0x392da1ff	0.00016558914
213	0x39b0fa74	0.00033755938
214	0x3801ddf9	3.0962725e-05
215	0x38593948	5.179018e-05
216	0x395aa31d	0.00020850865
217	0x3aae7748	0.0013310695
218	0x394293f4	0.00018556399
219	0x3aa7ea11	0.0012810846
220	0x384007fb	4.57838e-05
221	0x3847d289	4.7641373e-05
222	0x38802173	6.109746e-05
223	0x3942ef0e	0.00018590337
224	0x39234c47	0.00015573307
225	0x391e9dc2	0.00015126824
226	0x392abbec	0.0001628247
227	0x3808021d	3.2426895e-05
228	0x38b3bc32	8.570439e-05
229	0x390be666	0.00013341903
230	0x392dabc0	0.00016562548
231	0x38e4e65c	0.00010914795
232	0x39154b18	0.00014237722
233	0x3922eb70	0.00015537231
234	0x3934514d	0.00017196425
235	0x38fe6446	0.00012130341
236	0x3847e62f	4.7659672e-05
237	0x38435ce3	4.657813e-05
238	0x3932e488	0.00017060537
239	0x38aa62d9	8.1246435e-05
240	0x39236234	0.00015581475
241	0x37f23c9d	2.8876873e-05
242	0x389d5523	7.502201e-05
243	0x3920b10b	0.00015324743
244	0x390f648f	0.00013675004
245	0x390e22a6	0.00013555083
246	0x38ad0be1	8.2514955e-05
247	0x3969626a	0.00022257274
248	0x38d177ed	9.9882345e-05
249	0x387169b4	5.755732e-05
250	0x38bfbd9f	9.1429094e-05
251	0x393c9174	0.00017983263
252	0x38a67273	7.936815e-05
253	0x390c19b0	0.0001336101
254	0x38c10d7b	9.205468e-05
255	0x38c64704	9.4546034e-05

exp_avg f4 [3]
0	0x3bf3ab40	0.007436186
1	0xbbd759e2	-0.006571994
2	0xba628a60	-0.00086418353

exp_avg_sq f4 [3]
0	0x39fab120	0.00047815684
1	0x39f9f684	0.0004767665
2	0x369bd2b3	4.6438886e-06
