2024:05:01_ckpts/operational/Linear/lr_0.001_epoch_100/0.pth (torch, 21075 bytes, 6 tensors)

linear.weight f4 [2, 768]
0	0x3df5621b	0.11981603
1	0xbdf1d568	-0.11808282
2	0x3da8ffa7	0.08251887
3	0xbda4ae32	-0.080410376
4	0x3dc7baa1	0.097523935
5	0x3e79f79a	0.24410859
6	0xbe0c8a27	-0.13724576
7	0xbe235eb4	-0.15954095
8	0xbd06e99d	-0.032937635
9	0x3c9ec4d1	0.019380959
10	0xbe3e2f8e	-0.18572828
11	0x3d8d41d7	0.068973236
12	0xbdbe85e9	-0.09302885
13	0x3d995c57	0.074883156
14	0x3e8d07bf	0.27544972
15	0xbcd146ea	-0.02554651
16	0x3dce5656	0.10075061
17	0x3e9ea18f	0.30982634
18	0xbe98c38e	-0.29836696
19	0xbdd35f13	-0.10320868
20	0x3e406408	0.18788159
21	0xbd8809be	-0.06642483
22	0x3dc807cb	0.097671114
23	0xbe17971d	-0.14803739
24	0x3e034124	0.12817818
25	0x3e1ce212	0.15320614
26	0xbcb41e5d	-0.021987135
27	0x3ee81e8e	0.4533581
28	0x3e3c5aef	0.18394063
29	0xbde86dd7	-0.11349075
30	0xbe408114	-0.1879924
31	0xbeb8549e	-0.36002058
32	0xbec1baab	-0.3783773
33	0xbdbcff9e	-0.092284426
34	0x3e77a057	0.24182259
35	0x3e054294	0.13013679
36	0xbd9b3205	-0.075779
37	0xbba10511	-0.004913934
38	0xbce82ebc	-0.028342597
39	0x3c3d61cc	0.011558961
40	0xbdf9657c	-0.1217756
41	0x3d2ac361	0.041690234
42	0x3e8f8bb0	0.2803626
43	0xbd17b578	-0.037038296
44	0x3e0d357c	0.13789934
45	0xbdd2fc80	-0.10302067
46	0x3bdb0d55	0.006684939
47	0x3d390a89	0.045176063
48	0xbd0bddf6	-0.034147225
49	0x3e0d47e0	0.1379695
50	0x3e7b30b3	0.24530296
51	0xbe4e488b	-0.2014486
52	0xbd66475f	-0.05622041
53	0xbda12632	-0.07868613
54	0x3c9e5b28	0.019330576
55	0xbe1ed371	-0.15510346
56	0xbe168d7d	-0.14702411
57	0x3e7819ff	0.24228667
58	0xbe0e0426	-0.1386877
59	0xbea86310	-0.3288808
60	0x3e10eefa	0.14153662
61	0x3e54c76b	0.20779197
62	0xbdac0d2e	-0.08400951
63	0x3ed46885	0.41485992
64	0x3ecde5cc	0.40214384
65	0xbe462552	-0.19350174
66	0xbded5f67	-0.11590462
67	0xbc164eee	-0.009174092
68	0x3e003f8a	0.12524238
69	0xbda7bbeb	-0.081901394
70	0x3ea9c00d	0.33154336
71	0xbc0de706	-0.008661037
72	0x3e23ce2d	0.15996619
73	0xbeb3da46	-0.35127467
74	0x3e231a00	0.15927887
75	0xbe606835	-0.21914752
76	0xbd7a8a07	-0.06116679
77	0xbe76b8cf	-0.24093936
78	0x3e88f825	0.2675182
79	0xbcc5f3e0	-0.02416414
80	0x3e197564	0.14986187
81	0xbeab4ca5	-0.33456913
82	0x3d004b83	0.031322014
83	0xbccfda98	-0.025372788
84	0x3e8215af	0.25407168
85	0x3d9afefd	0.075681664
86	0x3dbbdf6d	0.091734745
87	0xbe204ca3	-0.15654235
88	0xbe03153e	-0.12801072
89	0x3e11de42	0.14244941
90	0xbe79b52b	-0.24385516
91	0x3e0fbf86	0.14037904
92	0xbe537bfe	-0.20652768
93	0x3dc1696e	0.09443937
94	0x3e5ac4ba	0.21364108
95	0xbe047a11	-0.1293719
96	0x3e34f4fa	0.17671576
97	0x3d8ce6b1	0.068799384
98	0x3e00637e	0.12537953
99	0xbdeb97c1	-0.11503554
100	0x3e842b37	0.2581422
101	0x3e2e3e26	0.17015895
102	0xbd74ba5e	-0.059748046
103	0xbdf4e079	-0.11956877
104	0xbe39fb7c	-0.1816234
105	0x3cdef0a1	0.02721435
106	0xbe8e09fc	-0.27741992
107	0xbd6f933e	-0.05849003
108	0xbd9157bf	-0.07096814
109	0xbdda6d5c	-0.1066539
110	0x3d13ec34	0.036113933
111	0x3e29189b	0.16513292
112	0xbda0e29f	-0.078557245
113	0x3dbe9cc0	0.093072414
114	0x3e17e4b3	0.14833336
115	0xbe1990b9	-0.14996614
116	0x3e8b7984	0.27241147
117	0xbe84178c	-0.25799215
118	0xbe22e018	-0.15905797
119	0x3d32f48c	0.04369025
120	0x3e46ae1e	0.19402358
121	0xbe06862c	-0.1313712
122	0xbd0b1dfd	-0.033964146
123	0xbd523579	-0.051320527
124	0x3ec0acf7	0.37631962
125	0x3e9da8e7	0.30792925
126	0xbd114a80	-0.03547144
127	0xbdc36a51	-0.095417626
128	0xbca2578f	-0.019817142
129	0x3e09b360	0.13447332
130	0x3ea13c76	0.3149144
131	0x3ed741ec	0.42042482
132	0x3e0e987c	0.13925356
133	0x3e389df2	0.18029001
134	0xbe1ff2ed	-0.15620013
135	0x3e82d1af	0.255506
136	0x3ddef860	0.108872175
137	0x3e057093	0.13031225
138	0x3e2bc745	0.16775234
139	0xbd4a6751	-0.049414936
140	0x3e703c6e	0.23460552
141	0xbcead051	-0.028663786
142	0x3e850fce	0.2598862
143	0xbe70f75d	-0.23531862
144	0x3dbc82d5	0.09204642
145	0x3da7b2bc	0.08188388
146	0xbd7b6559	-0.06137595
147	0xbdf4f81e	-0.11961387
148	0xbd877f56	-0.06616084
149	0x3e246383	0.16053586
150	0x3ccbd0c3	0.024879819
151	0x3e376ecb	0.17913358
152	0x3d5cbb7b	0.053889733
153	0xbef44a83	-0.47713098
154	0x3e0e62bb	0.1390485
155	0xbef373cc	-0.47549284
156	0x3eabd018	0.335572
157	0x3e150675	0.14553244
158	0x3e1e129b	0.15436785
159	0xbcb4d1a5	-0.022072623
160	0x3eb08610	0.34477282
161	0xbdc033e8	-0.093849
162	0xbe16da53	-0.14731722
163	0xbef8e824	-0.4861461
164	0xbe73d06a	-0.23809972
165	0x3df6aa91	0.12044252
166	0x3ddda389	0.108222075
167	0xbe6e590f	-0.2327616
168	0x3dd579c3	0.10423615
169	0xbdf1b1b7	-0.118014745
170	0x3b55d834	0.0032630088
171	0xbd33f9b6	-0.043939315
172	0x3e69f843	0.2284861
173	0xbd72e784	-0.05930282
174	0x3e13a5ba	0.14418688
175	0x3e196c80	0.14982796
176	0xbdbcb935	-0.09215013
177	0x3ced00ec	0.028931104
178	0xbdfcb346	-0.12338881
179	0x3b862faa	0.0040950375
180	0xbe35a392	-0.17738178
181	0x3d9ae60d	0.0756341
182	0x3e11d9ef	0.14243291
183	0x3de6db89	0.11272342
184	0xbdf22c66	-0.118248746
185	0xbe9be1b0	-0.30445623
186	0x3e38ba8a	0.18039909
187	0xbb983a01	-0.0046455865
188	0xbe7d5a88	-0.24741566
189	0xbe5aab20	-0.21354342
190	0xbcab34fd	-0.02089929
191	0xbd9513c1	-0.072791584
192	0xbd57fd01	-0.052731518
193	0xbd02caf1	-0.03193182
194	0xbe297b89	-0.16551031
195	0x3e0c7bfe	0.13719174
196	0xbe0c9893	-0.13730077
197	0x3d97bbce	0.07408868
198	0xbe24240c	-0.16029376
199	0x3d059137	0.03260919
200	0x3e51bff4	0.2048338
201	0xbd7b03d1	-0.061282936
202	0x3dd0a228	0.10187179
203	0xbe9d240e	-0.3069157
204	0xbd995426	-0.07486753
205	0x3eccc06d	0.3999056
206	0xbedda86a	-0.43292552
207	0xbc42f40b	-0.011899005
208	0xbde2b246	-0.11069159
209	0x3e11be01	0.14232637
210	0x3cfa9b8d	0.03059175
211	0x3c25219a	0.010078812
212	0xbd5de94c	-0.054177567
213	0xbc22bf94	-0.009933371
214	0x3ef8e09c	0.48608863
215	0x3dc4bb9c	0.09606096
216	0xbe5284a6	-0.20558414
217	0xbe96e942	-0.29474837
218	0x3d6f8db3	0.058484744
219	0x3cc6dd9e	0.024275597
220	0x3bf122b5	0.0073588737
221	0x3dcfc87d	0.10145662
222	0xbd6d5303	-0.057940494
223	0xbdbc318b	-0.09189137
224	0x3e02b674	0.12764913
225	0x3e04c525	0.1296583
226	0xbea956a4	-0.33073914
227	0x3d41de68	0.047331244
228	0xbcf5d9d0	-0.030011088
229	0x3d1c03a7	0.03808942
230	0x3d4aa1f5	0.04947086
231	0x3cbf016f	0.023316113
232	0x3d1d4367	0.038394358
233	0x3e0b9ecf	0.136348
234	0x3e3138a5	0.17306764
235	0x3d8cbc7f	0.0687189
236	0x3de7caf3	0.11318006
237	0xbe148812	-0.14505032
238	0x3d27ae57	0.040937748
239	0x3dcd4424	0.100227624
240	0x3bfd7b65	0.007735657
241	0xbe1592d5	-0.14606793
242	0xbe66413c	-0.22485822
243	0x3d6456ce	0.055746846
244	0xbe53f4e4	-0.20698887
245	0x3e1ca9b3	0.1529911
246	0xbd730f04	-0.059340492
247	0x3db5d7b1	0.088790305
248	0xbded2303	-0.115789436
249	0xbe172fa4	-0.14764267
250	0x3de62066	0.11236648
251	0xbedb6cb5	-0.42856374
252	0x3ece47d4	0.40289176
253	0x3d05ffee	0.032714777
254	0xbe59bbaa	-0.21262994
255	0x3de50728	0.111830056

linear.bias f4 [2]
0	0x3b4cd7c6	0.003125654
1	0x3d5bc7fd	0.05365752

exp_avg f4 [2, 768]
0	0x3a1a744e	0.00058919645
1	0x39ba3519	0.00035516245
2	0xbae0b103	-0.0017142597
3	0x3a8fde28	0.0010976242
4	0x3b7ef9a3	0.003890612
5	0x3a2001b2	0.0006103768
6	0x388064fe	6.122327e-05
7	0xbac388d3	-0.0014918096
8	0xbb3df9d5	-0.0028988023
9	0x3a0fd259	0.00054863613
10	0xba041eac	-0.0005039971
11	0xba9b1acc	-0.0011833548
12	0xbaf83a56	-0.0018938284
13	0xba558016	-0.00081443915
14	0xbb4025d0	-0.0029319413
15	0xbb4542e2	-0.003009968
16	0x3ad82b64	0.0016492424
17	0x3a39ff59	0.00070952397
18	0xbb57bcf2	-0.0032919017
19	0xb8949113	-7.084212e-05
20	0xbaa654e9	-0.00126901
21	0xb971052d	-0.00022985479
22	0x3b134a52	0.0022474718
23	0x3ae030ff	0.0017104446
24	0xb92c53ff	-0.00016434489
25	0xbb7145b7	-0.0036815235
26	0xb9df03c9	-0.00042536695
27	0x3afea370	0.001942737
28	0xba5f63e9	-0.00085216627
29	0x3b022e92	0.0019864184
30	0xbac217c4	-0.0014808108
31	0xba9e0281	-0.001205519
32	0x3aa1ff46	0.0012359403
33	0xba9e97b6	-0.0012099657
34	0x3a3176d4	0.0006769721
35	0x3ba0df91	0.0049094637
36	0xba5e05e7	-0.00084695074
37	0x3acc8495	0.0015603477
38	0xb9acd998	-0.00032968516
39	0x3b3d224d	0.0028859556
40	0x3adc91eb	0.0016828155
41	0x3b47a037	0.0030460486
42	0x391c1d9e	0.00014888353
43	0x3af58aa2	0.0018733332
44	0x3b3b266f	0.0028556844
45	0xbafc48c6	-0.0019247762
46	0xba073540	-0.0005157776
47	0x3b0ef1e8	0.0021811668
48	0xba631b34	-0.00086634164
49	0x3b7cbb8e	0.003856394
50	0x3950f23f	0.0001992667
51	0xbb2d7587	-0.0026467757
52	0xba454421	-0.00075251056
53	0x3ac0644f	0.0014678332
54	0x3b4760c4	0.0030422667
55	0x3a7c818c	0.0009632341
56	0x3ae247f2	0.0017263873
57	0x3aa29a88	0.0012405673
58	0xba6008ca	-0.00085462315
59	0x3a9b27fe	0.001183748
60	0xbb90c4cc	-0.0044179913
61	0xba46de9e	-0.0007586273
62	0x3ac28951	0.0014841949
63	0x3a97aa12	0.0011571071
64	0xb9805d3c	-0.00024483528
65	0xbb299a24	-0.0025879228
66	0xbb231cb5	-0.0024888937
67	0x3a9f3c27	0.0012148664
68	0x3a7e3457	0.00096971303
69	0xbae17ec9	-0.0017203923
70	0x3a8c64ca	0.001071119
71	0x3b0b41ec	0.002124901
72	0x3945e8a4	0.0001887405
73	0xbae709f3	-0.0017626866
74	0x3a82580e	0.0009944455
75	0xbb52018c	-0.003204438
76	0x3a39362d	0.0007065263
77	0xbba9a0a2	-0.0051766196
78	0x3a8d5e32	0.0010785519
79	0x39d7243b	0.0004103499
80	0xba069755	-0.00051342446
81	0xbae0d65d	-0.0017153729
82	0xbb08783a	-0.0020823614
83	0x3b030c03	0.0019996173
84	0x3a4c6d0e	0.0007798233
85	0x3b81f05b	0.00396542
86	0xb9f1f06a	-0.00046146224
87	0x37a1a20d	1.9268156e-05
88	0xbae6d9b1	-0.0017612485
89	0x3b36e482	0.0027907197
90	0x3b07d031	0.0020723457
91	0x3b3e1764	0.002900564
92	0x396f3051	0.00022810815
93	0xbb7aa4c6	-0.0038245185
94	0xbb554847	-0.0032544301
95	0xbaee05dc	-0.0018159705
96	0x37bc999d	2.2482878e-05
97	0xba889f07	-0.001042337
98	0x3bee95c9	0.0072810394
99	0x3adde499	0.0016929089
100	0xbb25be58	-0.0025290456
101	0xbb4f7fd7	-0.0031661892
102	0xbb08e296	-0.002088701
103	0xb98522ff	-0.0002539381
104	0xbafc9fc2	-0.0019273686
105	0xb94fc51b	-0.00019814486
106	0xba9d3b93	-0.0011995904
107	0x3b023502	0.001986802
108	0x39f2f68b	0.00046341526
109	0x3af7d699	0.001890856
110	0x3a820354	0.0009919205
111	0x3a9cfe30	0.0011977609
112	0x39c214bd	0.00037018015
113	0xb9d9a9b8	-0.00041515916
114	0x39541c86	0.00020228521
115	0x3a9b08f0	0.0011828225
116	0x3abad896	0.0014255221
117	0x3a769a65	0.0009407162
118	0xbb49f87a	-0.003081827
119	0x39ff7057	0.0004872109
120	0x3a9b18d9	0.0011832967
121	0xbb0bc47b	-0.0021326828
122	0xb9e5caa4	-0.00043829263
123	0x3ab106f5	0.0013506102
124	0x3a8c043d	0.0010682415
125	0xbb4f8ee9	-0.0031670874
126	0x3ae8c363	0.0017758425
127	0xba9dc196	-0.0012035843
128	0x3aa32b23	0.0012448769
129	0x3b55b4f9	0.0032609089
130	0x3b59dffb	0.0033245075
131	0x3aaa835a	0.0013009117
132	0xba5bca12	-0.0008384298
133	0x3b99e934	0.0046969894
134	0x3a23cfa3	0.0006248897
135	0xb9b3ecc8	-0.00034317956
136	0x3b09cfe9	0.0021028465
137	0x3b058b7d	0.002037733
138	0xbae6912a	-0.001759087
139	0x3b887868	0.004164744
140	0x3b22aec4	0.0024823407
141	0x3b53e273	0.003233102
142	0xbb38b9e3	-0.002818697
143	0x3b9cb7bb	0.0047826446
144	0x3ad312f1	0.0016103667
145	0x3beb17c4	0.007174464
146	0x3b478ce7	0.0030448975
147	0x3b97dd4d	0.0046345354
148	0xba641d71	-0.0008701897
149	0x3a1af403	0.00059109944
150	0x383ba750	4.4740096e-05
151	0x3af2fd13	0.0018538557
152	0x3ae688ae	0.0017588341
153	0x39d4d155	0.00040591756
154	0x3950b14e	0.00019902477
155	0x38c0a756	9.186442e-05
156	0xb98fe495	-0.00027445392
157	0xba26e414	-0.0006366384
158	0xba8aa1d2	-0.0010576791
159	0x3b68dad8	0.0035530832
160	0xb9c1215e	-0.0003683669
161	0x39f6a501	0.00047043714
162	0xb8858aa6	-6.3677595e-05
163	0x3ab1d4d0	0.0013567451
164	0xbb0a3d80	-0.0021093786
165	0x3a51fc5b	0.0008010321
166	0x39e8e083	0.00044417763
167	0xbb060513	-0.0020449802
168	0xbb2f6fd9	-0.0026769547
169	0xba77a914	-0.0009447497
170	0x3b5a927f	0.0033351479
171	0xba99810f	-0.0011711436
172	0x3b35e8d4	0.0027757185
173	0xbb06c247	-0.0020562576
174	0x3a85ea84	0.0010216986
175	0xbb700490	-0.0036623813
176	0xbb64eb8c	-0.0034930436
177	0x39beebf2	0.00036415417
178	0x3b1ac1d6	0.002361407
179	0xbb7e4df8	-0.0038803797
180	0xb9d0621f	-0.00039745957
181	0x3b5541f5	0.0032540534
182	0xbb0da251	-0.002161164
183	0xbb8abdfd	-0.004234074
184	0x3916dc84	0.00014387263
185	0xbb2a97da	-0.0026030452
186	0xbb762fce	-0.0037565115
187	0x3ac0c146	0.0014706037
188	0x3a9e988b	0.0012099905
189	0x3b0f1be3	0.002183669
190	0x3b87344b	0.004126107
191	0xbb0c42a1	-0.0021402019
192	0x3a0f7351	0.00054722006
193	0x3b326ded	0.0027226165
194	0x3b338d22	0.0027397354
195	0xb90d7893	-0.00013491725
196	0xbaa67931	-0.0012700913
197	0xbb2c5f86	-0.0026302054
198	0x3b01f933	0.0019832372
199	0x3b458459	0.00301387
200	0xbab519a1	-0.0013816842
201	0x3abc6f3d	0.0014376413
202	0xb990cc5f	-0.0002761809
203	0x3b988a02	0.0046551237
204	0x397889b6	0.00023702424
205	0xbae82926	-0.0017712459
206	0x3a84cee0	0.0010132454
207	0xb9d11336	-0.000398779
208	0xbb5d9960	-0.0033813342
209	0x3b3d7d6d	0.002891387
210	0xbb4e3517	-0.003146475
211	0x3a74db83	0.0009340571
212	0xbae78fdf	-0.0017666778
213	0xb9919b74	-0.00027772377
214	0xba1d8172	-0.00060083636
215	0xb99c41aa	-0.00029803562
216	0x3aa2b26d	0.0012412794
217	0xbc17b822	-0.009260209
218	0x3a9bc71f	0.0011884904
219	0x3c357790	0.011075869
220	0xba52062d	-0.00080117845
221	0xb856fc47	-5.1256528e-05
222	0x3b25fccb	0.0025327678
223	0x3b3651bd	0.0027819716
224	0x3b336c8a	0.0027377927
225	0xbb23ec53	-0.0025012686
226	0xba8c8983	-0.0010722134
227	0xbb2d9d71	-0.0026491547
228	0x37a48176	1.9610608e-05
229	0x388b4822	6.641472e-05
230	0x3b1c3403	0.0023834712
231	0x3b5c4098	0.0033607837
232	0xbb0a0676	-0.002106098
233	0xba5adf67	-0.00083493296
234	0x3a7d5b1f	0.0009664762
235	0x3ac91ab6	0.0015343043
236	0xb9ee974e	-0.00045507628
237	0xb8f41795	-0.00011639219
238	0x3ba22b6d	0.0049490244
239	0xbb9a840f	-0.0047154496
240	0xbb83615a	-0.004009408
241	0x3b029479	0.0019924922
242	0xbb1b5fb8	-0.0023708176
243	0x3ae12559	0.0017177268
244	0x3b037d20	0.0020063594
245	0xbb9b5a7a	-0.0047410103
246	0xbb51c43f	-0.003200784
247	0x3b800da3	0.0039078756
248	0xbaaa0611	-0.0012971779
249	0xb7aa87bb	-2.0328784e-05
250	0xba0d1a20	-0.0005382616
251	0x3a77fb53	0.00094597525
252	0xbafd3e4e	-0.0019320936
253	0x3a5a31c6	0.0008323457
254	0xba3d32cc	-0.0007217347
255	0x3a60cd36	0.00085755007

exp_avg_sq f4 [2, 768]
0	0x3975eaf3	0.00023452546
1	0x383c9b20	4.4967164e-05
2	0x385ded04	5.2911244e-05
3	0x37d558c8	2.543292e-05
4	0x38977848	7.222645e-05
5	0x380d27bc	3.3654025e-05
6	0x389d009f	7.486459e-05
7	0x383e57bc	4.538124e-05
8	0x386cb88a	5.643865e-05
9	0x38832e49	6.255188e-05
10	0x3819d1c7	3.6673413e-05
11	0x372f8259	1.0461162e-05
12	0x388de785	6.766528e-05
13	0x378fb239	1.712992e-05
14	0x383fc557	4.5721736e-05
15	0x38c09513	9.183041e-05
16	0x37b20827	2.122305e-05
17	0x3912589f	0.00013956659
18	0x38496fa5	4.802611e-05
19	0x383bb161	4.474947e-05
20	0x37a0bbe7	1.9160985e-05
21	0x38992fba	7.304498e-05
22	0x37f07e40	2.866902e-05
23	0x388aed78	6.624585e-05
24	0x38178236	3.6122474e-05
25	0x3892afa3	6.9945374e-05
26	0x3835fdbf	4.3390082e-05
27	0x387d89c5	6.044821e-05
28	0x3894e9d6	7.100745e-05
29	0x37c89ed5	2.391582e-05
30	0x3817e796	3.6216887e-05
31	0x37c279f2	2.3183387e-05
32	0x380a9877	3.3043758e-05
33	0x388aaac9	6.612164e-05
34	0x380b3321	3.31878e-05
35	0x38bd09f4	9.014076e-05
36	0x38195e84	3.6566067e-05
37	0x38667cbe	5.495245e-05
38	0x37e5ed04	2.7409296e-05
39	0x384d9d79	4.9022467e-05
40	0x37c32385	2.3262352e-05
41	0x3879ef2d	5.9588976e-05
42	0x38696bf1	5.5652057e-05
43	0x391f832e	0.0001521229
44	0x38338582	4.2801264e-05
45	0x385f83c7	5.329007e-05
46	0x371839ec	9.073392e-06
47	0x380ce737	3.3593937e-05
48	0x387f087c	6.080464e-05
49	0x386882db	5.543498e-05
50	0x380aa894	3.3058765e-05
51	0x38c2e0a1	9.292481e-05
52	0x38a69bd5	7.944523e-05
53	0x38825128	6.2139996e-05
54	0x3896dc70	7.193617e-05
55	0x382738ad	3.9868686e-05
56	0x394f6715	0.0001977946
57	0x37d87536	2.5803787e-05
58	0x388ea82e	6.8024136e-05
59	0x37d51134	2.539959e-05
60	0x38aee039	8.338731e-05
61	0x3806a064	3.2097465e-05
62	0x37a08175	1.913377e-05
63	0x38195777	3.65595e-05
64	0x38460303	4.7209684e-05
65	0x386960f2	5.5641816e-05
66	0x38900474	6.8672845e-05
67	0x3886dcd5	6.430751e-05
68	0x3896e9a8	7.196079e-05
69	0x38492a71	4.796166e-05
70	0x387d6938	6.0417893e-05
71	0x3827acfc	3.9977007e-05
72	0x38e6d4a1	0.0001100686
73	0x38271646	3.9836646e-05
74	0x3830c481	4.214468e-05
75	0x38909b4d	6.895382e-05
76	0x37d40d4d	2.5278563e-05
77	0x3abd94bc	0.0014463882
78	0x384ab9d2	4.833361e-05
79	0x3897765b	7.2222865e-05
80	0x38552f07	5.0826955e-05
81	0x385512d2	5.0800685e-05
82	0x3d440ad7	0.0478619
83	0x37fc7438	3.009486e-05
84	0x38417ea5	4.6132733e-05
85	0x38ae1e40	8.302601e-05
86	0x38b3b3d0	8.568878e-05
87	0x37fec663	3.037154e-05
88	0x381059c4	3.4415876e-05
89	0x387d0515	6.0324634e-05
90	0x3824c213	3.9281393e-05
91	0x3842a25c	4.6404413e-05
92	0x384e09c4	4.9123322e-05
93	0x386aecc0	5.6010438e-05
94	0x388d9a72	6.7521716e-05
95	0x382da6e0	4.140183e-05
96	0x383d8629	4.5186058e-05
97	0x39c48c87	0.00037488734
98	0x38f0741a	0.000114657174
99	0x3879a2a2	5.951769e-05
100	0x382ba716	4.0925188e-05
101	0x382d08c4	4.1254578e-05
102	0x38510416	4.983329e-05
103	0x388ccbff	6.7137174e-05
104	0x383ce1e4	4.503307e-05
105	0x3887933c	6.464726e-05
106	0x37a28f63	1.9378675e-05
107	0x38a4aff4	7.852903e-05
108	0x38b3a72b	8.5665226e-05
109	0x388f0702	6.820077e-05
110	0x3b3ed535	0.002911878
111	0x37f69e58	2.939922e-05
112	0x381fefc0	3.813184e-05
113	0x385623dc	5.1054973e-05
114	0x3882f9f3	6.24544e-05
115	0x38220cf9	3.863589e-05
116	0x38846f61	6.3149964e-05
117	0x37e793bd	2.7606142e-05
118	0x388138ed	6.1618026e-05
119	0x381b5c23	3.704069e-05
120	0x389065d3	6.885421e-05
121	0x3864e9f1	5.457731e-05
122	0x385f5be3	5.325292e-05
123	0x380096f7	3.0658175e-05
124	0x38294b0c	4.0362633e-05
125	0x381ec2d9	3.78516e-05
126	0x385c317b	5.249817e-05
127	0x384b959f	4.8538317e-05
128	0x385da7e6	5.2846874e-05
129	0x38e06ce6	0.00010701436
130	0x390525a1	0.00012697886
131	0x37bc8184	2.2471657e-05
132	0x38838900	6.272085e-05
133	0x38c29915	9.2791546e-05
134	0x3818697a	3.6337857e-05
135	0x38610a07	5.365352e-05
136	0x37ab5fbe	2.0429372e-05
137	0x3865db5a	5.480214e-05
138	0x384cf9d4	4.887006e-05
139	0x3898a1bc	7.27805e-05
140	0x387eba1f	6.0731658e-05
141	0x3881f170	6.1961706e-05
142	0x3885c8fc	6.3793705e-05
143	0x388183eb	6.175771e-05
144	0x39014aa1	0.000123302
145	0x39365688	0.00017389108
146	0x3867afac	5.52383e-05
147	0x38b0dd7b	8.433588e-05
148	0x38f8862e	0.000118505544
149	0x386ed232	5.693938e-05
150	0x3845aa21	4.7126905e-05
151	0x381d01cc	3.743339e-05
152	0x38b0dbe1	8.4332896e-05
153	0x380f6f8e	3.419775e-05
154	0x380e05d2	3.386086e-05
155	0x37bef132	2.276208e-05
156	0x38b14578	8.452957e-05
157	0x382f7041	4.1827796e-05
158	0x3829732c	4.0400002e-05
159	0x38892636	6.5397864e-05
160	0x37fb8594	2.9983734e-05
161	0x3807a887	3.234346e-05
162	0x38a2f44c	7.770266e-05
163	0x37ad325f	2.0646663e-05
164	0x3811ea07	3.478865e-05
165	0x384cf5d4	4.8866335e-05
166	0x389155ec	6.930143e-05
167	0x387c87f1	6.0208087e-05
168	0x387e6abb	6.065772e-05
169	0x379a1483	1.8367782e-05
170	0x38169bf0	3.5908015e-05
171	0x38969708	7.180689e-05
172	0x389383f7	7.0340866e-05
173	0x38646c85	5.4460503e-05
174	0x38ad5283	8.264652e-05
175	0x38ca7516	9.6539196e-05
176	0x38859afd	6.370803e-05
177	0x37b5ab10	2.1656539e-05
178	0x38a1d062	7.7158926e-05
179	0x3895d6e2	7.144899e-05
180	0x386e2c18	5.6784687e-05
181	0x38b31e8e	8.5410764e-05
182	0x3808b300	3.2591633e-05
183	0x38820301	6.1994426e-05
184	0x38b38814	8.560732e-05
185	0x385c35c2	5.2502153e-05
186	0x38795f47	5.945496e-05
187	0x380c3dee	3.3436278e-05
188	0x3832be98	4.261601e-05
189	0x3899f556	7.341306e-05
190	0x38667d5f	5.4953034e-05
191	0x38651b8a	5.4623502e-05
192	0x38a36808	7.791823e-05
193	0x383a33bb	4.4394033e-05
194	0x38a03928	7.640041e-05
195	0x3855cebd	5.0975697e-05
196	0x380b9265	3.3276523e-05
197	0x38ae79aa	8.319628e-05
198	0x3817be6e	3.6178557e-05
199	0x38c84859	9.550219e-05
200	0x38b5300d	8.639703e-05
201	0x38c01ce6	9.160656e-05
202	0x37a2e8a4	1.9420237e-05
203	0x38b89518	8.8015746e-05
204	0x380b28c1	3.3178138e-05
205	0x3882ab6d	6.2308136e-05
206	0x37a1f292	1.9305651e-05
207	0x39a22373	0.0003092546
208	0x38b9a87a	8.8528686e-05
209	0x386d278b	5.654203e-05
210	0x38a9b052	8.09139e-05
211	0x38bf4eae	9.122245e-05
212	0x3850773e	4.9702117e-05
213	0x37fbd3b1	3.0020108e-05
214	0x375c7162	1.3139421e-05
215	0x38225008	3.8698345e-05
216	0x38463a99	4.7261452e-05
217	0x39d8ef6f	0.00041377122
218	0x375f6ca8	1.3317134e-05
219	0x3a061413	0.00051146856
220	0x3895b7a5	7.13908e-05
221	0x38c5f3ed	9.439127e-05
222	0x382548ca	3.9406856e-05
223	0x385f0fcf	5.3182066e-05
224	0x38518cef	4.9960738e-05
225	0x383715e9	4.3651005e-05
226	0x38ca69e2	9.651833e-05
227	0x38523a8c	5.0122428e-05
228	0x37dc68f2	2.6274913e-05
229	0x380532eb	3.1757092e-05
230	0x38771b94	5.8915073e-05
231	0x3868754a	5.5422344e-05
232	0x380b5bbf	3.3225628e-05
233	0x383fa640	4.569278e-05
234	0x384f213c	4.9383598e-05
235	0x37f0bffe	2.8699633e-05
236	0x387e05bf	6.056367e-05
237	0x388f85fe	6.843729e-05
238	0x38b34424	8.548077e-05
239	0x38c94eb7	9.599089e-05
240	0x392e12db	0.00016600957
241	0x38bb68f4	8.936404e-05
242	0x3861fefa	5.3881646e-05
243	0x383ec8f6	4.548669e-05
244	0x38910338	6.914738e-05
245	0x38cf8670	9.89557e-05
246	0x383e0afd	4.5309764e-05
247	0x38706a3d	5.73194e-05
248	0x38a8679e	8.0301645e-05
249	0x37eb368c	2.8039583e-05
250	0x37fc55b5	3.0080651e-05
251	0x3809afd3	3.2827094e-05
252	0x37f440e2	2.911728e-05
253	0x387fe906	6.1013758e-05
254	0x38133a9d	3.510212e-05
255	0x387793c8	5.902702e-05

exp_avg f4 [2]
0	0x39de05b0	0.00042347377
1	0xb9de04bc	-0.00042346667

exp_avg_sq f4 [2]
0	0x3b7f9eb1	0.00390045
1	0x3b7f9eb1	0.00390045
