2024:05:01_ckpts/operational/Linear/lr_0.001_epoch_100/1.pth (torch, 21075 bytes, 6 tensors)

linear.weight f4 [2, 768]
-0.3702508 -0.09376056 0.2731343 -0.5028519 -0.2349033 -0.06339142 0.2748524 -0.59165424
0.08316115 0.09170191 0.067366 -0.2553905 0.008544709 0.29210615 -0.06583538 -0.06890522
-0.17161247 0.25485674 -0.3206926 -0.43189588 -0.16247563 -0.12827656 -0.21368267 -0.3299316
0.008429071 0.016953932 -0.06898243 0.029836249 0.24621513 -0.51478505 0.17072055 -0.051147502
-0.44534102 -0.15749526 -0.3717751 -0.5645836 -0.16586909 0.5480509 -0.32459524 0.042076465
0.052402902 0.57302356 0.6037619 0.185934 0.093514174 -0.53161573 -0.43121147 0.058198046
-0.4569316 -0.25960997 0.40077826 0.33597866 0.04730861 -0.03164268 -0.2929521 -0.2108183
0.054958116 0.11650089 -0.29333216 0.31316048 0.1026201 -0.00270668 0.3921917 0.24885575
-0.15189756 0.09810113 0.27715853 -0.14336471 -0.3788416 0.11019877 -0.17398037 0.36097014
-0.18087508 0.23346221 0.55653375 0.0900808 0.3742586 -0.09934757 0.0036872271 -0.1250477
0.1997389 -0.22161035 -0.049755808 -0.05426601 -0.21583791 0.41910198 0.032967817 -0.19701996
-0.06407543 0.4339496 0.17452323 0.15901555 -0.36907122 0.14868593 -0.16569719 0.25262967
0.07828782 0.12708157 -0.28128216 0.284959 0.04851483 -0.4551632 0.3039773 -0.020921327
0.3814088 0.2227151 -0.21426344 0.05820752 -0.24769214 -0.21914531 0.15875782 0.22854272
0.010409447 0.15017268 0.25989455 0.5059125 0.1792325 -0.34104624 0.06850291 0.20869203
0.439595 0.14941491 0.08918768 -0.29610682 0.17963015 0.4503578 0.084031366 0.29199743
0.19043209 0.035266876 -0.33595783 0.35638437 -0.49541932 -0.1478974 -0.21987022 0.16176954
0.3936321 -0.09192072 0.025958477 -0.087976195 -0.32280022 -0.10525619 0.27359238 -0.2518462
0.087974116 0.33783966 -0.16530263 0.031625394 0.0009899397 -0.01458432 -0.35561612 -0.016695537
-0.18747361 -0.16292773 -0.16154492 -0.05647353 0.0039670803 0.0018923399 -0.2629287 0.23446257
-0.45585373 0.42893824 0.5237694 -0.007634248 0.55641174 -0.25909585 0.013597906 -0.15490341
-0.054131307 -0.5142204 0.20082855 0.002952968 -0.050186202 0.18556598 0.90610224 -0.17239451
-0.32410035 0.3890635 0.019464789 0.012324104 -0.04298596 0.096943855 -0.13168387 0.04072615
0.47668034 0.003644842 -0.1408442 -0.033014208 -0.05785848 0.0974111 -0.32115972 0.07428339
0.518717 -0.027056547 -0.2973388 -0.15407301 -0.09889347 -0.32225633 -0.37708536 0.05086557
-0.2508467 -0.38290367 -0.32891923 0.08261381 -0.28202462 -0.17834829 -0.25100893 -0.5548687
-0.38512218 0.3067821 0.2411258 -0.026226478 -0.3065862 0.029340839 0.51724386 0.0549751
-0.09366288 -0.027239157 -0.22639844 0.069687165 0.5844906 -0.06667469 0.16267164 0.92786235
0.06100231 -0.4232301 -0.19643587 -0.019774375 0.104994185 0.018445354 -0.09490539 0.02475922
-0.24942762 0.03875197 0.230044 0.03482136 1.1119819 -0.00013421869 -0.28009403 0.6511758
0.020958396 -0.21764404 -0.026545813 0.1051567 0.029138388 -0.2428671 0.6713972 -0.11322095
0.0025077874 -0.16391808 -0.18655132 0.13405228 0.41512284 0.25342312 -0.281515 0.17867349
00000000: 8391 bdbe 8905 c0bd 42d8 8b3e e7ba 00bf
00000010: 7e8a 70be 5cd3 81bd 74b9 8c3e a776 17bf
00000020: 6550 aa3d 36ce bb3d 2ff7 893d 8bc2 82be
00000030: 1bff 0b3c f08e 953e b3d4 86bd 2e1e 8dbd
00000040: 2ebb 2fbe 957c 823e d231 a4be 7521 ddbe
00000050: 0360 26be ee5a 03be a1cf 5abe cbec a8be
00000060: 161a 0a3c f9e2 8a3c a946 8dbd 266b f43c
00000070: d21f 7c3e f4c8 03bf 5ed1 2e3e 0b80 51bd
00000080: bd03 e4be 7046 21be 4e59 bebe 8d88 10bf
00000090: 96d9 29be 104d 0c3f 5931 a6be 5f58 2c3d
000000a0: 6da4 563d acb1 123f 2490 1a3f 7c65 3e3e
000000b0: 5c84 bf3d f817 08bf c0c7 dcbe 1361 6e3d
000000c0: f0f2 e9be 99eb 84be cf32 cd3e 6505 ac3e
000000d0: acc6 413d c19b 01bd d1fd 95be c1e0 57be
000000e0: c31b 613d 0598 ee3d a22f 96be 9256 a03e
000000f0: 7d2a d23d 8e62 31bb 5acd c83e 0bd4 7e3e
00000100: 098b 1bbe 3fe9 c83d b9e7 8d3e 33ce 12be
00000110: 87f7 c1be e5af e13d e927 32be 14d1 b83e
00000120: 5137 39be b810 6f3e ff78 0e3f 487c b83d
00000130: d39e bf3e bd76 cbbd 68a5 713b 810c 00be
00000140: 5b88 4c3e d3ed 62be bfcc 4bbd 0946 5ebd
00000150: 9d04 5dbe 8994 d63e 4309 073d 9abf 49be
00000160: fb39 83bd a42e de3e 38b6 323e f9d4 223e
00000170: e7f6 bcbe 2041 183e 86ac 29be ad58 813e
00000180: 5d55 a03d ac21 023e 3704 90be 25e6 913e
00000190: 7db7 463d 270b e9be eaa2 9b3e 3463 abbc
000001a0: 0448 c33e 6d0f 643e e067 5bbe 026b 6e3d
000001b0: 02a3 7dbe a167 60be 6991 223e 1a07 6a3e
000001c0: 638c 2a3c dec6 193e e610 853e 7b83 013f
000001d0: b988 373e 9d9d aebe 414b 8c3d 5db3 553e
000001e0: 9912 e13e 3900 193e 08a8 b63d 509b 97be
000001f0: f7f0 373e 4c95 e63e a318 ac3d b080 953e
00000200: a100 433e 0074 103d aa02 acbe 0378 b63e
00000210: 9aa7 fdbe 6b72 17be a925 61be eaa6 253e
00000220: 268a c93e ee40 bcbd dfa6 d43c dd2c b4bd
00000230: 1246 a5be 8f90 d7bd 4d14 8c3e fcf1 80be
00000240: c62b b43d 52f9 ac3e 1845 29be a189 013d
00000250: ddc0 813a 12f3 6ebc 5113 b6be 14c5 88bc
00000260: 15f9 3fbe 87d6 26be 086c 25be ca50 67bd
00000270: 48fe 813b 6408 f83a 979e 86be f516 703e
00000280: a965 e9be cb9d db3e c015 063f b728 fabb
00000290: 0071 0e3f 36a8 84be c0c9 5e3c 009f 1ebe
000002a0: cab8 5dbd f3a3 03bf 00a6 4d3e 9586 413b
000002b0: 0c90 4dbd 0205 3e3e 51f6 673f 3088 30be
000002c0: 7bf0 a5be 5533 c73e 9f74 9f3c 0aeb 493c
000002d0: 0c12 30bd 808a c63d 23d8 06be 77d0 263d
000002e0: 720f f43e 4dde 6e3b 7639 10be e839 07bd
000002f0: 03fd 6cbd 797f c73d 0c6f a4be e421 983d
00000300: a3ca 043f b1a5 ddbc cb3c 98be 51c5 1dbe
00000310: a988 cabd c8fe a4be 5511 c1be 6a58 503d
00000320: fb6e 80be f30b c4be 1a68 a8be 6e31 a93d
00000330: 8865 90be efa0 36be 3e84 80be e00b 0ebf
00000340: bc2e c5be 8b12 9d3e afe9 763e e9d8 d6bc
00000350: def8 9cbe 335c f03c 186a 043f 922d 613d
00000360: 53d2 bfbd a724 dfbc fed4 67be 25b8 8e3d
00000370: 2da1 153f bd8c 88bd 6593 263e 6388 6d3f
00000380: 8fdd 793d 9eb1 d8be 7c26 49be dffd a1bc
00000390: 3107 d73d b61a 973c c25d c2bd d9d3 ca3c
000003a0: f469 7fbe 63ba 1e3d a890 6b3e d8a0 0e3d
000003b0: 6c55 8e3f 0ebd 0cb9 7c68 8fbe 75b3 263f
000003c0: f1b0 ab3c 14de 5ebe 9b76 d9bc 655c d73d
000003d0: a1b3 ee3c 27b2 78be b0e0 2b3f 63e0 e7bd
000003e0: b159 243b 24da 27be 4f07 3fbe 0045 093e
000003f0: fb8a d43e adc0 813e bc22 90be 2ff6 363e

linear.bias f4 [2]
0.013555561 -0.005874356
00000000: 2518 5e3c ab7d c0bb

exp_avg f4 [2, 768]
0.0010773167 0.0014617882 -8.9337715e-05 -0.0003533764 0.0028747022 -0.0013894598 0.0003002971 0.00062542077
-0.0007457752 -0.0018629773 -0.0003643577 -0.0013581177 -0.0012798696 0.0023105014 -0.0024621875 0.0022612538
-0.0015734964 -0.0038837322 0.0003302119 0.00018472677 -0.0006431016 -0.0014216227 -0.00033655373 -0.00091201504
0.0029504471 0.0008316068 0.00083122187 0.0010837975 0.0032506543 0.00072970166 -0.0019090793 -0.0031935384
-0.0011703323 -0.0037886465 -0.0011014538 0.0014709576 0.00011071107 0.0022524376 0.001644779 -3.1158776e-05
-0.001048795 -0.00025511763 0.00034372412 0.0007113333 0.0022412634 -0.0004548425 -0.0007824615 0.0025974421
-1.4228919e-05 0.0017196015 0.0021060847 0.0013392484 0.0029393826 -7.789835e-05 0.0026884568 -0.00084804365
-0.001613046 0.0023469916 0.0012231881 0.00090665906 0.0006263404 -0.004492523 -0.0026287881 0.001826283
0.0020008655 -0.002247053 -0.0024540408 0.0018052083 -0.0022852262 0.00087657094 0.0035920814 -0.0013850952
-0.0025726738 0.00418185 -0.0019775638 0.0012919822 -0.0027244731 0.033066638 0.0014858292 -0.00153798
0.002887546 0.0028264017 0.02012654 0.0006207306 -0.0016861149 6.971306e-05 0.0021434424 -0.00017304804
-0.00063672854 0.0015997273 0.002273894 -0.00066666957 -0.0002313037 -0.0008845875 -4.5387438e-05 0.0009938474
-0.00019641769 0.00035984744 -0.0022252495 -0.0022388473 0.0004202692 0.0006092986 -8.645105e-05 0.0027371547
0.0013087128 -0.00019204112 -0.0010680683 0.0009263362 -0.0005105655 -0.0002327239 -0.026522553 -0.0025838257
0.00093527226 0.0025214164 -0.0017409574 -0.003427997 0.0013270428 0.002593984 0.0008121849 -0.00090930634
-0.0013693324 -0.001274416 -0.004399617 -0.0011300067 0.0029455337 -0.0015550666 0.001973896 -0.00081355724
-0.0011358877 -0.0005702987 0.0020504703 0.0017419222 0.001478972 -0.0012089012 0.0009961607 -0.0010190852
-0.0024683469 0.0012807392 -0.00046843945 8.878895e-05 -0.001475077 -0.0010657953 0.0005541921 0.0004882008
0.0032271836 -0.00018822495 -0.0011478903 -0.0017892532 0.00294447 -0.0036911764 -0.0013094638 -0.0013525006
-0.0023756195 0.0036894488 8.595338e-06 -0.0019817357 0.0007598495 -0.00059413875 -0.0008775921 0.0010286384
-0.00055497675 0.00070292316 0.0024920458 0.0034830803 0.000290714 0.0013516657 0.0009211613 0.000503937
-0.0013428329 0.0004518484 -0.001008793 0.00045412805 0.0005547074 0.001912944 -0.00023184385 -0.0025654454
0.001052994 -0.001681752 0.00014875743 0.00060676376 0.0017432354 -0.000885413 0.0022647826 0.0030402537
-0.0018506309 -0.0018980929 0.0006466141 -0.0026421582 -0.0027602976 0.0012500241 -0.00045920035 -0.00257008
-0.0001256093 -0.00032038608 -0.0025469363 -0.0005286112 0.0011886145 0.00047046825 -0.0011287666 0.0012509678
-0.0022560596 -0.00079900475 -6.983584e-05 0.0014079661 -0.0021618174 0.0013177637 -0.0011804664 0.0018464929
0.0006521228 0.0014690738 -0.0023084306 0.0037592063 0.0003590224 -0.000112184054 -0.000939569 -0.002519952
0.0013061252 -0.0004441258 0.0013669537 0.006313349 0.00092046225 -0.0019124869 -0.0010396888 -0.00071218173
0.0016429253 -0.0015047838 0.00019523136 0.0010035515 0.0011002445 0.0019728185 0.0025943837 -0.0013830226
0.0006642981 0.00012410936 0.0018978486 0.00065844826 -0.0014948326 -0.0020895398 0.001436905 -0.0018638517
-0.00030854234 -0.00062712026 -0.0020599938 -0.00082720886 -0.00013642751 0.0005837254 0.0015147317 0.0022093067
0.00043042353 0.002361364 5.781616e-05 0.003893189 0.0014577132 -0.003069221 0.0006140383 0.0013787366
00000000: c034 8d3a 7999 bf3a d25a bbb8 6145 b9b9
00000010: 8065 3c3b 891e b6ba 3271 9d39 47f3 233a
00000020: 2080 43ba 252f f4ba 4307 bfb9 de02 b2ba
00000030: 4cc1 a7ba c86b 173b a75c 21bb 8b31 143b
00000040: c73d ceba 3786 7ebb 4a20 ad39 37b3 4139
00000050: d195 28ba be55 baba 7a73 b0b9 4b14 6fba
00000060: 4a5c 413b 3000 5a3a 5be6 593a 360e 8e3a
00000070: ee08 553b 7349 3f3a 123a faba af4a 51bb
00000080: d665 99ba f14a 78bb a85e 90ba 26cd c03a
00000090: 8e2d e838 a29d 133b a095 d73a 7bb0 02b8
000000a0: b877 89ba 4fc1 85b9 df35 b439 c578 3a3a
000000b0: 29e2 123b ed77 eeb9 1a1e 4dba d939 2a3b
000000c0: beb8 6eb7 4064 e13a 3d06 0a3b b889 af3a
000000d0: a8a2 403b 5c5d a3b8 d230 303b 3f4f 5eba
000000e0: d86c d3ba fccf 193b 6253 a03a dcac 6d3a
000000f0: fe30 243a 0436 93bb bf47 2cbb e45f ef3a
00000100: f420 033b 4b43 13bb f9d3 20bb bd9c ec3a
00000110: bcc3 15bb aec9 653a 2069 6b3b 158c b5ba
00000120: 4e9a 28bb e607 893b 049a 01bb bb57 a93a
00000130: 138d 32bb e270 073d 28c0 c23a 0c96 c9ba
00000140: fc3c 3d3b 273b 393b 6ae0 a43c 87b8 223a
00000150: a100 ddba ea32 9238 ff78 0c3b 3b74 35b9
00000160: 21ea 26ba f1ad d13a 9c05 153b 70c3 2eba
00000170: 1d8a 72b9 aae3 67ba 645e 3eb8 fc43 823a
00000180: 79f5 4db9 e8a9 bc39 7ed5 11bb a0b9 12bb
00000190: 9457 dc39 56b9 1f3a 0e4d b5b8 d661 333b
000001a0: 1d89 ab3a a55e 49b9 6dfe 8bba 5fd5 723a
000001b0: 78d7 05ba 5907 74b9 d345 d9bc 6755 29bb
000001c0: 0f2d 753a 593e 253b d630 e4ba 3fa8 60bb
000001d0: 2bf0 ad3a d4ff 293b cee8 543a 845e 6eba
000001e0: 2c7b b3ba 4e0a a7ba aa2a 90bb bc1c 94ba
000001f0: db09 413b 60d3 cbba 7b5c 013b e744 55ba
00000200: 11e2 94ba 1980 15ba 2f61 063b 3651 e43a
00000210: 11da c13a fe73 9eba 9b91 823a d392 85ba
00000220: fdc3 21bb 7ade a73a e198 f5b9 3434 ba38
00000230: 5f57 c1ba 28b2 8bba 3447 113a 34f5 ff39
00000240: 287f 533b 405e 45b9 cf74 96ba 6085 eaba
00000250: 02f8 403b aae7 71bb 50a2 abba 6446 b1ba
00000260: 48b0 1bbb aeca 713b b234 1037 02e0 01bb
00000270: a330 473a fabf 1bba 350e 66ba 61d3 863a
00000280: dc7b 11ba 6044 383a 9751 233b 6444 643b
00000290: f96a 9839 602a b13a 177a 713a a41a 043a
000002a0: ff01 b0ba 11e6 ec39 7a39 84ba 0918 ee39
000002b0: c969 113a c0bb fa3a 1c1b 73b9 0821 28bb
000002c0: 9e04 8a3a 3c6e dcba c5fb 1b39 3a0f 1f3a
000002d0: 467d e43a 101b 68ba bf6c 143b fe3e 473b
000002e0: de90 f2ba 6ec9 f8ba 8a81 293a 0f28 2dbb
000002f0: 1ce6 34bb d9d7 a33a d4c0 f0b9 ca6e 28bb
00000300: fdb5 03b9 7ef9 a7b9 80ea 26bb 7f92 0aba
00000310: 49cb 9b3a 2ea9 f639 1ff3 93ba 84f7 a33a
00000320: 66da 13bb 4d74 51ba d574 92b8 818b b83a
00000330: 47ad 0dbb d0b8 ac3a e1b9 9aba 0506 f23a
00000340: 38f3 2a3a f08d c03a 0a49 17bb 045d 763b
00000350: 2c3b bc39 5b44 ebb8 694d 76ba c725 25bb
00000360: 4a32 ab3a 8ed9 e8b9 5b2b b33a 36e0 ce3b
00000370: 2d4b 713a 69ac faba 2b46 88ba b5b1 3aba
00000380: 6d57 d73a 2a3c c5ba 05b7 4c39 9a89 833a
00000390: 1436 903a 674a 013b 8906 2a3b 8a46 b5ba
000003a0: 4a24 2e3a 5a23 0239 3bc1 f83a b79b 2c3a
000003b0: 42ee c3ba a9f0 08bb 8856 bc3a 7c4c f4ba
000003c0: dac3 a1b9 5465 24ba f600 07bb 0cd9 58ba
000003d0: fb0d 0fb9 2605 193a f689 c63a 04ca 103b
000003e0: 78aa e139 1dc1 1a3b a17f 7238 df24 7f3b
000003f0: bd10 bf3a fc24 49bb 6af7 203a b9b6 b43a

exp_avg_sq f4 [2, 768]
3.0997795e-05 8.174474e-05 3.9639628e-05 0.00011706636 0.00011680509 5.263816e-05 5.019565e-05 3.1975796e-05
5.5503897e-05 0.000110139226 7.563095e-05 3.751532e-05 0.000110869194 6.0597038e-05 0.00012482089 0.00018953446
0.0001229801 0.00021254401 9.8202385e-05 2.7732374e-05 3.2630127e-05 9.0347035e-05 4.446295e-05 3.976066e-05
5.9623337e-05 4.1312614e-05 5.1095478e-05 3.535203e-05 8.211284e-05 2.2966873e-05 7.243436e-05 0.00011661758
2.7881366e-05 5.2139076e-05 6.157743e-05 1.6378153e-05 2.5592131e-05 6.649138e-05 0.00010567939 4.4283883e-05
0.00015307029 0.0001245015 6.233898e-05 4.226649e-05 3.1357536e-05 2.5252244e-05 2.2238504e-05 8.0078054e-05
4.592363e-05 3.3723307e-05 3.365758e-05 3.05515e-05 4.7326856e-05 4.900939e-05 4.203199e-05 9.548189e-05
4.4371285e-05 5.2475705e-05 7.153462e-05 9.647052e-05 0.00015426791 0.0010627641 2.9663059e-05 7.789098e-05
9.5465606e-05 0.00011620798 8.4360356e-05 8.550175e-05 4.709745e-05 5.2747208e-05 5.3369444e-05 3.2134358e-05
0.000101670776 8.897772e-05 2.6213616e-05 0.00020131623 4.6341826e-05 0.011438655 6.548394e-05 0.00016778651
3.3968445e-05 7.823411e-05 0.0153364735 7.171985e-05 5.612452e-05 0.00022953324 3.9873932e-05 4.4230106e-05
3.3745808e-05 3.374967e-05 8.972564e-05 5.970753e-05 3.4498265e-05 0.00010416956 8.024391e-05 7.58101e-05
8.690327e-05 0.0008203962 4.212521e-05 6.740987e-05 0.00019902932 2.5823145e-05 8.659887e-05 4.6568297e-05
7.948666e-05 0.00016672678 3.9307957e-05 0.000119953314 2.5917876e-05 4.3003005e-05 0.0029618416 5.026684e-05
4.3948712e-05 3.8491864e-05 5.923231e-05 0.0001422995 9.2707895e-05 4.240788e-05 3.7815644e-05 5.2539694e-05
4.6674177e-05 5.9849062e-05 0.00032083504 5.1285253e-05 6.826776e-05 6.8214504e-05 8.499992e-05 2.78805e-05
6.2160914e-05 7.402663e-05 3.4448527e-05 6.162981e-05 5.3311735e-05 0.00017131653 3.625744e-05 4.0402723e-05
0.00014021948 3.4755623e-05 5.7936286e-05 0.000100293146 3.7253452e-05 5.019914e-05 3.6428977e-05 8.957562e-05
0.0004429947 7.071032e-05 3.7429272e-05 4.7747053e-05 0.0001911548 6.722816e-05 3.4103618e-05 9.8899014e-05
7.237636e-05 4.3878066e-05 6.24537e-05 6.22748e-05 0.00013270107 4.669822e-05 5.01188e-05 0.00014217247
2.8458453e-05 4.0919556e-05 6.137609e-05 9.132276e-05 3.423887e-05 4.399541e-05 0.00010367993 8.226469e-05
4.7044978e-05 1.8193079e-05 4.6960467e-05 0.00017037673 3.5822894e-05 5.3184558e-05 5.313071e-05 2.636176e-05
8.912616e-05 3.2390155e-05 3.2655116e-05 6.177685e-05 0.000105171486 0.000111893096 5.2919222e-05 9.7528646e-05
5.9453323e-05 0.00011286842 4.5688652e-05 0.00015433333 5.898566e-05 7.728197e-05 4.495732e-05 9.4033465e-05
5.009727e-05 7.000185e-05 5.0638624e-05 6.339415e-05 3.4708344e-05 3.35475e-05 6.1872466e-05 4.4681583e-05
0.00011783331 2.604343e-05 3.9192637e-05 3.8057595e-05 0.000119818076 3.7546688e-05 0.00020286374 2.0543426e-05
7.467078e-05 8.85133e-05 3.0167292e-05 0.00016527525 9.7897755e-05 4.5235665e-05 4.3102034e-05 0.00011553962
8.82691e-05 0.0016211204 3.1772757e-05 0.0012294037 4.708218e-05 3.4248416e-05 0.00013423558 6.4742024e-05
0.00010360861 6.8970454e-05 4.5276574e-05 3.6850848e-05 2.9913625e-05 7.266825e-05 7.23523e-05 8.665601e-05
7.209432e-05 3.467599e-05 7.003171e-05 9.1130634e-05 4.456418e-05 2.8354676e-05 6.2258085e-05 6.4962675e-05
0.0003313535 8.452962e-05 5.8163783e-05 6.0319646e-05 7.482436e-05 0.00017068909 3.747307e-05 9.4821306e-05
3.16472e-05 0.00019915591 2.5164143e-05 8.16601e-05 3.874845e-05 6.777016e-05 0.000116278265 5.800011e-05
00000000: a103 0238 606e ab38 ba42 2638 8681 f538
00000010: 41f5 f438 cbc7 5c38 2b89 5238 c01d 0638
00000020: dbcc 6838 8cfa e638 0f9c 9e38 c559 1d38
00000030: 7282 e838 9329 7e38 5ae2 0239 c5bd 4639
00000040: 38f4 0039 59de 5e39 01f2 cd38 d2a2 e837
00000050: 55dc 0838 b278 bd38 bb7d 3a38 afc4 2638
00000060: 1214 7a38 1547 2d38 5a4f 5638 f446 1438
00000070: ff33 ac38 fca8 c037 e7e7 9738 9690 f438
00000080: c7e2 e937 e8af 5a38 2223 8138 d163 8937
00000090: afae d637 4a71 8b38 31a0 dd38 75bd 3938
000000a0: 7e81 2039 9e8c 0239 fcbb 8238 4c47 3138
000000b0: e685 0338 c8d4 d337 d38c ba37 94ef a738
000000c0: 1f9e 4038 2072 0d38 8d2b 0d38 6c24 0038
000000d0: d380 4638 6f8f 4d38 814b 3038 733d c838
000000e0: 4e1b 3a38 5c19 5c38 db04 9638 3750 ca38
000000f0: fac2 2139 724c 8b3a efd4 f837 6759 a338
00000100: b534 c838 afb4 f338 9fea b038 674f b338
00000110: 808a 4538 e23c 5d38 01d9 5f38 01c8 0638
00000120: 1538 d538 8d99 ba38 50e5 db37 6a18 5339
00000130: 285f 4238 3269 3b3c 6c54 8938 d9ef 2f39
00000140: 5779 0e38 9e11 a438 d545 7b3c 4d68 9638
00000150: 3f67 6b38 dcae 7039 4f3e 2738 b783 3938
00000160: 498a 0d38 6f8e 0d38 162b bc38 796e 7a38
00000170: 3bb2 1038 9b75 da38 9f48 a838 3dfc 9e38
00000180: d63f b638 db0f 573a 9aaf 3038 665e 8d38
00000190: 87b2 5039 c89e d837 6a9c b538 5452 4338
000001a0: 13b2 a638 61d3 2e39 99de 2438 728f fb38
000001b0: 376a d937 205e 3438 751b 423b 9cd5 5238
000001c0: 9255 3838 5372 2138 3570 7838 3b36 1539
000001d0: 2c6c c238 1ddf 3138 3d9c 1e38 115e 5c38
000001e0: 04c4 4338 7106 7b38 c035 a839 1f1b 5738
000001f0: f92a 8f38 620e 8f38 fc41 b238 ebe0 e937
00000200: 635c 8238 bf3e 9b38 d37c 1038 413f 8138
00000210: 0a9b 5f38 6ea3 3339 2113 1838 1876 2938
00000220: e107 1339 91c6 1138 9d00 7338 7954 d238
00000230: 9740 1c38 eb8c 5238 51cb 1838 8bda bb38
00000240: be41 e839 504a 9438 60fd 1c38 0244 4838
00000250: ba70 4839 d8fc 8c38 7b0a 0f38 0168 cf38
00000260: c3c8 9738 b709 3838 93f9 8238 8799 8238
00000270: ac25 0b39 d5dd 4338 a736 5238 2214 1539
00000280: 10ba ee37 0aa1 2b38 0ab7 8038 8984 bf38
00000290: b59b 0f38 b687 3838 bd6e d938 8585 ac38
000002a0: 2952 4538 579d 9837 6bf7 4438 28a7 3239
000002b0: 8a40 1638 7c12 5f38 aad8 5e38 7323 dd37
000002c0: 3ee9 ba38 aada 0738 2af7 0838 328e 8138
000002d0: 838f dc38 26a8 ea38 95f5 5d38 4b88 cc38
000002e0: 855d 7938 c6b3 ec38 d1a1 3f38 8ad4 2139
000002f0: 5f67 7738 7112 a238 8e90 3c38 d533 c538
00000300: 891f 5238 f5cd 9238 cf64 5438 7af2 8438
00000310: cd93 1138 5bb5 0c38 87c1 8138 7c68 3b38
00000320: 471d f738 d777 da37 c662 2438 08a0 1f38
00000330: d746 fb38 737b 1d38 d2b7 5439 ac54 ac37
00000340: 9298 9c38 37a0 b938 c40f fd37 bd4d 2d39
00000350: 754e cd38 6dbb 3d38 75c8 3438 dc4d f238
00000360: 1d1d b938 c67b d43a bd43 0538 f123 a13a
00000370: 1b7a 4538 f5a5 0f38 97c1 0c39 1cc6 8738
00000380: 7348 d938 3ba4 9038 5ae7 3d38 4c90 1a38
00000390: 05ef fa37 7865 9838 d8bb 9738 17bb b538
000003a0: 5831 9738 1071 1138 fddd 9238 631d bf38
000003b0: 6dea 3a38 34db ed37 8e90 8238 923c 8838
000003c0: 84b9 ad39 7f45 b138 e3f4 7338 baff 7c38
000003d0: 06eb 9c38 01fb 3239 672c 1d38 cdda c638
000003e0: ecbc 0438 82d4 5039 9617 d337 ef40 ab38
000003f0: d585 2238 d41f 8e38 6bda f338 2545 7338

exp_avg f4 [2]
-0.0055756574 0.005575659
00000000: 01b4 b6bb 05b4 b63b

exp_avg_sq f4 [2]
0.001129221 0.001129221
00000000: 5f02 943a 5f02 943a
