2024:05:01_ckpts/operational/Linear/lr_0.001_epoch_100/10.pth (torch, 21085 bytes, 6 tensors)

linear.weight f4 [2, 768]
00000000: 0777 f73d 8770 893e 5d91 bfbe 5a7b c9bd
00000010: 1d83 3abc ce08 753e 3a5b 97be 95f3 a1be
00000020: e972 eb3c 430d 283d e346 a83e 7a18 7e3e
00000030: dc21 c93c dc47 97be aea1 a3be 7b9f 2dbc
00000040: a251 6abe fed6 d93c 0af2 143e b001 48be
00000050: 99f2 c4be dc06 32bc 2ae2 adbd 13b2 5dbe
00000060: ed8c 39be 5d14 75bd 7339 1d3e 153f a03e
00000070: c956 d83c c7ac 9e3d 2980 a13e 2759 943e
00000080: 6569 c53e b746 893e 95e3 85be e6ba 813c
00000090: a1d0 acbd c427 4d3e 5987 78bd 53bb c93e
000000a0: 6ace 93bd b22c ac3e 7a71 ce3d ac4d 313e
000000b0: 231f 3b3e 1d19 c0be 0e83 68be 56a3 fa3e
000000c0: 3a04 66be 1aae bb3e 1dd9 2cbe 2461 7ebd
000000d0: ce10 70bd 0c98 533e 5ce0 cabd 5d09 a2bd
000000e0: 909c 20be 2387 d53e d5d9 f7bc 864d 033e
000000f0: c93f 103d 0dbe b53d 81aa dcbd b1de bb3d
00000100: 2413 293e 2e7d bfbe 9251 913d 5bb9 583e
00000110: 9634 173e 2010 82be 5757 103d 648f f6bd
00000120: 21a9 643e 49c6 fb3c dd9a 8d3d 9f8e 393d
00000130: a508 62bd d751 0dbe a70f 5cbe 3989 e53d
00000140: e047 373d 73db 84be 4016 cb3d 17d8 3cbe
00000150: 8bec 67be 59c5 1e3b ead9 c6be 9754 463e
00000160: df21 4d3e fc5d b8bd fe70 173e 5ce7 29be
00000170: e5bf d03e 0be9 233e e0f1 ce3d a6ff 35be
00000180: cdb0 fc3d ddbd d93d 6552 3cbe b02d adbe
00000190: 4fc7 38bd e66b 42bd 60b1 383e adb6 e53d
000001a0: d9d0 83be 7a4c 043f 906d 473d e3c3 5bbd
000001b0: 179c 4c3e 0b7b babe b6a9 f63d e65e a73e
000001c0: 61e0 b63e 7027 8f3e e71c 12bd a1a0 a63e
000001d0: cb5b e1bd aa3f 633e 4550 fabd 0ace b0be
000001e0: 3ef0 a83d 3c62 c03e aca8 0f3d 2e15 2cbe
000001f0: 580d 1c3d 956b 1ebd 6e81 1cbe fb75 133e
00000200: 9d2f 8cbc 6a59 7ebe ac24 993d ef82 413e
00000210: 06ac 94bd a1d6 89be 32d6 623d 144e 923e
00000220: e93e f4bd 95d8 063f 44dc 723e 8f81 4ebe
00000230: 1792 c5be 4693 6b3e bd81 dbbe 2512 0fbf
00000240: fa59 353e d377 92be b8b2 1d3f bf66 993e
00000250: 3e20 973e 6f38 d1be 67ee 8c3e 275a d6be
00000260: f1ad 84be 882b 283e e129 a13e 4d5d 813e
00000270: ba66 8f3d 2b41 4b3e a549 513e 059d 053e
00000280: 89e4 65be 8c95 c93e bbf2 9f3d 5d24 7a3e
00000290: e5b3 6e3d 578f c7bd 6f48 06be 8d26 a6be
000002a0: eba8 7bbd cd50 ec3b 91b1 21bd 85c6 f7bd
000002b0: b60c 983e 2c53 42be ff55 fdbc 49d3 523d
000002c0: 9108 ce3e f973 1f3f 94df 89be e4a2 6b3d
000002d0: c1da 713e ae57 bfbe 1399 143f 54a4 503e
000002e0: e064 533e 4d62 44be 366a b63b 691f c33b
000002f0: 87f3 03be 4bdd 0fbe 475e 4b3d d2cd 7d3d
00000300: 62b6 973d 1c3a 31be b311 cdbd bfa8 933e
00000310: 5b8a 173d 2afa 5ebe 9e8c 09bf 2b91 63bd
00000320: 1d06 1cbe 5f4c 98bd baac 39be b9d2 f9bc
00000330: 1836 d23e 1df0 e33d b273 9d3d 0348 f53e
00000340: f28a 863e 98f0 f1bd 7e59 3bbe fdde 1bbd
00000350: 29d4 81be 9d13 9a3e 6e12 13bf 87b5 053e
00000360: 8d81 073e ffde e43c f31d 413e 596d 213e
00000370: 9274 fdbe ded5 5e3e fdfd 84bd ec59 043e
00000380: 50d8 7c3e 5eba c53c e5c3 6bbe 9be3 473e
00000390: 8514 143d 60fa 223e d83f a8be 242c 96bc
000003a0: f37f 253d 74c9 33be d686 5bbe 1792 053f
000003b0: f675 eb3d 6d20 10be d915 babe 9e9a 18be
000003c0: eda1 5b3a 007f 103e ab7e f53d 8a1d 8dbe
000003d0: 55b5 16be 2510 15bf 70fe 1abe e99e 6e3e
000003e0: 9754 b4bd f83d d93d bb43 893d 3d58 1bbe
000003f0: 20ca 95b9 4d24 dcbb b7d7 993e cf04 923e
0.120832495 0.26843664 -0.3741559 -0.098379806 -0.011383799 0.2392914 -0.29561788 -0.3163115
0.028741317 0.041028272 0.32866582 0.24814025 0.024552278 -0.29547012 -0.3195929 -0.010597105
-0.22882703 0.026591774 0.14545456 -0.19531894 -0.38466337 -0.010865893 -0.08490403 -0.21649961
-0.18120165 -0.059833873 0.15353946 0.31298128 0.02640857 0.077477984 0.3154309 0.28974268
0.38556972 0.26811764 -0.26150194 0.01583619 -0.0843823 0.200347 -0.060675953 0.3940073
-0.07217105 0.3362785 0.10080238 0.17314786 0.18273596 -0.3751916 -0.22706243 0.4895274
-0.2246255 0.36656266 -0.16879697 -0.06210436 -0.058609776 0.2066347 -0.099060744 -0.07911942
-0.15684724 0.41704664 -0.030255238 0.12822542 0.03521708 0.0887414 -0.107747085 0.091733344
0.16511208 -0.37400192 0.070956364 0.21164457 0.14766154 -0.25402927 0.035239544 -0.12039068
0.22330143 0.030734198 0.069143035 0.04530203 -0.055184025 -0.1380075 -0.21490346 0.11207814
0.04474628 -0.25948676 0.09916353 -0.18441807 -0.22648828 0.0024226515 -0.3883813 0.19368206
0.20032452 -0.09002301 0.14789197 -0.16592163 0.40771404 0.16006868 0.10104728 -0.17773303
0.123384096 0.10631917 -0.18390806 -0.3382392 -0.04511195 -0.04746618 0.18036413 0.11216483
-0.25745276 0.51679194 0.04868847 -0.05365361 0.19981419 -0.36422 0.120440885 0.3268959
0.35718063 0.27959776 -0.035672095 0.32544425 -0.11003836 0.22192255 -0.122223414 -0.34532195
0.082489476 0.37574947 0.035072967 -0.16804954 0.038098663 -0.038676817 -0.15283749 0.14400475
-0.017112548 -0.24838796 0.07477698 0.18897603 -0.07259373 -0.2692156 0.055380054 0.28575194
-0.11926062 0.5267423 0.23716837 -0.2016661 -0.3858802 0.23005399 -0.4287242 -0.5588706
0.17710105 -0.28607044 0.6160083 0.29961202 0.29516786 -0.40863368 0.27525637 -0.41865656
-0.25913957 0.16422856 0.31477264 0.25266495 0.070020154 0.19849078 0.2043825 0.1304818
-0.2245046 0.39371908 0.07809969 0.24427934 0.05827703 -0.09744137 -0.13113569 -0.32451287
-0.06144039 0.0072117806 -0.03947598 -0.120984115 0.29697198 -0.1897704 -0.030924795 0.05147103
0.4024091 0.62286335 -0.2692839 0.05752839 0.23618604 -0.37371582 0.5804607 0.20375186
0.2064395 -0.19178124 0.0055668605 0.005954672 -0.12885867 -0.1404926 0.049650457 0.061963864
0.07407834 -0.17307323 -0.100131415 0.2883968 0.03699718 -0.21775118 -0.5373019 -0.055558365
-0.15236707 -0.07436442 -0.18132296 -0.030495988 0.41056895 0.11129782 0.07688083 0.47906503
0.26277882 -0.11813468 -0.18295857 -0.038054455 -0.25357178 0.3009309 -0.57449996 0.13057528
0.13233013 0.027938364 0.18859081 0.15764369 -0.49503 0.21761271 -0.06493757 0.12924927
0.24691892 0.024136718 -0.23023947 0.19520418 0.03615238 0.15915823 -0.3286121 -0.018331595
0.040405225 -0.17557317 -0.21438155 0.5217604 0.11497109 -0.1407487 -0.36344793 -0.14902732
0.0008378316 0.14110947 0.119870506 -0.275616 -0.1471761 -0.5822776 -0.15136123 0.23302807
-0.08805197 0.10607523 0.06702372 -0.15170379 -0.0002857009 -0.0067181946 0.3004739 0.28519294

linear.bias f4 [2]
00000000: 3da1 c23d 09e2 b9bd
0.0950341 -0.09076316

exp_avg f4 [2, 768]
00000000: 3933 8cba 4c67 0ebb d4ac e6ba 88e6 cf39
00000010: 255d 5fb9 4a5f e03a dfcc 0e39 c5b3 5a3a
00000020: 6440 ed3a 3e3d a7ba 4173 49ba 3a2d 37ba
00000030: 0371 d1b8 a614 05bb 845c 0e3a 82f4 4cba
00000040: 13f6 c33a a1d0 20bb 34ce 4ab9 328d b939
00000050: da6e e3b9 94e7 b73a eb15 b9b8 8daf cbb8
00000060: 13eb 01bb eecc 48bb e399 1a3a e66d e9ba
00000070: d107 eb39 f333 ed39 e62d 63bb 518c b43a
00000080: 5a10 6b3a a64c 37bb 78fb e339 654f 7638
00000090: d7ff 9d38 2259 f9b9 3a26 c6ba c77f 843a
000000a0: d1d1 bc39 d1b7 30bb 7264 1fba ba2d 7f3a
000000b0: 3c35 73ba a579 913a 0524 5bba 1928 d439
000000c0: 5669 653a 0aec 89ba 01c3 6f3a aa7c 0cbb
000000d0: 19be 123a 1e02 7d3a 0088 89ba a822 043b
000000e0: 3df5 cc3a 0676 efb8 999f 843a e4b1 613a
000000f0: 4680 c7ba ad45 5dba 5e64 2bbb fb94 96ba
00000100: f87c 1139 d8a5 adba 1321 59ba 60ad d2ba
00000110: cf3d 18bb fd55 3bba eda7 19bb ce20 8eba
00000120: d679 a7ba b6a8 b3b9 90d2 c13a da01 f9ba
00000130: c530 beba 863e 1a3c d8bd d1b9 e5b7 21bb
00000140: 78ae 14b8 0272 2f3a 17a4 11ba dde0 103a
00000150: f0fe 883a e120 23bb 1378 c7ba dbea 90ba
00000160: f0c0 8b3a 3077 94ba d32b 16b9 0221 57ba
00000170: f346 343b 404c 9a39 3506 383a acd5 eeba
00000180: 791b a439 439c 25ba 5731 ec3a 15b8 113a
00000190: 0c49 c1b9 92aa 05ba c18c b53a 7b37 e138
000001a0: 83f6 b8b9 3f92 213a 1f16 a5b9 6f74 55b9
000001b0: 3817 91ba a5a9 673a 986d b4ba 9acf a73b
000001c0: 2cf4 15bb 16cc 3839 bd56 eeb9 46e3 45bb
000001d0: df7f 1739 21a8 783a b776 d939 17a8 2bba
000001e0: 0200 6739 35a1 1239 3934 0d3b 6836 7d39
000001f0: a388 c93a 0b9e 0bbb cb73 053a b8a3 373b
00000200: 526c 18ba 0abc f539 6cc2 1d3a d9d2 47b9
00000210: 73be f3ba a160 bcba 7c78 9fba b846 b03a
00000220: 47b7 e73a 02c1 aab8 44af ef38 3157 1db9
00000230: 3f5c 8639 46f3 41b9 c436 99ba 9e98 68ba
00000240: 2e82 e8b9 9027 8bb9 c419 ceba 0c82 2eba
00000250: 263a 42b9 b24a 21ba 99bf 5eba d30c 363b
00000260: a298 d23a e574 56ba 7ff3 e33a 114c 5739
00000270: 93f1 61bb e632 0b3b 4a35 763a 4e05 b0ba
00000280: cd58 9b3a 0136 0b3b 364e 46ba 7e18 22bb
00000290: 9ee2 403a 37cf 53ba e0bb 313b 5d6e 90ba
000002a0: 79c2 af38 a0c2 e3ba a9d4 713a a844 343a
000002b0: 9c79 ddb9 bb64 a5ba a53d d9ba 019e 1c3a
000002c0: b34c 6c3a 1b2d 863a e2c0 543a ac7b 2eb8
000002d0: 94dd eaba f3cd b1b7 0364 a3b9 01b5 c939
000002e0: d6da 99ba 45ad d4ba e7e2 9139 990a 6139
000002f0: 41d9 523a 9672 42ba 4a61 e6b9 596a c33a
00000300: 3fd1 acba 9c4a 85b9 9d8b 4fb9 3a62 b43a
00000310: c2a9 873a 7025 973a efe5 ec39 a2ee 8aba
00000320: bf94 4d3b cd35 2a3a 280f e63a a786 47ba
00000330: 37f2 5fba 4909 9eba 990c a23a df90 73ba
00000340: 158f 9e3a 19dc 28ba d9a4 95ba 5e87 dd3a
00000350: 77fa beba bcb3 05ba bd01 2abb a3b7 a2ba
00000360: 9fee 1dbb 1a06 903a 14d1 a13a a31a 93bb
00000370: bd3f 003b aea5 f0b9 dd9c 6c39 c4a9 b53b
00000380: 3cc4 df39 06f1 32ba 10c5 903a b71f 0abb
00000390: f54d 08bb df05 303b ca7a 343a 9b07 52ba
000003a0: 7592 a73a 1891 51bb 195e 543a 266c 5dba
000003b0: 7bff 403b 8290 8a3a 97ab 65b9 990a 033b
000003c0: 78ea 49ba 2693 133b 4824 a33a e284 163b
000003d0: c0b5 113a c530 9c3a e9d2 ee3a 2781 49bb
000003e0: ec85 453b 7d41 d33a fcfa 4a38 f06c 543b
000003f0: e403 0c3b beb9 8dba 78a7 a63a 2410 153a
-0.0010696418 -0.002172905 -0.0017599114 0.00039653876 -0.00021301636 0.0017118242 0.00013618496 0.0008342828
0.0018100855 -0.001275934 -0.00076847157 -0.0006987635 -9.986947e-05 -0.0020306497 0.0005430656 -0.0007818417
0.0014950655 -0.0024538415 -0.00019341038 0.00035391148 -0.00043379405 0.0014030808 -8.82557e-05 -9.712493e-05
-0.0019823953 -0.0030639726 0.00058975647 -0.0017809242 0.00044828517 0.00045242868 -0.0034664809 0.0013774728
0.0008966975 -0.002796927 0.00043484173 5.8724912e-05 7.533997e-05 -0.0004755939 -0.0015117594 0.0010108881
0.0003601448 -0.0026965032 -0.0006080336 0.0009734292 -0.0009277647 0.0011098875 -0.00083595543 0.00040465666
0.0008751353 -0.0010522616 0.00091461843 -0.002143661 0.0005597785 0.00096514996 -0.0010492802 0.0020162258
0.0015637052 -0.00011418392 0.0010118365 0.00086095766 -0.0015220724 -0.00084408635 -0.0026152353 -0.0011488491
0.00013874832 -0.0013248278 -0.00082828215 -0.0016073398 -0.00232302 -0.0007146297 -0.0023446039 -0.0010843517
-0.0012777399 -0.0003426724 0.0014787484 -0.0018997744 -0.0014510384 0.009414321 -0.0004000503 -0.002467626
-3.5448436e-05 0.00066927087 -0.00055557623 0.00055266713 0.0010451954 -0.0024891424 -0.001521828 -0.001105632
0.0010662358 -0.0011327025 -0.0001432144 -0.00082065177 0.002750811 0.0002942998 0.0007019968 -0.0018221638
0.00031300986 -0.00063175353 0.0018020076 0.00055587414 -0.00036866253 -0.00050989643 0.0013851152 0.0001073917
-0.0003527888 0.0006163455 -0.00031487734 -0.00020356638 -0.0011069542 0.00088372297 -0.0013765572 0.0051211836
-0.0022881133 0.00017623635 -0.00045459523 -0.003019528 0.00014448118 0.00094855024 0.00041477915 -0.00065481797
0.0002202988 0.000139837 0.002154602 0.00024148228 0.0015375804 -0.0021303918 0.0005090802 0.0028021168
-0.0005814481 0.00046870142 0.0006018046 -0.00019056666 -0.0018596187 -0.0014372059 -0.0012166644 0.001344881
0.0017678522 -8.142182e-05 0.00011429054 -0.00015005168 0.000256272 -0.0001849654 -0.0011689295 -0.00088728394
-0.0004434748 -0.00026541622 -0.0015724231 -0.0006656952 -0.00018522944 -0.0006152793 -0.0008497178 0.002777864
0.0016067217 -0.0008180871 0.0017391293 0.00020532335 -0.0034476265 0.0021240055 0.0009392096 -0.0013429315
0.0011852026 0.0021241906 -0.0007564755 -0.0024733837 0.00073579873 -0.00080798886 0.002712004 -0.0011019219
8.3808736e-05 -0.0017376728 0.0009225109 0.00068766857 -0.0004224301 -0.0012618521 -0.0016574158 0.0005974472
0.00090141146 0.0010236831 0.00081159 -4.160001e-05 -0.0017918819 -2.1195947e-05 -0.00031164297 0.00038472566
-0.0011738192 -0.0016225955 0.0002782561 0.0002146162 0.00080432376 -0.00074175873 -0.00043941505 0.0014909013
-0.0013184919 -0.00025423325 -0.00019793068 0.0013762184 0.0010350274 0.0011531543 0.00045184742 -0.0010599683
0.0031369177 0.00064930023 0.0017552124 -0.00076113123 -0.0008542868 -0.001205721 0.0012363374 -0.0009291302
0.0012097085 -0.00064414885 -0.0011416926 0.0016901304 -0.0014570494 -0.000510033 -0.0025940978 -0.0012414347
-0.0024098528 0.0010988147 0.0012345635 -0.0044892593 0.001956924 -0.00045899808 0.0002256515 0.0055439193
0.0004268008 -0.00068260764 0.0011045057 -0.0021076032 -0.002079842 0.0026858968 0.0006884752 -0.00080119976
0.0012784736 -0.0031977352 0.000810118 -0.00084465963 0.0029449153 0.0010571631 -0.00021903064 0.001999533
-0.000770248 0.0022518127 0.0012446726 0.0022967388 0.0005558394 0.001191639 0.0018220815 -0.0030747147
0.0030139638 0.001611754 4.83943e-05 0.0032413565 0.0021364624 -0.0010812802 0.0012714704 0.0005686304

exp_avg_sq f4 [2, 768]
00000000: ab05 5a38 9144 be38 82c6 dd38 b092 083a
00000010: e0ad 3039 58af 5039 be0a 1338 d8c7 8c38
00000020: 8be4 8a38 7bbc 2738 6d2c 8838 497a 4d38
00000030: 2275 a438 b3aa 9738 b39b 9938 e048 8138
00000040: 3249 2339 a2e9 9938 cce0 2e38 fe1f 6e38
00000050: 1d13 d638 117f 0638 3270 7f38 c0a3 f638
00000060: 54b5 5a38 77b7 8d38 a863 5538 0881 5538
00000070: 6cd9 2338 8c59 4638 0807 3f39 43c3 5239
00000080: d773 0038 b1b2 2238 80df f138 d60e 2538
00000090: aabd aa38 9c71 8b38 99f6 0b39 b227 8538
000000a0: 8201 1939 7200 1d39 d20c 1f38 2f8f 4138
000000b0: 2676 5638 1a8e 4538 16f6 3a38 a73e 9938
000000c0: 76a2 2938 af64 8b38 3f0f 5138 6778 1738
000000d0: 8dda 1938 63b3 f538 9035 6738 497b dc38
000000e0: 8736 1a38 609d b738 8878 0338 0f15 6238
000000f0: d51d 8738 2d0b 0439 ff8c b238 26fa 4238
00000100: 27f5 4138 0d27 1438 dc13 bc37 eba6 3138
00000110: 6683 d337 ed56 2538 1a39 6a38 c72d bc38
00000120: ea22 7438 1f18 7639 b9d0 8c38 bbb6 8438
00000130: e06f 5b38 d76b c13b f586 a038 208c de38
00000140: ce3e 2d38 8c2d 8338 482f 0c3b 7be1 2338
00000150: 8f30 6338 56a5 8f39 d965 6f38 0215 8c38
00000160: aad6 6d38 39a2 5038 6a64 a738 b75a 9c38
00000170: c1fa a238 88ef 8839 97fc 5038 10af 9238
00000180: c050 c438 b8dd d039 436e 2838 15b4 c438
00000190: 737b ce38 d70e 4938 ddb4 5639 fdd1 fd37
000001a0: 27ad d238 76ef 5738 ae97 c038 052c bc38
000001b0: a49d 2138 c885 2e38 0ac4 7838 71cc 1839
000001c0: 9574 c838 bde6 5d38 9459 3738 d867 b938
000001d0: 14d3 3438 7a49 4038 9d41 3038 30b4 2d39
000001e0: 4367 0038 5cd8 2b38 4757 b539 a871 c338
000001f0: 0384 6139 5f41 9f38 e435 b138 6ffd 0439
00000200: e0f2 1338 f7c9 5238 6d7c c137 96ee 0e3a
00000210: 2bd3 5938 d71d c038 912c 5a38 4b81 a038
00000220: d9f5 2e38 ba12 9738 7bcb dc37 ce99 fa37
00000230: f35e 6038 e11c 0c38 ad48 0a38 1f3a cd37
00000240: 4342 bb38 317f de37 235e 3638 1170 5a38
00000250: d689 2438 e733 9438 60b1 b438 4351 dd38
00000260: 4cb5 5938 ac7a 9738 8c62 d338 dd4d a438
00000270: b2ad a338 6cd3 a238 9aa8 8b38 359d a938
00000280: e277 1c38 0e9c d938 f8e5 9838 3937 af38
00000290: 6ec6 1e38 d787 5238 08a5 3739 c78c 9638
000002a0: a7e1 4b38 46ac 2939 0e7d e138 25c8 0d38
000002b0: 61b0 5338 a6c6 6638 630e 9838 6300 8b38
000002c0: acfb 2738 b6fd 5238 edda 0338 d866 1438
000002d0: 3e45 8738 edab d838 fda1 7438 7625 0238
000002e0: c3af 7438 930b 7238 19bf 4a38 8b54 cd38
000002f0: 18db b238 b323 0d38 731c 2438 8ced 9e38
00000300: 0eb6 5b38 3c3d df38 2a79 ca38 cca4 8a38
00000310: 7d37 5138 1d5c b538 6c20 7238 93aa a437
00000320: cb9d 0239 9f7f 9938 1fd4 a038 4176 1a38
00000330: 47dc 8e38 4546 b638 e5c3 b438 16a3 0338
00000340: 52b8 1038 71bb ed38 48ba 1838 04a6 8c38
00000350: 6435 7438 f631 7639 6a3b 4338 c1f8 8f38
00000360: 5425 5238 19c4 363a 17fd db38 dbaf 123a
00000370: 3d21 4c38 f39f c838 ddda 3338 4686 5b39
00000380: 7d3a 8a38 ff18 c538 5519 7e38 e740 0f38
00000390: 8236 9238 b615 b638 5e4b 3938 7ef4 7a38
000003a0: fc6c 8338 af05 1139 5056 8038 7fc1 8d38
000003b0: 04a7 c638 e36a f737 e308 5f38 91ce 4e38
000003c0: 3f34 0f39 9447 8738 40e4 6b38 dad1 9838
000003d0: ec14 9e38 9f9f 7138 22b7 2138 6ed5 4e39
000003e0: dbe8 7738 f42f 4838 8e4a 2f38 545c a538
000003f0: bcd8 bc38 f8c9 8338 d547 8038 8420 3738
5.198053e-05 9.0726775e-05 0.00010575076 0.00052098464 0.00016849441 0.00019901746 3.5057536e-05 6.712944e-05
6.622922e-05 3.999144e-05 6.49326e-05 4.8989696e-05 7.841947e-05 7.232036e-05 7.32461e-05 6.1647734e-05
0.00015572159 7.339126e-05 4.169419e-05 5.6773417e-05 0.00010207875 3.206643e-05 6.0901228e-05 0.00011760695
5.2144125e-05 6.757577e-05 5.087597e-05 5.0903327e-05 3.906472e-05 4.7290276e-05 0.00018217799 0.00020099901
3.0625462e-05 3.879023e-05 0.000115334056 3.9352883e-05 8.1415594e-05 6.649198e-05 0.00013347938 6.349328e-05
0.00014591779 0.00014972853 3.7920494e-05 4.6148136e-05 5.113161e-05 4.7100802e-05 4.457504e-05 7.3072784e-05
4.0444043e-05 6.64679e-05 4.9843682e-05 3.611334e-05 3.6681584e-05 0.00011715924 5.5124576e-05 0.00010513381
3.6767244e-05 8.7554334e-05 3.1345087e-05 5.390221e-05 6.442858e-05 0.00012592664 8.513964e-05 4.6486173e-05
4.62431e-05 3.532232e-05 2.2420594e-05 4.2355543e-05 2.5214347e-05 3.942002e-05 5.5843127e-05 8.973065e-05
5.820665e-05 0.00023469374 6.714598e-05 6.328287e-05 5.231786e-05 0.005902748 7.654532e-05 0.00010611885
4.1304906e-05 6.2550505e-05 0.0021390487 3.9072223e-05 5.416624e-05 0.0002739827 5.7076893e-05 6.679633e-05
5.6705125e-05 4.9742146e-05 7.981884e-05 7.4555566e-05 7.7714685e-05 0.00026118406 4.9826307e-05 6.9944304e-05
9.361049e-05 0.00039838045 4.015701e-05 9.379551e-05 9.84584e-05 4.7935955e-05 0.00020476007 3.0257734e-05
0.000100458325 5.148301e-05 9.183526e-05 8.972738e-05 3.8532206e-05 4.1609426e-05 5.9310383e-05 0.0001457201
9.558458e-05 5.2905398e-05 4.3714026e-05 8.84083e-05 4.3111926e-05 4.5844798e-05 4.2022777e-05 0.00016565691
3.0613748e-05 4.0971077e-05 0.00034588037 9.319495e-05 0.0002150685 7.593887e-05 8.4500556e-05 0.00012682912
3.5273726e-05 5.0255996e-05 2.3065333e-05 0.0005452422 5.1933497e-05 9.1608315e-05 5.2016756e-05 7.653477e-05
4.1713796e-05 7.203729e-05 2.6320797e-05 2.9873943e-05 5.349419e-05 3.3405497e-05 3.296945e-05 2.446497e-05
8.929197e-05 2.652369e-05 4.3479853e-05 5.207962e-05 3.9229017e-05 7.0668575e-05 8.6161075e-05 0.000105532374
5.1905678e-05 7.2230905e-05 0.0001007962 7.8346326e-05 7.804799e-05 7.764142e-05 6.659441e-05 8.08783e-05
3.7304948e-05 0.00010376434 7.29076e-05 8.354936e-05 3.7854938e-05 5.0194412e-05 0.00017513719 7.178779e-05
4.8609127e-05 0.00016181273 0.00010752129 3.380342e-05 5.0470586e-05 5.502128e-05 7.2506045e-05 6.6281085e-05
4.005029e-05 5.030419e-05 3.1436724e-05 3.538173e-05 6.450199e-05 0.00010331706 5.8324997e-05 3.1029303e-05
5.8337824e-05 5.7708075e-05 4.8338527e-05 9.790909e-05 8.528511e-05 3.3650267e-05 3.9127142e-05 7.578274e-05
5.238322e-05 0.000106448744 9.654679e-05 6.6110486e-05 4.988116e-05 8.64791e-05 5.772749e-05 1.9629753e-05
0.00012456549 7.31938e-05 7.668905e-05 3.6826594e-05 6.8121175e-05 8.691525e-05 8.619557e-05 3.138472e-05
3.4503937e-05 0.00011335954 3.6413112e-05 6.706643e-05 5.8223857e-05 0.00023479 4.6546957e-05 6.8651054e-05
5.0102666e-05 0.000697197 0.000104898754 0.00055956625 4.8668346e-05 9.566536e-05 4.2880758e-05 0.00020935488
6.591247e-05 9.398348e-05 6.058191e-05 3.4154302e-05 6.9719754e-05 8.68248e-05 4.417763e-05 5.9832346e-05
6.266867e-05 0.00013830395 6.1195926e-05 6.7594454e-05 9.472485e-05 2.9494468e-05 5.317562e-05 4.9306607e-05
0.00013657006 6.450634e-05 5.624094e-05 7.287013e-05 7.537924e-05 5.7607536e-05 3.8555947e-05 0.000197252
5.9106253e-05 4.7728376e-05 4.1792686e-05 7.8850106e-05 9.0049085e-05 6.2841864e-05 6.1168954e-05 4.3660883e-05

exp_avg f4 [2]
00000000: ba4e 1f3a 524e 1fba
0.00060771 -0.0006077039

exp_avg_sq f4 [2]
00000000: 54e2 9539 54e2 9539
0.00028588122 0.00028588122
