2024:05:01_ckpts/operational/Linear/lr_0.001_epoch_100/11.pth (torch, 21085 bytes, 6 tensors)

linear.weight f4 [2, 768]
000000 0b 35 b4 3d ea 69 29 3e 1b a3 0d be 87 18 9b be
       0.0879918 0.1654431 -0.13831751 -0.3029215
000010 32 e1 e1 3d 89 8c b5 3e 8d f1 1c bf 5a 27 1c 3e
       0.11029281 0.35458782 -0.6130608 0.15249386
000020 43 0f b3 bb 6b e0 65 3e a8 f7 18 3e f3 37 53 3e
       -0.005464466 0.2244889 0.14938223 0.20626812
000030 16 25 6e be b5 26 5a 3e a6 38 bb 3d ad 25 47 3e
       -0.23256335 0.21303828 0.09141664 0.19447966
000040 be 60 37 bb 2d 30 16 be e0 49 92 bb b0 34 65 bd
       -0.0027981247 -0.14666815 -0.004464373 -0.05595845
000050 2e 09 99 bd 33 fa 43 be 79 2c f2 be a6 18 94 3e
       -0.07472454 -0.19138412 -0.47299555 0.28925055
000060 da 6d b3 be 28 f3 53 3d 64 c0 28 3e 9f d7 2e 3e
       -0.35044748 0.051745564 0.16479641 0.1707444
000070 4e 1b 1a ba 7d 4a 21 bd 80 1b 84 3e d3 7c 32 3e
       -0.00058787025 -0.03937768 0.2580223 0.17430429
000080 90 9c 3a 3e 42 4e a2 3e 5b 7c 3a be c0 0b 65 3d
       0.18223786 0.3170033 -0.182115 0.05591941
000090 5c 9f e4 bb 1a 25 98 bc 51 8c 22 3e 8f 33 6c bc
       -0.006977005 -0.018572379 0.15873839 -0.014416589
0000a0 91 01 a2 3d 58 dd c5 3e 49 e9 09 be 51 6b 08 bd
       0.07910455 0.38645434 -0.13467897 -0.03330547
0000b0 15 af bc 3e bc fe e9 3d fb 5a 3f bf af 1f e6 3e
       0.36852327 0.1142554 -0.747482 0.44946048
0000c0 c2 b5 28 3d 2a 19 86 3e 29 73 02 be 65 6e 8e be
       0.041188963 0.26191074 -0.12739243 -0.278186
0000d0 75 2f e2 3e 9e 35 29 3e 43 9b 0f be 97 47 b3 bd
       0.44176832 0.1652436 -0.14024071 -0.08753889
0000e0 38 e0 5a bd 62 9f fe 3d 78 0a 93 bd 09 eb 72 be
       -0.053436488 0.124327436 -0.07179731 -0.23722471
0000f0 8d 46 4f 3e 4a 5f ee bd f7 fd 4a 3e 72 97 7f bb
       0.20241757 -0.11639269 0.19823442 -0.003900018
000100 8d 99 9c 3d 9f 5e b4 be cd a6 b8 be 95 40 d2 bd
       0.07646475 -0.3522844 -0.3606476 -0.10266224
000110 7b ba af 3e 96 3a 2e bd ea 0c 64 3d 6b 38 b4 be
       0.3432196 -0.04253634 0.05567638 -0.35199293
000120 63 9c dc bd b8 81 db 3d 7e 9a df bd 82 42 f2 bd
       -0.10772016 0.10718101 -0.10918139 -0.118290916
000130 81 1f 2e be 25 87 9a bd 02 a2 85 3d 38 b9 80 3e
       -0.17004205 -0.07545308 0.06525041 0.2514131
000140 56 c8 a2 3b ae e8 3a be a4 bb ee 3d 3c e4 a5 be
       0.0049677296 -0.18252823 0.11656883 -0.32400692
000150 d1 92 b5 3e 4c 30 b0 be 71 bc 13 be d2 50 b2 3e
       0.35463575 -0.34411848 -0.14427353 0.34827286
000160 f1 84 47 be 34 ec 0e 3e 05 e7 09 3f 08 06 c4 3d
       -0.19484307 0.13957292 0.5386813 0.09571463
000170 6e f9 77 bd e5 39 8f 3e 4e 42 f6 bd fd 0c 28 3d
       -0.06054061 0.27973858 -0.12024365 0.04102801
000180 4b 24 dd 3d 5f 41 5f 3b 9e a9 e1 3d b4 d2 32 be
       0.10797938 0.0034066064 0.1101868 -0.1746319
000190 a4 5f 87 bd 9f c4 1a be 6b 48 22 be 1b 95 82 3e
       -0.06610039 -0.15114067 -0.15847938 0.25504383
0001a0 d4 17 b7 be 42 c3 ef 3e 78 57 c8 3e 54 5a bf bd
       -0.35760367 0.46828657 0.39129233 -0.093434006
0001b0 53 a0 1c be a8 70 0b be 36 ca 14 3e a5 32 99 3e
       -0.15295534 -0.13617194 0.14530262 0.2992145
0001c0 67 e3 5e 3e 5b 5d ce 3e 91 0f ea be 71 4e 3b 3e
       0.21766435 0.403056 -0.45715 0.18291642
0001d0 00 9c 36 be bb e5 a3 be 49 66 60 be ff d8 8c bd
       -0.17832947 -0.32011208 -0.21914019 -0.06877326
0001e0 a1 71 1e bd 83 8e b8 be 70 42 35 3e c1 a4 e4 3b
       -0.038682584 -0.36046228 0.17701125 0.006977648
0001f0 9c fc 65 3e 40 07 3e 3d 98 3c 07 3d c3 5e d7 3c
       0.22459644 0.046393633 0.03301677 0.026290303
000200 54 0b f1 3d 13 b4 74 3e cd dd 05 3e 85 a0 cb 3c
       0.11769739 0.23896818 0.13072892 0.024856815
000210 c4 cd fd 3d a8 d2 49 be 6a 6a 56 be ad 16 3a 3e
       0.12392762 -0.19709265 -0.20939031 0.18172713
000220 05 36 7b 3e 14 06 b7 3e 74 64 f6 bd 56 a8 15 bf
       0.24532326 0.35746825 -0.12030879 -0.58459985
000230 35 56 d1 be e2 5a 2f bd 08 82 ea be de b1 d5 be
       -0.40886083 -0.042811282 -0.4580233 -0.41737264
000240 c5 9a 35 3e 67 35 c3 be 3a 7a 01 3d 83 75 5f 3d
       0.17734821 -0.3812668 0.031610705 0.054555427
000250 ff fa 8c 3e a4 14 e3 3c 24 b0 17 3c 4e d3 04 bf
       0.27535245 0.027719803 0.009258304 -0.51884925
000260 a9 d5 ba be 69 01 69 be de 47 a1 3e 20 04 04 3f
       -0.36491135 -0.22754444 0.31500143 0.51568794
000270 25 d9 8e 3e 5a d9 27 be c0 e1 54 be 6b 17 97 bc
       0.27900043 -0.16391507 -0.20789242 -0.018443784
000280 93 28 5a bd c7 5b 09 3e 09 c3 11 3d 95 35 aa 3e
       -0.05326135 0.13413917 0.03558639 0.33244005
000290 0f 4c 7c be c9 dc 73 3e 36 b7 19 be 75 83 c8 be
       -0.24638389 0.23814692 -0.15011296 -0.39162794
0002a0 0b ff 25 3e df 55 8e 3e 55 d4 a6 3b 0a 9f 4e be
       0.16210572 0.2779989 0.00509123 -0.20177856
0002b0 4e 84 b2 3e ce 42 83 3e ad 58 81 3d fb 93 fa bd
       0.34866565 0.25636905 0.06315742 -0.12235256
0002c0 c0 03 19 3e 08 39 c9 3d 90 41 8a be 18 ed e2 bd
       0.14942837 0.09825331 -0.27003145 -0.11080378
0002d0 46 11 82 3e b6 db 44 be b8 bd f9 3e cb 2d 55 be
       0.25403804 -0.19224438 0.48777556 -0.2081825
0002e0 39 68 b2 3d 2e 9a 96 be de 75 7f be f0 11 bf bd
       0.08711285 -0.29414505 -0.24947307 -0.09329593
0002f0 64 92 12 3e 17 96 c3 3c 09 ac d4 3d 2f 0e 23 3e
       0.14313656 0.02387528 0.103843756 0.1592338
000300 7d 60 b5 3e fa 5d 58 be 7c 80 18 3d 32 db 99 3d
       0.35425177 -0.21129599 0.037231907 0.07512511
000310 57 aa 56 3d 28 74 dc 3c 5e ac 87 be 6e 3c 96 bc
       0.052408542 0.026910856 -0.26498693 -0.018339362
000320 c6 01 71 be 84 bd f0 be 6b 71 a7 be 47 e8 20 3e
       -0.23535833 -0.4701959 -0.3270372 0.15713607
000330 1e 88 0a 3e 95 d8 3e 3e 2e 14 42 3d 93 10 96 3e
       0.13528487 0.18637307 0.047382526 0.2930952
000340 3b 62 ae bd cc b9 da 3b 55 34 05 3c 0e b5 94 be
       -0.0851483 0.0066749807 0.008130153 -0.29044384
000350 f5 bb f2 bd d1 60 dc 3d be 8a 3e be 7f dd d7 3c
       -0.11852256 0.10760654 -0.18607613 0.026350735
000360 5a 25 9f 3e 59 02 25 bc 31 dd a1 3d be b2 2f 3e
       0.31083184 -0.0100713605 0.07903517 0.17158028
000370 da 9a 23 bf cd 62 37 3e 5f 86 48 be 53 6b 4f 3d
       -0.6390816 0.17908783 -0.19582509 0.05063946
000380 f7 79 2f bd f0 ae d0 b9 57 cc 18 bf 71 27 22 3e
       -0.042840924 -0.0003980319 -0.596868 0.15835358
000390 0a fb 76 3e 3d 96 e9 3c 77 32 e5 be c6 58 59 bd
       0.24119201 0.028514022 -0.44765064 -0.053063177
0003a0 31 98 3c 3e 36 17 90 bd 26 a4 9e 3d cd a4 10 3f
       0.18417431 -0.07035677 0.077461526 0.56501466
0003b0 5e 7b 1d 3e d4 be 32 be 82 35 ea be d9 0b be bd
       0.15379092 -0.17455608 -0.45743948 -0.092796035
0003c0 e3 d3 72 3d 0e 34 80 3d 2f 9b 8f 3c dd b6 8a be
       0.059284102 0.06259929 0.017530052 -0.2709264
0003d0 67 df f2 3d 02 33 08 bf be 82 c8 3e 67 f5 9a 3e
       0.11859017 -0.5320283 0.39162248 0.30265352
0003e0 4d e6 a7 3e b9 bc 4c be a5 35 ae be 8a 1e 7c be
       0.32792893 -0.19993867 -0.34025303 -0.24621025
0003f0 db 47 67 bd 11 f9 b4 3d b9 aa 4f be ed b0 a3 3d
       -0.05646501 0.08836568 -0.2027997 0.0799273

linear.bias f4 [2]
000000 4d 2d b6 3d d5 f7 e6 bd
       0.08895359 -0.11277739

exp_avg f4 [2, 768]
000000 f6 59 19 37 96 fe cf 39 50 d5 8c ba 04 5a 73 3b
       9.140456e-06 0.00039671798 -0.0010744724 0.003713251
000010 7c 53 40 3a 86 e6 85 bb 98 c0 a1 3a 16 e1 47 3b
       0.0007336659 -0.0040863184 0.0012340723 0.0030499152
000020 e0 67 8d 39 6a 95 39 3a 54 eb 01 bb 4f f4 fd 38
       0.0002697101 0.00070794544 -0.0019824104 0.00012109486
000030 78 10 f6 3a d1 73 0b 3a 4a 5d 0e ba 5f a5 1f 3a
       0.0018773219 0.0005319687 -0.0005430771 0.0006090011
000040 ec f0 2b 3b f3 21 a9 ba bf ed 95 39 7b 2e ea 3a
       0.002623613 -0.0012903794 0.0002859663 0.0017866635
000050 e9 f5 0a bb 73 a3 a3 39 09 c8 19 3b 04 c6 78 ba
       -0.0021203703 0.00031211562 0.0023465178 -0.0009489956
000060 a5 8c 68 3a 30 6e bd 39 d3 7c cb 3a 7a d1 a4 b8
       0.00088710553 0.00036130985 0.0015524871 -7.8591474e-05
000070 de bc 42 ba 04 ec 63 b9 fe 48 02 ba 9c 5d 61 3a
       -0.0007428656 -0.0002173633 -0.0004969983 0.0008597018
000080 05 99 fb b9 40 ee 08 b9 78 bc 61 b9 43 7f ed 3a
       -0.0004798846 -0.00013058726 -0.00021527882 0.0018119592
000090 5f d8 39 3b e2 f2 b9 3a d8 77 47 ba ab f3 a4 b9
       0.0028357727 0.0014186765 -0.00076091057 -0.00031462064
0000a0 89 e0 28 3a 44 d0 0c bb 8a 76 68 3a 07 61 1f 3a
       0.000644215 -0.002148644 0.00088677614 0.0006079827
0000b0 74 db 0f bb 57 a2 38 ba e1 22 54 ba 01 c9 fe 3a
       -0.0021950873 -0.00070432335 -0.00080923556 0.0019438566
0000c0 a4 7d bc 38 63 b6 9c ba 2c 45 c0 b9 79 c6 d9 b9
       8.987941e-05 -0.0011956211 -0.0003667263 -0.0004153734
0000d0 6f 3d 85 ba 78 f5 6a 3b 55 b2 eb 3a 1e fc 9d ba
       -0.0010165403 0.0035851877 0.0017982224 -0.0012053286
0000e0 54 f4 94 ba 2b 0b 61 3b dc 9d 34 3a f7 7d 07 ba
       -0.0011364319 0.0034338932 0.0006889978 -0.00051686115
0000f0 e7 1a d7 b9 b3 5f 07 39 72 96 68 3a 3d e7 a5 ba
       -0.0004102804 0.00012910254 0.0008872516 -0.0012657415
000100 a3 0e b6 39 33 66 52 3a 5e dc 39 3a 2e 9a ff b7
       0.0003472465 0.0008026093 0.0007090027 -3.0470164e-05
000110 29 2d b6 3a 5a 1e 1e b9 07 21 2b 3a 97 ca 65 3a
       0.0013898957 -0.00015079361 0.0006528054 0.0008765845
000120 e9 a6 05 3a 7e e6 04 bb 51 8c f3 ba 81 0b 2a 3a
       0.0005098419 -0.0020278986 -0.0018581246 0.00064866996
000130 cf 25 f1 ba 80 1d 55 bb 67 3f d8 39 2a 95 06 bb
       -0.0018398109 -0.0032518804 0.0004124597 -0.0020535686
000140 8d b9 25 3b 52 03 0a ba fd b2 0c bc 25 66 e3 39
       0.00252876 -0.0005264777 -0.008587596 0.00043372918
000150 5f 63 a6 3a 55 23 79 bb 01 c1 d6 ba aa 48 7c ba
       0.001269441 -0.0038015444 -0.0016384424 -0.0009623865
000160 fe 50 b9 3a bb bf 8b ba 11 cd de b8 96 ff 94 3a
       0.0014138517 -0.0010661999 -0.000106239815 0.0011367674
000170 9f 31 99 b7 bf 16 57 3b 5a a1 0f 39 bb 9e b4 ba
       -1.8262128e-05 0.0032819954 0.00013697651 -0.0013780216
000180 38 2f 8c b8 56 de 87 ba d3 44 f3 b8 1c 94 49 3a
       -6.6845154e-05 -0.0010365944 -0.000115999625 0.00076896115
000190 1f bb f6 3a 76 57 9e ba c1 9d 19 3b 31 f1 7d 3a
       0.0018824077 -0.0012080509 0.0023439976 0.00096871244
0001a0 de 52 34 3b 5a 1a 7a 39 2a 93 b5 ba f5 f0 9a 3a
       0.0027515213 0.00023851675 -0.0013853062 0.0011821078
0001b0 02 d9 cc 39 c8 b4 11 3a cf 4b 7f 3a a6 c2 bd 3a
       0.00039071596 0.00055582495 0.00097387744 0.0014477565
0001c0 f8 3c 92 b9 04 a2 2c ba 97 d3 a7 b9 14 01 9a ba
       -0.00027892715 -0.00065854215 -0.0003201037 -0.0011749589
0001d0 bd cc 3b 39 35 50 a6 3a fa 52 10 3b 39 fe e6 3a
       0.0001790998 0.0012688698 0.0022022114 0.0017623372
0001e0 96 11 f5 b7 2b 52 f8 39 7d c7 6f 3b cc 10 73 3b
       -2.9214465e-05 0.00047363466 0.003658741 0.003708887
0001f0 7a 30 13 3b 6c 82 ef 3a e9 f6 63 38 1a 53 04 3b
       0.0022459314 0.0018273122 5.435097e-05 0.0020191134
000200 30 04 8a 38 b4 c7 19 3b 4e 28 a5 38 04 32 51 3b
       6.581133e-05 0.002346498 7.8753204e-05 0.003192068
000210 11 03 a8 3a f0 a1 63 3b e8 28 f8 39 30 ee 68 b8
       0.0012818297 0.0034733973 0.00047332724 -5.553494e-05
000220 01 97 b9 b9 69 0b 6a ba 7e 79 8a 39 8b 2b 7c 39
       -0.00035398456 -0.0008928092 0.0002641193 0.00024048814
000230 3e be ee 38 73 9d c9 ba 39 f8 22 ba 87 f9 4c b8
       0.0001138416 -0.0015382007 -0.00062167976 -4.886978e-05
000240 1d 26 1c ba a0 ca 4e ba 30 c0 b4 b9 4f 45 8e 3a
       -0.0005956607 -0.000788847 -0.00034475466 0.0010854396
000250 c4 a6 8f b9 38 c1 f4 39 07 a7 01 bb 9c 25 f3 38
       -0.00027399336 0.00046683266 -0.0019783394 0.00011594148
000260 26 e5 2c 3b cf d4 00 bb 7e d2 8a 3a 73 5a 27 bb
       0.00263817 -0.0019658094 0.0010591296 -0.002553609
000270 a7 11 79 ba f4 7a 23 3a ed 42 9a ba 79 b4 e5 3a
       -0.00095012266 0.0006236278 -0.0011769213 0.0017525099
000280 b1 7f 02 ba 66 87 db 39 29 43 8f ba 96 be b9 3a
       -0.0004978134 0.00041871815 -0.001093005 0.0014171179
000290 a0 6a 23 bb 18 48 46 ba c9 62 fe 3a 0a 18 60 3a
       -0.002493538 -0.00075638434 0.0019408102 0.0008548504
0002a0 d3 c4 cf ba be 82 75 b9 8a 16 8f 3a 44 12 59 3a
       -0.0015851505 -0.00023413726 0.0010916751 0.0008280615
0002b0 50 1e 5d 3a fb ae 88 3a ab 24 25 ba 84 8a 2b 3a
       0.0008434998 0.0010428125 -0.00062997144 0.0006543773
0002c0 52 4e 6a b8 0c a6 ed b8 6e 63 fa 3a ce 5c 21 39
       -5.586289e-05 -0.00011331969 0.0019103119 0.00015388729
0002d0 ec 14 8a b9 cf 58 3a bb 9b 8b 8a ba 52 2f 05 3b
       -0.00026337 -0.0028434282 -0.001057017 0.0020322395
0002e0 79 79 9a b9 c2 cb a5 3a ca 7e 70 39 fe 5c b6 3a
       -0.00029463673 0.0012649226 0.00022935416 0.0013913212
0002f0 ea 7d bc 38 cb 69 e3 3a 5d 62 cf 3a a5 bf 95 3a
       8.987992e-05 0.0017350254 0.0015822161 0.0011424912
000300 38 8f e5 b9 2e 5f 7a ba ac 01 65 3a 02 9e 23 3a
       -0.0004378499 -0.0009550926 0.0008735906 0.00062415015
000310 8f a1 9a 3a 7a 95 37 3b dd 0c 36 ba 23 00 6b 3a
       0.0011797416 0.002801268 -0.0006944666 0.0008964559
000320 ad ab 45 3a bd f7 5c 39 78 a1 83 3a 26 77 8d 39
       0.00075405353 0.00021073125 0.0010042628 0.00026982388
000330 4d 62 db 3a 68 cf da 3a 2d f8 18 3a 29 f2 28 39
       0.001673767 0.0016693892 0.0005835321 0.0001611194
000340 7b 24 79 ba 4a 4c 26 bb 16 36 a9 ba 4c e0 fc 38
       -0.0009504032 -0.0025375062 -0.0012909796 0.00012058075
000350 86 e0 78 39 c3 1f 55 3b c9 47 5f ba da 78 00 3b
       0.00023734765 0.0032520152 -0.0008517472 0.0019603283
000360 c2 b0 04 bb b9 54 5e bb 92 be 49 3b 0f 4b ee bb
       -0.0020246957 -0.003392501 0.0030783755 -0.0072721313
000370 a8 35 b2 39 f5 a0 87 3a c3 ce ec b8 cc e8 09 3a
       0.00033990783 0.0010347652 -0.00011291869 0.00052608247
000380 9f 4b f5 38 15 4c 69 39 5c 0e 1f b9 4a a2 6c 38
       0.00011696596 0.00022248954 -0.00015168771 5.6417928e-05
000390 3a dd a4 3a 35 1f 01 bb 34 39 6d 38 42 70 e0 38
       0.0012578138 -0.0019702439 5.6558478e-05 0.00010702062
0003a0 cb 6c 89 ba 54 ab c1 ba 60 59 d0 3a 6d 70 6a bb
       -0.0010484693 -0.0014775791 0.0015895776 -0.0035772577
0003b0 62 72 5a 3a 29 91 34 b8 96 39 e5 ba 50 c3 2d 3a
       0.00083330844 -4.3050535e-05 -0.0017488475 0.000662853
0003c0 45 f2 0e bb 07 c6 a1 3a e5 b9 42 3a c0 7a 4b 3a
       -0.0021811884 0.0012342342 0.0007428213 0.00077621266
0003d0 b5 96 66 b9 07 53 ad 3a 23 1a 54 ba 9f 5f a9 3a
       -0.00021990652 0.0013223597 -0.0008091053 0.0012922174
0003e0 40 34 2a 3a 32 f7 7a 3a 36 f0 c9 3a b6 fc 1d 39
       0.0006492771 0.0009573578 0.0015406671 0.00015066829
0003f0 09 f5 21 3a 9c ed 64 3a 38 ba 8c b9 4d c7 00 3b
       0.00061781757 0.00087329163 -0.00026841625 0.0019650043

exp_avg_sq f4 [2, 768]
000000 55 a1 bb 37 a8 5e 15 38 88 f6 42 38 5b 1b 95 39
       2.2367263e-05 3.5612524e-05 4.6482804e-05 0.00028439876
000010 07 8f df 38 44 a8 0a 39 ff 2d 67 38 7b d7 d1 38
       0.000106601095 0.0001322339 5.511753e-05 0.00010006033
000020 90 e4 e1 37 03 96 12 38 2f 66 7e 38 c0 39 3f 38
       2.6928523e-05 3.4948822e-05 6.0653485e-05 4.5591732e-05
000030 23 b3 95 38 c2 9c 8d 38 e5 35 49 38 81 5d 10 38
       7.1382405e-05 6.752602e-05 4.7972328e-05 3.4419358e-05
000040 23 3e 08 39 27 9c be 38 d6 4c 1e 38 5c 47 93 38
       0.00012993118 9.088992e-05 3.7741695e-05 7.022798e-05
000050 9d b0 a4 38 9b b1 48 38 32 ee ab 38 e6 81 8e 38
       7.853026e-05 4.7849124e-05 8.198283e-05 6.795283e-05
000060 98 ef 3e 38 f7 ef 5b 38 e7 6a 04 38 23 d7 51 38
       4.552267e-05 5.2437153e-05 3.1570813e-05 5.0029845e-05
000070 d0 c1 f0 37 27 35 16 38 92 8d b1 38 63 a4 c8 38
       2.870048e-05 3.581229e-05 8.466387e-05 9.5673626e-05
000080 95 b2 d9 37 91 89 1b 38 77 f6 97 38 74 a4 6b 38
       2.5951575e-05 3.7083e-05 7.246149e-05 5.6181525e-05
000090 7f 21 d3 38 3e a5 60 38 7f de 9f 38 35 22 74 38
       0.00010067503 5.3559655e-05 7.623154e-05 5.820599e-05
0000a0 96 a8 e4 38 9b 80 fd 38 c0 b3 56 38 71 b3 cd 37
       0.00010903289 0.00012087935 5.118898e-05 2.4521463e-05
0000b0 e0 16 33 38 7c 2a 35 38 c7 78 4d 38 fa 6f 78 38
       4.269823e-05 4.319333e-05 4.898829e-05 5.9232094e-05
0000c0 6a 51 ac 37 bf 5c 28 38 34 a9 34 38 37 56 0a 38
       2.054191e-05 4.0140698e-05 4.3072927e-05 3.2982058e-05
0000d0 50 a3 ce 37 7d 16 01 39 2c 1a a1 38 8a 0b 5c 38
       2.4633162e-05 0.00012310776 7.681953e-05 5.2462834e-05
0000e0 4a 6b 06 38 a4 cd de 38 36 85 22 38 8d ea 2b 38
       3.204801e-05 0.000106240885 3.8747872e-05 4.098802e-05
0000f0 2d 67 61 38 52 0e c1 38 ed 57 5a 38 d2 47 06 38
       5.374027e-05 9.2056245e-05 5.2057138e-05 3.2014977e-05
000100 07 9a dc 37 15 5a 12 38 5c c5 ba 37 20 91 85 38
       2.6297768e-05 3.4893008e-05 2.226483e-05 6.368966e-05
000110 13 85 3e 38 fd f3 47 38 be 8e e8 37 b6 62 ae 38
       4.5423465e-05 4.767253e-05 2.7723025e-05 8.315353e-05
000120 0a 0b 1f 38 76 cd cb 38 da 9f cf 38 d4 4b 38 38
       3.7918835e-05 9.7180644e-05 9.900304e-05 4.393964e-05
000130 34 f7 2d 38 a4 62 38 3b 8d 2b 46 38 16 84 86 38
       4.147664e-05 0.0028134966 4.724744e-05 6.414221e-05
000140 50 3d 44 38 db 62 24 38 62 25 a6 3a 0f 49 f1 37
       4.6787143e-05 3.9192713e-05 0.0012675936 2.876346e-05
000150 63 94 18 38 93 32 40 39 e3 e8 76 38 a0 1f 4e 38
       3.637782e-05 0.00018329387 5.8867863e-05 4.914368e-05
000160 28 9d 0c 38 9b 6f 60 38 9a 42 7b 38 26 79 6c 38
       3.3524964e-05 5.3509702e-05 5.990509e-05 5.6379613e-05
000170 7b 9b 34 38 f5 04 3b 39 5a 76 19 38 a0 ee 3f 38
       4.3060147e-05 0.00017835556 3.6588266e-05 4.5760185e-05
000180 56 c0 46 38 31 d0 a9 39 fe 24 a5 37 04 cd ab 38
       4.7386005e-05 0.00032389307 1.9686759e-05 8.1921025e-05
000190 13 09 b6 38 c7 ec 14 38 2e 69 de 38 58 c5 cc 37
       8.6801265e-05 3.5506466e-05 0.00010605376 2.441059e-05
0001a0 93 f8 68 38 76 ed 65 38 68 87 50 38 ce 45 43 38
       5.5544613e-05 5.4819007e-05 4.971717e-05 4.6556634e-05
0001b0 71 a8 07 38 c3 dc ab 37 5e 66 1d 38 6b b5 a5 38
       3.234338e-05 2.0487589e-05 3.7527054e-05 7.901605e-05
0001c0 52 95 6b 38 c4 7c 20 38 be d2 03 38 a8 78 a1 38
       5.616743e-05 3.826317e-05 3.1429103e-05 7.699552e-05
0001d0 7b c8 2b 38 05 e2 7f 38 70 95 45 38 70 49 21 39
       4.095629e-05 6.1007235e-05 4.7107635e-05 0.00015381514
0001e0 43 69 32 38 51 52 5b 38 64 d8 2f 39 70 1c da 38
       4.253654e-05 5.2290332e-05 0.00016769912 0.00010400347
0001f0 9c 0f 49 39 77 75 ac 38 a6 61 72 38 5b ac f0 38
       0.00019174669 8.223479e-05 5.778824e-05 0.000114761955
000200 55 3f 29 38 43 77 5f 38 b9 7e a8 38 50 46 a1 39
       4.0351722e-05 5.3278414e-05 8.034468e-05 0.000307607
000210 64 6d fb 37 e7 6c 73 38 29 19 2e 38 c0 c2 31 38
       2.997247e-05 5.8037138e-05 4.1508265e-05 4.2381464e-05
000220 9d ce 29 38 7a ae 0b 38 88 a1 c9 37 b7 53 1b 38
       4.0485163e-05 3.3302676e-05 2.4036286e-05 3.7032845e-05
000230 1d 41 08 38 0f 7a 0f 38 08 92 7a 38 c8 98 f5 37
       3.248557e-05 3.4207533e-05 5.9740647e-05 2.927742e-05
000240 1c 15 ab 38 df 4f d7 37 85 3c 5d 38 6e 20 45 38
       8.157847e-05 2.566719e-05 5.274687e-05 4.6998663e-05
000250 1a ca fc 37 94 df 0d 38 66 91 b6 38 31 e4 2b 38
       3.0134852e-05 3.3825243e-05 8.705519e-05 4.0982097e-05
000260 82 a7 2b 38 dd 31 77 38 01 2a 72 38 6c f7 ae 38
       4.092558e-05 5.8935828e-05 5.7736415e-05 8.3430525e-05
000270 25 2d 3e 38 0a ec 77 38 fa 21 06 38 70 cc 54 38
       4.5341574e-05 5.9109218e-05 3.1979733e-05 5.0735136e-05
000280 61 68 3b 38 25 e5 64 38 91 15 51 38 59 9d 5d 38
       4.4681485e-05 5.4572844e-05 4.984957e-05 5.2837047e-05
000290 07 0b 31 38 5a 3a 4e 38 e2 4d af 38 df 66 83 38
       4.221036e-05 4.916857e-05 8.359157e-05 6.265728e-05
0002a0 ed a4 ba 38 ac d8 d3 38 e7 3a 8a 38 59 ba 05 38
       8.899891e-05 0.00010101622 6.591324e-05 3.188322e-05
0002b0 60 51 04 38 67 1a 58 38 05 dd 3c 38 f5 94 63 38
       3.154704e-05 5.1523002e-05 4.5028533e-05 5.4259745e-05
0002c0 aa d4 13 38 2b 73 3c 38 24 40 ee 37 a5 66 ab 37
       3.524559e-05 4.492995e-05 2.8401679e-05 2.0432586e-05
0002d0 b1 6d 38 38 b3 89 b5 38 f0 ac 37 38 57 d4 24 38
       4.3971177e-05 8.656401e-05 4.379166e-05 3.9298404e-05
0002e0 b6 6d 55 38 cb e3 54 38 ec 9a 19 38 90 c9 5a 38
       5.0885334e-05 5.0756888e-05 3.6622325e-05 5.216297e-05
0002f0 ce a9 79 38 a3 f8 2c 38 76 f2 39 38 84 84 19 38
       5.952437e-05 4.1239557e-05 4.4333246e-05 3.6601457e-05
000300 82 9d 6f 38 d7 a7 c4 38 e7 94 5b 38 59 eb 46 38
       5.712873e-05 9.377271e-05 5.2352345e-05 4.7426063e-05
000310 05 0a 3c 38 e1 f8 c6 38 1e bd 86 38 c6 42 f8 37
       4.4832024e-05 9.487733e-05 6.424844e-05 2.9594998e-05
000320 62 96 02 38 d1 0d 06 38 6e 91 58 38 87 ba 5e 38
       3.113447e-05 3.1960957e-05 5.1633855e-05 5.310264e-05
000330 59 52 63 38 1d ed df 37 1f 3c 32 38 15 f3 e1 37
       5.419771e-05 2.6694086e-05 4.24945e-05 2.6935284e-05
000340 08 31 35 38 97 e3 f8 38 b0 f0 d9 37 02 96 29 38
       4.3199427e-05 0.000118679534 2.5980495e-05 4.0432446e-05
000350 36 51 1d 38 60 d1 26 39 d5 f5 7d 38 ee df 47 38
       3.750735e-05 0.00015908992 6.054885e-05 4.7653848e-05
000360 44 69 40 38 da c6 c0 39 3c a9 64 38 af a7 ee 39
       4.5874403e-05 0.0003676925 5.4517048e-05 0.00045519831
000370 77 c1 0f 38 99 32 7d 38 7f 44 0f 38 9a c4 ef 38
       3.4274035e-05 6.0367023e-05 3.415765e-05 0.00011433028
000380 d4 79 2e 38 ed 75 9c 38 0a be 0f 38 32 71 b6 37
       4.1598294e-05 7.460625e-05 3.4270844e-05 2.1748801e-05
000390 e8 66 8b 38 a8 cf 86 38 f4 ed 09 38 ce 82 34 38
       6.647204e-05 6.428297e-05 3.2884956e-05 4.3037166e-05
0003a0 d1 e3 37 38 32 4a b0 38 69 95 6e 38 39 d0 76 38
       4.384277e-05 8.406154e-05 5.688277e-05 5.8844893e-05
0003b0 31 b3 20 38 8f c8 e4 37 7f 79 15 38 87 63 36 38
       3.8313858e-05 2.727311e-05 3.563752e-05 4.3484873e-05
0003c0 29 13 05 39 55 d8 7c 38 b2 36 d8 37 e7 fa 93 38
       0.00012691006 6.0282957e-05 2.5774676e-05 7.0562404e-05
0003d0 21 88 45 38 0b ab a0 38 79 82 e4 37 37 fe e8 38
       4.709524e-05 7.661254e-05 2.7240474e-05 0.00011109973
0003e0 f2 28 1d 38 9e 3e 12 38 96 eb 2c 38 b1 1f 6a 38
       3.746985e-05 3.486743e-05 4.1227402e-05 5.5819462e-05
0003f0 a0 13 1d 38 b9 65 25 38 e7 36 97 38 62 1b bf 38
       3.7449994e-05 3.9433802e-05 7.2104674e-05 9.11269e-05

exp_avg f4 [2]
000000 16 5c 5f 3b 01 5c 5f bb
       0.0034081987 -0.0034081938

exp_avg_sq f4 [2]
000000 00 de 5d 39 fc dd 5d 39
       0.00021158904 0.00021158898
