2024:05:01_ckpts/operational/Linear/lr_0.001_epoch_100/12.pth (torch, 21085 bytes, 6 tensors)

linear.weight f4 [2, 768]
00000000: ec31 4fbd f627 a23e 0661 01bd 0fa5 68be
00000010: 1bb2 133d fae0 133e 4fe2 f6be a018 933e
00000020: 7ef2 a8bc f3db 883e c358 283e 3a40 753e
00000030: dcc3 5abf e9c4 a73e 0b6e f23d f490 193e
00000040: 4353 a0be f52e 593e def9 8c3e 636d c0bd
00000050: be80 63bd 808a 843d 48ee 9bbe f9d5 ab3e
00000060: 239b 1dbf a381 3b3e 1cd4 5d3e 9e73 22bc
00000070: dc0a b9bd 401a 70bd c0b4 b53e 64ee 193d
00000080: 9103 8a3e 3a89 cf3e dd4e d83d 6824 083e
00000090: 6f89 dfbd d363 643d 81d5 473e c112 273c
000000a0: 2c1f 6c3e af70 133f acaf 7d3e a86c b93e
000000b0: b559 c03e e737 61bc b6de 63bf 6bd5 fe3e
000000c0: d012 9c3e 6529 5c3e 6a9a e03e 4b2c 06bf
000000d0: 83b8 d73e 0552 c2bd 3478 193e f771 06be
000000e0: 87aa 9e3a a742 953d 3b7d 67be 5093 af3d
000000f0: 5dc4 413e c627 e9bd cd74 6abe 3b73 373e
00000100: dff7 8f3d 766d 78bf 1eb5 97be 0c52 8abe
00000110: 1f17 d63e ce35 b1bd f084 9f3e 349b 92be
00000120: 38c1 2b3e 897e 8f3e 9821 84bd d0c6 7b3e
00000130: 8d09 793d b0c3 33bd 2328 5abe d7e2 18be
00000140: c7e1 153d b11b 94bd cdb7 463e 7dd5 81be
00000150: 273f 0b3e 0c11 b3bd ed8c 82bd 1613 083f
00000160: ecef 75bc b586 2b3e eb95 a03e 71b6 80bd
00000170: b3b5 693c 3743 e93e 2d93 863e 33c6 00be
00000180: 36cc 433e ee09 473e 42b5 09bf f327 57bd
00000190: 6624 79be 5f69 38be 1950 ba3d cf88 dc3d
000001a0: dde6 d6bd f3e2 9d3e efad ff3d a439 8bbe
000001b0: 6ee4 45be beaf adbe b939 573e 1bc5 38bc
000001c0: a10a 513e 602e b83e 1c78 12bf 4c0c fb3e
000001d0: fd98 9dbe c6c9 a0be 49a3 87be bd18 babc
000001e0: b2be e83d 754c 00bf 373c 27be 8496 36be
000001f0: d937 993e 53f2 3fbe 595f b73d 3643 183d
00000200: 8d26 44bd 8e12 91be 2958 123f a97e 913c
00000210: f763 013e 2023 ccbd eb91 9d3e 1eb9 2c3e
00000220: 0671 0ebe 3664 6b3e 6f5f 343f 8891 2abf
00000230: f9b9 3dbe 5f70 25be 4004 c7be 8366 19be
00000240: a0b8 2d3e 2c2b e7be 9a5f 883e c517 b33e
00000250: 00e9 a63e fc3c 02be eeb7 903e 3e48 0dbf
00000260: 2659 073e 9685 31be e2f8 d7bd 332e 2b3f
00000270: 5fc6 4e3e c9f5 4bbe 15c8 013d df85 bbbb
00000280: e5e4 873c 40fe 2b3d e8f0 02be ff0f b73d
00000290: d5cf 8bbe acfa 183e d3d5 eb3d 8d6e 493e
000002a0: 89d0 023d 97e1 0ebd 024e 573d 6adb 68be
000002b0: c143 fe3e 56b0 f83c a793 8d3e 5b1b c9be
000002c0: 4d13 18bd 5f22 ac3e 0f47 4cbf 17e3 d2be
000002d0: bf49 923d e6ce 2cbd c4aa 453e 3d9b 22bd
000002e0: 879f 3e3d a134 9dbe 78b5 fe3d c49c aa3d
000002f0: 5d11 01be b046 253c 4051 2d3d 5e73 7e3e
00000300: 0fb5 eb3e 1e59 1fbe 1efb 853c 7b6e 00bd
00000310: 5b03 c03e 14e7 e23d 9f0a dbbd 4f2f 8fbc
00000320: 8bd4 a9be bedb 69be b742 ca3d e50f dc3d
00000330: 6489 f43e cc33 093e d763 27bd 331f 4b3e
00000340: ec1d 95be e2fa f1bd 8974 a2be 72d6 27be
00000350: f71b d9be 34ab c6bd 7c9e abbe 1b74 a43e
00000360: 52b4 29be 3878 ce3d 3aa2 b83d 9551 173f
00000370: d04b 5ebe 2476 fc3e e51b 5cbe 91c1 583c
00000380: 5566 0ebe aa89 0dbc 2848 ebbe a3c4 c63d
00000390: 71a0 083f 7fba 423e 5d2b 55bf 4c36 793e
000003a0: be85 b03e 6241 b6bd ff59 6ebc 00ca da3e
000003b0: 2def 743d 1d80 29be 2b02 b7bd e66b e1be
000003c0: 8689 af3c 401c a53e aa8b 6a3d 5e04 a1bd
000003d0: f022 2f3e 5faf 63be e6fe 02be 5355 7f3e
000003e0: 8d4f 4e3e ab1d aebd 1a26 86be a50d 19be
000003f0: 2ffe 883e 7ceb 8a3e 36c4 883d f398 71be
-0.05058472 0.31671113 -0.03158667 -0.22719215 0.036058526 0.1444129 -0.48219535 0.28729725
-0.020623442 0.26730308 0.1644011 0.23950282 -0.8545511 0.32767418 0.11837395 0.14996701
-0.31313524 0.21209319 0.27534384 -0.09395864 -0.0555427 0.06471729 -0.30455232 0.33561686
-0.61564845 0.18311171 0.21662945 -0.009915261 -0.090352744 -0.058618784 0.35489464 0.037580863
0.26955846 0.40534383 0.10561917 0.13295138 -0.10914885 0.055759262 0.19515039 0.010197342
0.23058766 0.57593817 0.24774045 0.3621571 0.3756844 -0.013746238 -0.89011705 0.497722
0.30483103 0.21500166 0.4386781 -0.52411336 0.4213296 -0.094883 0.1498726 -0.13129412
0.0012105264 0.072881036 -0.22606365 0.085730195 0.18922563 -0.11384539 -0.22896118 0.1791505
0.070296995 -0.97042024 -0.2963037 -0.27015722 0.41814515 -0.086528406 0.3115611 -0.28634036
0.16772926 0.28026226 -0.0645172 0.2458756 0.060800124 -0.043887794 -0.21304373 -0.14930283
0.03659227 -0.07231844 0.19406052 -0.2535819 0.1359831 -0.08743486 -0.06374536 0.5315412
-0.015010815 0.16750605 0.31364378 -0.06284798 0.014264512 0.45559093 0.2628416 -0.12575607
0.19120869 0.19437382 -0.537922 -0.052528333 -0.24330291 -0.18008946 0.09097309 0.10768282
-0.104932524 0.3083721 0.12484347 -0.27192414 -0.1932542 -0.33923143 0.21018113 -0.011277462
0.20414211 0.3597288 -0.5721452 0.4903282 -0.30780783 -0.3140394 -0.26491764 -0.022716874
0.11364497 -0.50116664 -0.16331564 -0.17830855 0.2992542 -0.18744783 0.08953733 0.037173472
-0.047888327 -0.2833447 0.5716577 0.017760592 0.1263579 -0.09967637 0.3077539 0.16867492
-0.13910303 0.22987446 0.7045812 -0.66628313 -0.18527974 -0.16156147 -0.3887043 -0.14980511
0.1696496 -0.45150125 0.26635438 0.34979072 0.3259964 -0.12718576 0.28265327 -0.5518836
0.13217601 -0.17336115 -0.105455175 0.6686737 0.2019286 -0.19917978 0.031684954 -0.005722746
0.016588638 0.04199052 -0.12787211 0.08938598 -0.27307 0.14939374 0.11515393 0.19671078
0.031937156 -0.034883108 0.05256463 -0.2273995 0.49661067 0.030357521 0.27651712 -0.39278683
-0.03712778 0.33619973 -0.79795927 -0.4118888 0.07142972 -0.0421895 0.19303423 -0.039698828
0.046538856 -0.30704215 0.12436956 0.08330682 -0.1260428 0.010087654 0.042313814 0.24848697
0.46036574 -0.1556134 0.016355094 -0.031355362 0.3750256 0.11079231 -0.10695385 -0.017478613
-0.3316997 -0.22837731 0.09876006 0.10745219 0.4776107 0.13398665 -0.0408667 0.1983612
-0.2912439 -0.1181543 -0.31729534 -0.16390398 -0.42404148 -0.09700623 -0.3351935 0.3211983
-0.16572693 0.10081524 0.09015317 0.5910886 -0.21708608 0.49308884 -0.21495016 0.013229744
-0.13906224 -0.008638779 -0.45953488 0.09705474 0.53369814 0.19016455 -0.8326929 0.24337119
0.34477037 -0.088991895 -0.014547824 0.4273224 0.05979841 -0.16552778 -0.089359604 -0.44027632
0.021427881 0.32248116 0.0572621 -0.07862161 0.17103171 -0.22234868 -0.12792549 0.24934892
0.20147534 -0.085017525 -0.26200944 -0.14946611 0.26756427 0.27132785 0.06678049 -0.23593502

linear.bias f4 [2]
00000000: 6074 073e ae23 f3bd
0.13227987 -0.1187204

exp_avg f4 [2, 768]
00000000: f00f 8e3a 8916 cdb9 2744 ec3a 27c9 53bb
00000010: 43e9 5bbb 2968 863b 3bc7 a9ba 253c 8bba
00000020: cf18 953a 8f80 2739 e570 943a f13e ed38
00000030: 1257 0dbb 814e 82b9 f277 22ba aba2 1bba
00000040: 3823 56bb 655e 673a d0dd 873a 7f64 bfba
00000050: 3261 033b a2ae bcb9 10bb 18bb 8982 e538
00000060: 1c07 e2b9 58a7 343a 60e3 4eba 914b c13a
00000070: f476 f839 4c16 3f3a eb66 533a ec22 0bbb
00000080: 3748 54b9 4955 9439 9384 45ba 9581 b0ba
00000090: bf2a 04bb 4691 28ba f49f 9739 fb63 ab3a
000000a0: 0eaf 7abb 3494 38ba 5741 53ba d51c 1339
000000b0: 0d09 783a 72a7 e3b9 1b98 53ba 3d94 2c3a
000000c0: 6400 97b9 eb87 22ba 1170 013a 99d8 b7ba
000000d0: 6eae 933a d63b 99ba 0dc7 24bb 6bd7 0a3b
000000e0: 8148 863a 4aea 87bb 3acb ba38 7956 8f3a
000000f0: 658b 1fba 76fa 39ba 1f7c a2ba 6cb8 ec39
00000100: a12c b938 7efd 2439 564d 32ba 34c3 0fba
00000110: 8d10 65ba 58a1 4a3b 5ae6 5039 8d31 df39
00000120: 90a4 2d39 9076 163b 1e79 e53a 35a1 85ba
00000130: 4e04 41ba bbb5 363c 6a6b afba 8a8c 9639
00000140: 11b6 75ba 1568 023a 2b25 103c db0b 5d39
00000150: 14f3 b3ba b42d 323b 472b 0e39 2bc2 18ba
00000160: 6752 d5b8 9e53 e139 906b d5ba 205f 0abb
00000170: f76d b0b9 a9d4 5fbb c50a 9aba b2f0 8f3a
00000180: a511 8dba 668b df3b e92e 3eba 0da1 a0ba
00000190: a6de c5b9 9e3a 453a ff16 b5ba cff1 d8b9
000001a0: edce fbba 0c01 d93a c4ba 5dba a2f5 dfba
000001b0: 04aa e139 9bc7 dd39 713d 1739 d274 70b8
000001c0: d3c7 02bb e6c9 4439 c686 71b9 0df0 013a
000001d0: 7410 aaba 2bdd 12bb e985 88ba b180 66bb
000001e0: 94e6 bd39 babb 00ba 660c fbba 73bc 71bb
000001f0: 71c4 8abb c2af 24bb 119a 2ab8 fcbc 34bb
00000200: 2615 033b 2ec9 3cba 0317 6ab9 4e3e 0bbb
00000210: 3269 8c3a 6f4e 9aba 965c 16ba 011b 6aba
00000220: d423 e0b9 4c15 50ba 4394 15bb 0639 15bb
00000230: 0455 0fba 520e 25b9 a4db 88b9 32ed e4b8
00000240: a329 2a3a db42 5c39 0474 0d3a 3b46 ffba
00000250: 89ce 5a39 b2fd 49ba 1c3e 0e3b f768 cd3a
00000260: a1ff d7b9 bdbf eb39 0024 caba e982 a8ba
00000270: 8f38 8aba 0261 70b9 7da4 3f3a cf38 ba39
00000280: a0af 7fb9 a601 143a 4c62 7d3a 1705 ccba
00000290: fcea 1fb9 da9e 5039 05fb fcba 34f2 cd38
000002a0: 16ec 833a d242 b83a 4e9a 1cba 999b 00ba
000002b0: 76fd 823a f7cf a037 f373 543a 061b 4dba
000002c0: 71d9 6339 d384 94ba 8a17 0d39 d1a0 1fba
000002d0: 5fe3 033a 81f8 6138 1159 023a 91d7 b8ba
000002e0: b3d5 9339 a469 1aba 8404 65ba 10dd c7b9
000002f0: 9f7c 333a 42b5 9639 f30f a5ba e5c9 46ba
00000300: b764 55bb 180e 083b 0393 ae39 b4cb 28ba
00000310: 85ab 93ba eb6c dcba 8971 833a 7319 3739
00000320: b47d d9b9 e56a 3639 4f36 36ba 1248 afba
00000330: 8fe5 acba a1f2 a43a 489a 8c39 0586 95ba
00000340: 2a8c 033a 6e52 093a b524 40ba d6bb 823a
00000350: ea72 c0b7 19e2 a0ba 1968 4c3a ca62 8fba
00000360: 79dc 113a 3195 ad3b 5e51 f6ba df0a 6a3b
00000370: 4a5a 63ba 4717 9fba ab77 3f3b bebc 443a
00000380: c141 b338 e885 51ba 3b4b 44ba 9e4f c7b9
00000390: 6375 0dbb 6498 aeba 0a6f 173a fbf2 a138
000003a0: 0a98 9239 b387 a43a 4359 a7ba 52e2 2a3b
000003b0: 29e2 94b9 7f79 e2ba 5938 c5ba fc3c 1d3a
000003c0: 4b74 4c3b 1a02 7539 53d0 d9b9 d055 aaba
000003d0: 297f 0dbb 1466 54ba f296 823a 1927 a338
000003e0: 8c9e daba 13c3 e038 f931 fd39 0434 c53a
000003f0: 25ad acb9 c114 24ba f831 ba3a cc5e baba
0.001083849 -0.00039117437 0.0018025682 -0.003231594 -0.0033555783 0.0041017723 -0.0012953052 -0.0010622783
0.0011375191 0.00015974253 0.0011325149 0.000113127644 -0.002156679 -0.00024854022 -0.0006197683 -0.000593702
-0.00326748 0.00088260166 0.0010365788 -0.0014602094 0.0020046947 -0.00035988266 -0.0023304857 0.00010943885
-0.00043111376 0.0006891391 -0.0007892158 0.0014747252 0.00047390873 0.0007289394 0.0008064347 -0.0021230532
-0.00020244798 0.00028292302 -0.0007534709 -0.0013466353 -0.002016708 -0.0006430339 0.0002892014 0.0013076061
-0.0038251313 -0.0007041127 -0.00080587476 0.00014029753 0.0009461798 -0.0004342157 -0.0008071677 0.00065833685
-0.00028801255 -0.0006200063 0.00049376587 -0.0014026343 0.0011267194 -0.0011690806 -0.0025143058 0.0021185528
0.0010244997 -0.0041478025 8.907025e-05 0.0010935805 -0.000608614 -0.00070945115 -0.001239661 0.00045150833
8.8298e-05 0.00015734692 -0.0006801685 -0.00054841046 -0.0008738123 0.0030918922 0.00019922238 0.00042570793
0.0001655987 0.0022958852 0.0017507409 -0.0010195138 -0.0007363007 0.011151726 -0.0013383452 0.0002871494
-0.00093731383 0.0004974616 0.008797924 0.00021080619 -0.0013729059 0.0027187886 0.00013558297 -0.0005827273
-0.0001017198 0.00042977644 -0.0016282666 -0.0021113828 -0.00033651266 -0.0034153855 -0.0011752477 0.0010981767
-0.0010762705 0.0068220375 -0.0007254915 -0.0012255028 -0.00037740654 0.0007523688 -0.0013816057 -0.00041378892
-0.0019211449 0.0016556098 -0.0008458311 -0.0017086754 0.00043042016 0.00042301122 0.00014423371 -5.7329256e-05
-0.001995553 0.0001876723 -0.00023033758 0.000495673 -0.0012974874 -0.0022409658 -0.0010415885 -0.003517192
0.00036220683 -0.0004910786 -0.0019153475 -0.0036886006 -0.0042348434 -0.0025129174 -4.0674644e-05 -0.0027578464
0.002000162 -0.0007201609 -0.00022324552 -0.0021246853 0.0010712503 -0.0011772643 -0.0005735842 -0.00089304155
-0.00042751303 -0.0007937744 -0.0022823967 -0.0022769584 -0.00054676854 -0.00015740961 -0.00026103586 -0.00010916068
0.00064911897 0.0002100574 0.0005396011 -0.0019475886 0.0002086704 -0.0007705345 0.00217045 0.0015671541
-0.00041198454 0.0004496555 -0.0015422106 -0.0012856397 -0.001054542 -0.00022924322 0.00073105824 0.0003551901
-0.0002438412 0.00056459976 0.00096658315 -0.0015565482 -0.0001525096 0.00019895603 -0.0019300884 9.8202756e-05
0.0010064866 0.0014058 -0.0005973921 -0.00049059984 0.000999375 1.9170328e-05 0.0008104436 -0.0007824156
0.0002172941 -0.0011331089 0.00013455577 -0.0006089332 0.00050311344 5.3875618e-05 0.00049723784 -0.001410233
0.00028197243 -0.00058903755 -0.00087363296 -0.00038120942 0.0006846878 0.00028745277 -0.0012593254 -0.0007583185
-0.0032561251 0.0020760354 0.00033297398 -0.00064390455 -0.0011266327 -0.0016817128 0.0010028343 0.0001746172
-0.00041483121 0.00017396694 -0.00069508416 -0.0013372919 -0.0013190972 0.0012584516 0.0002681783 -0.0011407739
0.00050181395 0.0005238418 -0.00073296885 0.0009974192 -2.2941695e-05 -0.0012274414 0.0007797494 -0.0010939476
0.0005564164 0.005297326 -0.001879256 0.0035712046 -0.0008672817 -0.0012137674 0.0029215615 0.00075049314
8.547633e-05 -0.0007992671 -0.0007488017 -0.00038015557 -0.002158486 -0.0013320562 0.0005776739 7.722337e-05
0.00027960568 0.0012552649 -0.0012767691 0.0026074839 -0.00028397262 -0.001727864 -0.00150467 0.0005998162
0.0031197246 0.00023365804 -0.0004154468 -0.0012995545 -0.0021590686 -0.0008102369 0.0009963198 7.779728e-05
-0.0016679331 0.00010717488 0.00048293153 0.0015045409 -0.000329354 -0.0006259196 0.0014205566 -0.0014218925

exp_avg_sq f4 [2, 768]
00000000: 269b 1137 b209 8237 b478 8b37 2baa 9738
00000010: e9de 2639 c390 f538 ecbb 1737 2141 2038
00000020: 7c1d 7237 b452 af37 a2bb ec37 a7f2 0838
00000030: 7ded af37 f579 1238 20ca 6337 86eb ec37
00000040: 5532 4438 d586 0538 f3fe ad37 0377 1638
00000050: de9a b137 f768 f837 41b4 5138 90c2 c937
00000060: c448 8e37 9414 9b37 0b30 9437 b1ea c437
00000070: 2967 be37 20b6 8e37 b7bf 1438 8f13 0638
00000080: ef44 4737 b8a9 5637 e76d aa37 3479 ab37
00000090: daa4 2838 d587 7437 62dc dc37 5ac0 5c37
000000a0: 4c51 6238 318f 4e38 424e 8437 521d 5737
000000b0: 1f0b df37 0b00 a437 be83 c937 3c0f 2038
000000c0: 355a 4a37 1895 8e37 bc29 5437 399c c637
000000d0: 6d78 9337 91e0 f737 d922 0d38 7b55 db37
000000e0: 7f57 2237 fc73 fb38 ea14 9a37 3a4f 7337
000000f0: 59b1 bd37 132c 1e38 a259 bd37 90da bf37
00000100: c24a 8637 aa18 5237 2e01 2137 0dd2 f137
00000110: 2a56 af37 6b07 1838 de4e 5e37 68e0 0c38
00000120: 5f31 7f37 3445 8f38 18b5 1938 c6f8 9a37
00000130: b368 8337 9a67 253b ce13 0338 5733 6237
00000140: 3e21 a737 8765 bc37 aed7 9d3a 915f 9f37
00000150: 2b29 0838 2ab4 d138 be74 2837 363c 9f37
00000160: b19b 2637 a719 2437 4a5d cd37 5ecb f637
00000170: 8339 cc37 0634 9438 4a85 8e37 a855 9537
00000180: 3ad8 5437 5366 cd39 130b 1a37 8ce5 5738
00000190: eb32 5838 19ab c837 5ab8 4b38 f245 a637
000001a0: 0bde c637 553a a737 5c91 a837 0f3b b037
000001b0: 9588 5137 b60f cb37 f633 6f37 f383 0638
000001c0: 502b a337 2a2b 4237 9f5e 6b37 be32 cb37
000001d0: 1b33 fa37 2916 0238 81a5 cd37 8596 db38
000001e0: df66 7e37 1e41 9137 fc31 5138 98ca 8538
000001f0: 76e8 f338 df04 1538 659a 0d38 4fc1 5d38
00000200: c9d3 8937 31dc 4d38 d4af 8437 cba0 6e38
00000210: 2b76 4d37 990d d637 c3b6 f437 458f 7737
00000220: b4b2 3937 2614 7b37 57a2 1838 ba55 dd37
00000230: 6ec4 7837 935f a737 5f29 b337 2a78 3b37
00000240: 22bd da37 f9b7 9937 e061 9037 9e99 4e38
00000250: 60fc d737 b203 a637 5028 e837 a461 da37
00000260: 9992 9937 71de 8a37 019f ff37 baf4 1338
00000270: 717b d537 3030 1038 e00d 6c37 a11d 1938
00000280: 9d76 b137 1299 b037 bb98 9b37 ca3c 0238
00000290: 5280 4937 6218 1637 47f2 1d38 2619 6637
000002a0: 7266 f337 a255 1a38 dacb a037 7c9e 7d37
000002b0: 281a 8a37 f2c1 9c37 3cb1 8537 4475 e837
000002c0: df57 5737 4fe8 ab37 b3c2 6237 bef9 4e37
000002d0: a503 8e37 84f1 0b37 13b1 6737 5c12 d137
000002e0: 5f03 be37 9c7d 9437 282e 8637 c43b 8737
000002f0: b8e7 9e37 ac39 e437 d627 1a38 a854 5b37
00000300: 4b15 0238 cf16 e837 da9c 9037 52e8 cc37
00000310: 814d bf37 616f a037 769f b037 74c3 0137
00000320: aa59 4c37 f7a4 a237 0c26 8d37 54b6 bc37
00000330: 56ca 5338 804a 6e37 8c07 c637 1c6a 5637
00000340: e3c9 5e37 4411 f537 e384 1d37 a6a6 c537
00000350: 6e15 d937 e7a6 6e38 aa85 8237 724b 9b37
00000360: 31a5 9d37 cf57 7d39 40ba bf37 569d d838
00000370: c381 8137 ecb7 da37 4871 1438 1eff 6c38
00000380: 7616 b237 ff1e fa37 ed01 8637 e689 0737
00000390: cbee db37 9034 b937 66da 2237 465d a237
000003a0: eaff aa37 a6d1 0e38 36b8 4b38 3248 c438
000003b0: abfa 8637 48c0 ab37 262f 8f37 7a5d 4837
000003c0: 561b 0d39 6868 1a37 07c7 0c37 94bf bb37
000003d0: 8a98 9c37 4ddc 0038 7aa5 3437 07ed a338
000003e0: 9702 ec37 74d5 7d37 b1b4 4d37 9e95 eb37
000003f0: 4b6a 7d37 3b79 4e37 f31f b937 8028 1138
8.678797e-06 1.5501722e-05 1.6626298e-05 7.231937e-05 0.00015914034 0.00011709474 9.044055e-06 3.820763e-05
1.4431189e-05 2.0900137e-05 2.8220766e-05 3.2650914e-05 2.0972215e-05 3.4922694e-05 1.3577315e-05 2.8243066e-05
4.6776917e-05 3.1835243e-05 2.0741927e-05 3.5873625e-05 2.117216e-05 2.9612782e-05 4.9997358e-05 2.4051667e-05
1.6961603e-05 1.8487022e-05 1.7665347e-05 2.3474307e-05 2.2697803e-05 1.7012528e-05 3.5464498e-05 3.1966305e-05
1.1877374e-05 1.279491e-05 2.0316756e-05 2.0441228e-05 4.020785e-05 1.4575159e-05 2.6328667e-05 1.3157807e-05
5.3958312e-05 4.9247585e-05 1.5772068e-05 1.2821825e-05 2.658885e-05 1.9550343e-05 2.4022414e-05 3.816116e-05
1.2061141e-05 1.6997146e-05 1.2645902e-05 2.3676186e-05 1.7579843e-05 2.9549266e-05 3.3649474e-05 2.614664e-05
9.676324e-06 0.000119902164 1.836797e-05 1.4502375e-05 2.261314e-05 3.7711183e-05 2.2572294e-05 2.287075e-05
1.6008857e-05 1.2522718e-05 9.5966225e-06 2.8827251e-05 2.0901749e-05 3.6246533e-05 1.3250594e-05 3.3587596e-05
1.52106795e-05 6.8316614e-05 3.66467e-05 1.8474075e-05 1.5665171e-05 0.0025238753 3.125128e-05 1.3482603e-05
1.9923431e-05 2.2458624e-05 0.0012042427 1.8998779e-05 3.2463267e-05 9.999455e-05 1.00407615e-05 1.8982315e-05
9.930621e-06 9.781134e-06 2.4481345e-05 2.9420185e-05 2.4345476e-05 7.06688e-05 1.6989787e-05 1.7802071e-05
1.2686529e-05 0.00039176884 9.181694e-06 5.1473777e-05 5.1545834e-05 2.3921531e-05 4.8570662e-05 1.9821313e-05
2.3706836e-05 1.9935114e-05 2.0094849e-05 2.1008336e-05 1.2489171e-05 2.4206802e-05 1.4257608e-05 3.2070977e-05
1.9451283e-05 1.1573351e-05 1.4029122e-05 2.4223114e-05 2.982612e-05 3.1015054e-05 2.4514973e-05 0.0001047077
1.5163531e-05 1.731567e-05 4.9876035e-05 6.37967e-05 0.00011630442 3.5528905e-05 3.376081e-05 5.287054e-05
1.6430293e-05 4.9080878e-05 1.5817503e-05 5.6893372e-05 1.2246465e-05 2.551712e-05 2.9172172e-05 1.4755705e-05
1.1068467e-05 1.4965457e-05 3.6390815e-05 2.6385173e-05 1.4827687e-05 1.9952457e-05 2.1357728e-05 1.1174046e-05
2.6075697e-05 1.832469e-05 1.7211714e-05 4.9257294e-05 2.5747519e-05 1.9790463e-05 2.7675327e-05 2.6033093e-05
1.8307286e-05 1.6554464e-05 3.047241e-05 3.527545e-05 2.544906e-05 3.4377153e-05 1.4069927e-05 3.6505637e-05
2.1155278e-05 2.1052114e-05 1.854856e-05 3.105103e-05 1.20104105e-05 8.946374e-06 3.7657355e-05 1.3714924e-05
2.9015562e-05 3.6796213e-05 1.9168412e-05 1.5116875e-05 1.6463062e-05 1.8686962e-05 1.5937367e-05 2.7711161e-05
1.2835458e-05 2.0492966e-05 1.3515982e-05 1.23367045e-05 1.6929416e-05 8.341278e-06 1.3809901e-05 2.492329e-05
2.2651335e-05 1.7701466e-05 1.5995538e-05 1.6121085e-05 1.894297e-05 2.7206574e-05 3.675356e-05 1.3073128e-05
3.1014246e-05 2.7667176e-05 1.7239177e-05 2.4426878e-05 2.2805065e-05 1.9125351e-05 2.105509e-05 7.734507e-06
1.2180224e-05 1.9388723e-05 1.6826227e-05 2.249625e-05 5.049476e-05 1.4203251e-05 2.3606954e-05 1.27800995e-05
1.3279237e-05 2.9214316e-05 9.388869e-06 2.3561832e-05 2.5878395e-05 5.689906e-05 1.555945e-05 1.8512572e-05
1.8792782e-05 0.00024160671 2.2855704e-05 0.00010328989 1.5438423e-05 2.607327e-05 3.539145e-05 5.650438e-05
2.1229713e-05 2.9816756e-05 1.5974942e-05 8.078734e-06 2.6218031e-05 2.2078195e-05 9.706802e-06 1.9355339e-05
2.0384748e-05 3.405069e-05 4.857053e-05 9.359456e-05 1.6090771e-05 2.0474326e-05 1.7068884e-05 1.1942693e-05
0.00013456991 9.203424e-06 8.39099e-06 2.2381348e-05 1.866768e-05 3.072275e-05 1.0767364e-05 7.8165955e-05
2.8134598e-05 1.5129674e-05 1.2261023e-05 2.8083854e-05 1.5104723e-05 1.2306783e-05 2.2068596e-05 3.4608413e-05

exp_avg f4 [2]
00000000: 86f5 96bb 91f5 963b
-0.0046069054 0.0046069105

exp_avg_sq f4 [2]
00000000: b59a 4439 b49a 4439
0.0001874965 0.00018749648
