2024:05:01_ckpts/operational/Linear/lr_0.001_epoch_100/2.pth (torch, 21075 bytes, 6 tensors)

linear.weight f4 [2, 768]
0	0x3e627323	0.22114234
1	0x3f170322	0.58989155
2	0x3f325dcb	0.69674367
3	0xbe14b647	-0.14522658
4	0x3dcbdd31	0.09954298
5	0xbe100417	-0.1406406
6	0x3f03c3a2	0.51470387
7	0xbec3e470	-0.3826022
8	0xbd361697	-0.044455137
9	0x3ca417f1	0.020030947
10	0x3e9d902d	0.3077406
11	0xbd7e9b30	-0.062159717
12	0xbe1ae714	-0.15127212
13	0xbdce9b48	-0.10088211
14	0x3e1e8f81	0.1548443
15	0xbd841508	-0.06449324
16	0xbe014ee6	-0.12627754
17	0x3eed1203	0.46302804
18	0xbe2e52f9	-0.17023839
19	0xbe9ed104	-0.3101884
20	0xbf2814fd	-0.65657026
21	0xbe7aefdc	-0.24505562
22	0xbea8a908	-0.3294146
23	0xbcf730f9	-0.03017472
24	0x3ddc4f7b	0.10757347
25	0x3ee988d7	0.45612213
26	0x3e8206b3	0.25395736
27	0x3e94b4eb	0.2904428
28	0x3ed6acc2	0.4192868
29	0x3eae79d3	0.3407732
30	0x3c189273	0.00931226
31	0x3d5078a4	0.050896302
32	0xbf0ec65e	-0.55771434
33	0xbd3a45b1	-0.04547662
34	0xbdf0f100	-0.11764717
35	0x3e7761bf	0.24158381
36	0xbe2ca79e	-0.16860816
37	0xbee783ff	-0.45217893
38	0xbf1aa045	-0.604008
39	0x3f17aac9	0.5924497
40	0xbe4ce085	-0.20007522
41	0x3ecd4b2b	0.4009641
42	0xbd20d804	-0.03926851
43	0xbd22c424	-0.039737836
44	0x3e3a8afc	0.18217081
45	0xbe22bdb1	-0.15892674
46	0xbd4696b4	-0.048483565
47	0x3e52647b	0.20546143
48	0xbe6ad7e3	-0.22933917
49	0xbebee845	-0.37286583
50	0x3dced02a	0.10098298
51	0xbe376592	-0.1790984
52	0x3e31f960	0.17380285
53	0x3e487f29	0.19579758
54	0xbe913a34	-0.28364718
55	0xbe4a663a	-0.19765559
56	0xbe02ef2d	-0.12786551
57	0x3e09347a	0.13398924
58	0xbea4701c	-0.32116783
59	0xbd9e52e5	-0.077306546
60	0x3df51665	0.11967162
61	0x3cbd0158	0.02307193
62	0xbcf42c97	-0.029806418
63	0xbec97bb2	-0.39352185
64	0x3d1ff049	0.039047513
65	0x3ef48281	0.47755817
66	0xbcb0c4b6	-0.021578174
67	0xbea60d70	-0.32432127
68	0xbe04dd46	-0.12975034
69	0x3f0163ed	0.505431
70	0xbea1ff52	-0.31640106
71	0x3e3356b7	0.17513548
72	0xbdb23d29	-0.087030716
73	0x3a5d7629	0.0008448088
74	0xbd6ae9ff	-0.057352062
75	0x3c0f0298	0.008728646
76	0xbd437e31	-0.047727767
77	0xbc3ab7ac	-0.01139633
78	0xbc0e1c95	-0.008673807
79	0xbd80813c	-0.062746495
80	0x3e833b9c	0.25631416
81	0xbef177ef	-0.47161815
82	0x3d474014	0.048645094
83	0x3d0709c4	0.032968298
84	0xbd1271f6	-0.035753213
85	0x3eb6296e	0.35578483
86	0xbf1a3905	-0.60243255
87	0xbe54c492	-0.2077811
88	0x3e95afbc	0.29235637
89	0x3efc4022	0.4926768
90	0x3e70627e	0.23475072
91	0xbeac4442	-0.33645827
92	0xbd885a2a	-0.066578224
93	0x3e7559d5	0.2396005
94	0xbb81beab	-0.003959497
95	0xbc1f1167	-0.009708739
96	0x3ea181d6	0.3154437
97	0x3e7814ce	0.24226686
98	0xbec6a2ea	-0.3879617
99	0x3f36a13a	0.7133976
100	0xbda146e5	-0.0787485
101	0xbef8065e	-0.48442358
102	0x3e76be78	0.24096096
103	0x3d4d3ea3	0.050108563
104	0x3dca27fe	0.09870909
105	0x3dd314c6	0.103066966
106	0xbe30f74b	-0.17281835
107	0x3d47f3d1	0.048816506
108	0xbc098861	-0.008394332
109	0xbe127d2b	-0.1430556
110	0x3d711313	0.05885608
111	0xbdb85edb	-0.09002467
112	0xbe9c2e52	-0.3050409
113	0x3f6eb456	0.9324392
114	0x3eb2ca91	0.3492017
115	0x3e911e16	0.28343266
116	0xbe234ca7	-0.1594721
117	0xbe002e8c	-0.12517756
118	0x3ed2c74b	0.41167673
119	0x3e997320	0.29970646
120	0x3dff3319	0.12460918
121	0xbd3a9228	-0.04554954
122	0xbd6ba5ba	-0.057531096
123	0xbe475b08	-0.1946832
124	0x3db62bf2	0.08895101
125	0x3ee051b2	0.4381233
126	0x3ec7a31e	0.38991636
127	0x3efc12e4	0.49233162
128	0x3cdf2c65	0.027242849
129	0xbee16cbc	-0.4402827
130	0x3e9093a3	0.28237638
131	0x3f0d3764	0.55162644
132	0xbe4a3d24	-0.19749886
133	0xbd31ceb8	-0.043410033
134	0xbef3c9c6	-0.47614878
135	0xbd272581	-0.04080725
136	0x3e298c8c	0.1655752
137	0x3d823a98	0.06358832
138	0xbe747018	-0.23870885
139	0xbd84f74e	-0.06492482
140	0xbe3b71e9	-0.18305172
141	0xbf0c212e	-0.5473813
142	0xbd91f2d9	-0.07126398
143	0xbe1b519d	-0.15167852
144	0xbe5026f0	-0.20327353
145	0xbdddb4d6	-0.10825507
146	0xbe08f2a4	-0.1337381
147	0x3eb312f0	0.34975386
148	0xbc8c7cf3	-0.017149424
149	0x3e4e0a32	0.20121077
150	0xbea251ae	-0.31702942
151	0xbdc9abd7	-0.09847229
152	0xbe9b65ac	-0.30351007
153	0xbdf74e2a	-0.120754555
154	0xbea4a7e9	-0.32159355
155	0xbe938f5e	-0.28820318
156	0x3e4a78e3	0.19772677
157	0x3ec9064a	0.3926261
158	0xbe01d62e	-0.1267936
159	0xbe87dc13	-0.2653509
160	0xbef35b67	-0.47530672
161	0x3eedffea	0.4648431
162	0x3eca2be0	0.394866
163	0xbef5e1e9	-0.48023918
164	0x3e649a58	0.22324502
165	0xbe7175c3	-0.23580079
166	0x3d22c6a1	0.03974021
167	0x3db1f78f	0.08689796
168	0x3d952352	0.072821274
169	0xbde4c2e5	-0.11169986
170	0x3ed7daf1	0.42159227
171	0xbd0c1e30	-0.034208477
172	0x3ebc49ec	0.36775148
173	0xbea7bb71	-0.32760194
174	0x3f4211cd	0.7580841
175	0xbe40ef21	-0.1884122
176	0x3dc7c14b	0.097536646
177	0x3d7aacc2	0.06119991
178	0xbeaa31bf	-0.33241078
179	0xbdebeff0	-0.11520374
180	0xbe8743ab	-0.26418814
181	0x3dfefd07	0.12450605
182	0xbe94b2c3	-0.29042634
183	0xbe8597b7	-0.26092312
184	0x3e6d53af	0.23176454
185	0x3e8a4a2e	0.2700972
186	0x3ea49d49	0.3215125
187	0x3c472a39	0.012156063
188	0xbd6547b7	-0.055976596
189	0x3e82fc40	0.25583076
190	0xbf007ec4	-0.5019343
191	0xbe93f5e5	-0.2889854
192	0x3ec81dec	0.3908533
193	0xbea6e9b9	-0.3260019
194	0xbe8cf242	-0.27528578
195	0x3e57e406	0.21083078
196	0xbe9aa703	-0.30205545
197	0x3e2c1248	0.16803849
198	0xbdc56ffa	-0.096404985
199	0x3da16108	0.07879835
200	0x3d4d09fc	0.05005835
201	0x3e84fabc	0.25972545
202	0xbe2c130d	-0.16804142
203	0xbf3feaf2	-0.74967873
204	0x3d8ed333	0.06973877
205	0x3c90a760	0.017657936
206	0xbd8151d9	-0.06314439
207	0x3e6b7319	0.22993125
208	0x3df23100	0.11825752
209	0xbd31a700	-0.043372154
210	0xbe3bef76	-0.18353066
211	0xbd316e2d	-0.043317962
212	0xbd9d326d	-0.076756336
213	0x3ed95607	0.42448446
214	0x3e8a49ed	0.27009526
215	0xbe0d6c36	-0.1381081
216	0xbb1ec19d	-0.002422429
217	0x3c160146	0.009155577
218	0xbdd50851	-0.10401977
219	0xbd32a2a3	-0.043612134
220	0x3f316a89	0.69303185
221	0x3cb44c2c	0.022008978
222	0xbda07556	-0.0783488
223	0x3c8bfac8	0.017087355
224	0xbd126501	-0.035740856
225	0x3e3aaa91	0.18229128
226	0x3f2904fa	0.6602322
227	0x3eb73b66	0.35787505
228	0x3e498910	0.19681191
229	0x3d6acd73	0.057324838
230	0xbce188f8	-0.027531132
231	0x3ee4cc5d	0.44687167
232	0xbe0e5add	-0.13901849
233	0x3dfdaac9	0.1238609
234	0x3e337c93	0.1752799
235	0x3da01ad2	0.078176156
236	0x3e896d25	0.26841083
237	0xbf868684	-1.0509801
238	0xbd3ecee0	-0.04658401
239	0x3e6fcd18	0.23418081
240	0xbdfe52fb	-0.12418171
241	0xbec210f8	-0.3790357
242	0xbe154420	-0.14576769
243	0x3e53413b	0.20630352
244	0xbd50e3b3	-0.0509984
245	0xbeaf201f	-0.34204194
246	0xbe9e7f1c	-0.30956352
247	0xbe8c63de	-0.27419943
248	0x3dd4abc7	0.103843264
249	0x3e0e908b	0.13922326
250	0x3e120132	0.14258268
251	0xbea70be2	-0.32626253
252	0x3ee39bb8	0.4445474
253	0xbe7b13d4	-0.24519283
254	0xbea6c654	-0.32573187
255	0xbef633f9	-0.48086527

linear.bias f4 [2]
0	0xbc8da312	-0.017289672
1	0x3c0abfc3	0.008468571

exp_avg f4 [2, 768]
0	0xba20d4fb	-0.0006135252
1	0x3b5a44df	0.003330521
2	0xb9c92313	-0.0003836384
3	0x3b0034c8	0.001956271
4	0x3bc52171	0.0060159494
5	0x3a246a1b	0.00062719145
6	0x3a96bfdf	0.0011501274
7	0xba9384bc	-0.0011254768
8	0xba8c3377	-0.001069649
9	0x3a6300a0	0.0008659456
10	0xbb8271de	-0.003980859
11	0x3b8b41ed	0.0042498023
12	0xba6e3a5c	-0.0009087676
13	0xbb9c130e	-0.0047630137
14	0x3a911571	0.0011069012
15	0xbad2ae39	-0.0016073651
16	0x3b51a15f	0.0031987054
17	0xbb81a1dc	-0.0039560627
18	0xba88b85c	-0.001043092
19	0x3b2ea6de	0.0026649754
20	0xba35c31f	-0.00069336774
21	0xb8be4c74	-9.0741465e-05
22	0xbaf48649	-0.0018655743
23	0x3ab0356c	0.0013443655
24	0x3a288f6a	0.0006430062
25	0xb8cc605e	-9.745428e-05
26	0xb897b0c9	-7.23317e-05
27	0x3b05b6a4	0.0020403052
28	0x3a0713ff	0.0005152821
29	0x3acc0521	0.0015565493
30	0xbb0f7499	-0.0021889566
31	0x3b341865	0.002748036
32	0xba01cad9	-0.0004951186
33	0xbb44859f	-0.002998687
34	0x3b05832a	0.002037237
35	0x3a0815c8	0.0005191234
36	0xba4bfc06	-0.000778139
37	0xbaeaf3fd	-0.0017925497
38	0x3a48abd1	0.0007654997
39	0xbaf5394c	-0.0018709092
40	0x3bf234ba	0.0073915394
41	0xba20e9db	-0.0006138363
42	0xbb088154	-0.0020829039
43	0x389b5640	7.407041e-05
44	0x37bf6deb	2.2820159e-05
45	0x3aa69898	0.0012710271
46	0xba7ae1ec	-0.0009570408
47	0x3b6214dd	0.0034497299
48	0xb9d8e061	-0.00041365906
49	0xb9abe501	-0.00032786283
50	0x3a899524	0.0010496718
51	0xbaee3360	-0.001817327
52	0xb9c04d2c	-0.0003667859
53	0xba782151	-0.0009465414
54	0x3a399318	0.00070791086
55	0x39bb47f6	0.00035721035
56	0xb912429d	-0.0001394846
57	0x3ae302f1	0.0017319602
58	0x3ac4f273	0.0015025869
59	0xbb1473b2	-0.0022651968
60	0x3a03558c	0.0005010001
61	0x3b929784	0.0044736285
62	0xba595072	-0.00082898804
63	0x3b8245df	0.0039756144
64	0xb9bbf789	-0.00035851847
65	0xb785eaf0	-1.5964237e-05
66	0xb98a8ac1	-0.0002642479
67	0x3b226c9f	0.0024783981
68	0x3afe2a23	0.001939122
69	0x3b0c7cff	0.0021436808
70	0xbaf06e35	-0.0018343391
71	0xb9a9cb92	-0.00032385864
72	0x3a8ef3c7	0.0010906392
73	0xbb8a7f0e	-0.004226572
74	0x3afe7cff	0.0019415914
75	0xba0d2f3a	-0.00053857605
76	0x3b01698c	0.0019746749
77	0xbc655846	-0.013998097
78	0x390fd991	0.00013718593
79	0xbbb8a06c	-0.005634358
80	0x39061ef6	0.0001279077
81	0xb88a5e8d	-6.597964e-05
82	0xbbb09a52	-0.00538949
83	0xbb8ce454	-0.00429968
84	0xb9cc7444	-0.00038996537
85	0xbb21ed11	-0.0024707953
86	0x3ab7aa66	0.0014012575
87	0xba7e872b	-0.00097094727
88	0x39c44c95	0.0003744109
89	0xba8a4f8f	-0.0010552275
90	0xbb803cd2	-0.0039135003
91	0x39d2c76f	0.0004020291
92	0xbaa8f2d4	-0.0012889751
93	0xbb3c6f54	-0.002875288
94	0x3ad39db9	0.0016145027
95	0xbad93e6f	-0.0016574393
96	0x3b4e2a6f	0.0031458398
97	0x3b1c85c9	0.0023883453
98	0x3932f9b7	0.00017068429
99	0xbb340e6a	-0.0027474412
100	0x3a1e979f	0.0006049815
101	0x3a7fd675	0.00097594346
102	0xba047193	-0.0005052324
103	0x3894b86e	7.091543e-05
104	0x3ab9e94d	0.0014183909
105	0xb9202440	-0.00015272293
106	0x394d7b0f	0.00019596166
107	0xbb3b127c	-0.0028544953
108	0x3a666a07	0.0008789603
109	0xba0404ac	-0.00050360966
110	0x3befdb61	0.007319853
111	0xbaa8ad26	-0.0012868985
112	0xba881a2a	-0.0010383774
113	0xbb147129	-0.0022650457
114	0x3a12de16	0.00056025514
115	0xba453f7b	-0.0007524413
116	0xb90bdcc5	-0.00013338316
117	0xb9b5a066	-0.00034642516
118	0xba104c63	-0.00055045466
119	0x3b9b74d0	0.0047441497
120	0xbaa91f5a	-0.001290302
121	0x39abcb8c	0.00032767316
122	0xba78d02b	-0.00094914687
123	0x39b6917e	0.00034822145
124	0x3baab1db	0.0052091903
125	0x3a832743	0.0010006208
126	0xbad6af27	-0.0016379104
127	0xba244075	-0.00062657084
128	0x3b52ec6c	0.0032184375
129	0x3a9277e9	0.0011174652
130	0xba1f6e86	-0.0006081838
131	0x3b79c28a	0.003811034
132	0x3aae765e	0.0013310423
133	0x3aa24cbc	0.0012382488
134	0x39bd723e	0.00036134006
135	0xbaa701d5	-0.0012741635
136	0x3b884b49	0.0041593653
137	0x3b4cdcfc	0.0031259647
138	0x3a82dc36	0.0009983841
139	0x391517ee	0.00014218662
140	0x3b14e497	0.0022719258
141	0x3ae1f0c3	0.001723789
142	0xba865dde	-0.0010251363
143	0xbb0d331d	-0.0021545358
144	0xba10356c	-0.00055011245
145	0xb9dd505e	-0.00042212283
146	0xbb0a90c4	-0.0021143416
147	0xbb3d93d3	-0.0028927221
148	0x3ba802e8	0.0051272996
149	0xba4c59a9	-0.0007795343
150	0x3a547c06	0.0008105639
151	0x3a9abc31	0.0011805353
152	0xbb0f2f2d	-0.0021848187
153	0x3a9c768d	0.0011937186
154	0x3a96edf4	0.0011515007
155	0x3a850a83	0.0010150227
156	0x3b4276e5	0.0029672917
157	0x3b8bc549	0.0042654616
158	0x39bb1ecb	0.00035690362
159	0x3b2dd21d	0.0026522942
160	0xbac1468b	-0.0014745755
161	0x3ac93bba	0.0015352883
162	0xba3efc03	-0.00072854775
163	0xbab2bcef	-0.0013636629
164	0xb8edebaf	-0.0001134494
165	0x3876915f	5.8786358e-05
166	0x3b2399f2	0.0024963585
167	0xb9c0818c	-0.00036717614
168	0xb9b85fd6	-0.00035166618
169	0x3958bb94	0.00020669244
170	0xb9648a91	-0.00021795394
171	0xba1fe906	-0.0006100092
172	0x39f8de56	0.000474679
173	0x3a8d2c82	0.0010770711
174	0x3a4a2189	0.00077106856
175	0xba438601	-0.0007458628
176	0xba46c25c	-0.00075820624
177	0x3a953daa	0.0011386175
178	0x3b6fd1f5	0.003659365
179	0xbab77104	-0.0013995473
180	0xbb4afe0f	-0.0030974185
181	0x3a2276b1	0.0006197496
182	0xbac3f1f3	-0.0014949426
183	0xbb1072e1	-0.002204113
184	0x3b1f3ea9	0.0024298823
185	0x3a88aeee	0.001042811
186	0x3b51c28f	0.0032006835
187	0x3b52352f	0.0032075157
188	0xbacfa318	-0.0015841452
189	0xba3d92fe	-0.00072316814
190	0xb960fe36	-0.00021457006
191	0x3a880a77	0.0010379095
192	0x39adc165	0.00033141222
193	0xb9c96470	-0.0003841254
194	0x3b4e1edd	0.0031451501
195	0xbaf7c8a7	-0.0018904404
196	0xba369238	-0.00069645373
197	0xba328c74	-0.000681109
198	0xba6884e3	-0.00088698993
199	0x3a6d61e7	0.0009055421
200	0x3990f1fd	0.00027646116
201	0x3b096990	0.0020967461
202	0x3b514832	0.00319339
203	0x391eafab	0.00015133496
204	0xba189c85	-0.0005821663
205	0xbaff1712	-0.0019461832
206	0x3bc5edce	0.0060403114
207	0xb9d4d0a1	-0.00040591232
208	0xb9a9dcce	-0.00032398704
209	0xbb107403	-0.0022041805
210	0xba01e155	-0.00049545366
211	0x3ba11b97	0.004916619
212	0xb8e22daa	-0.000107850254
213	0xba1bb568	-0.00059398124
214	0x3b0f7904	0.00218922
215	0xba77ad14	-0.0009448093
216	0xb9acaece	-0.00032936636
217	0x3c2c1bbf	0.010504662
218	0x38b3a110	8.565385e-05
219	0xbc1c0770	-0.009523258
220	0xbb219555	-0.002465566
221	0xba91c6fb	-0.0011121923
222	0xbb0def01	-0.002165735
223	0xba845587	-0.001009629
224	0x3ab096b2	0.0013472645
225	0xbb6667fc	-0.0035157194
226	0x3a3b45ac	0.0007143866
227	0x3aa5890e	0.0012629346
228	0x3a31e776	0.00067865045
229	0xb98ba9ae	-0.00026638567
230	0x3a71fe83	0.00092313456
231	0xbb011e1a	-0.001970178
232	0xbb3afea0	-0.0028533116
233	0x3a6aed6d	0.0008961771
234	0x3b1cdafc	0.0023934236
235	0xba268023	-0.00063514913
236	0x3a2d003e	0.00065994624
237	0xba995993	-0.0011699669
238	0xb96ccbe5	-0.0002258267
239	0x3b211969	0.0024581796
240	0x3b7c8dc6	0.0038536652
241	0xb76fcaeb	-1.4292756e-05
242	0x3b098873	0.002098587
243	0x3af4eeb0	0.0018686857
244	0x3a936dfa	0.0011247986
245	0x3ad96a07	0.0016587385
246	0xba709e14	-0.0009178829
247	0x3a96e987	0.0011513688
248	0x3a075ace	0.0005163372
249	0xba229acb	-0.00062028755
250	0x3b09756a	0.0020974525
251	0xbab7a0ec	-0.001400975
252	0xbb3ab7a0	-0.0028490797
253	0x3af02aa5	0.0018323256
254	0x3a13c34d	0.0005636707
255	0x3b02f5d5	0.0019982953

exp_avg_sq f4 [2, 768]
0	0x3802ab53	3.1153973e-05
1	0x3891b75e	6.9482936e-05
2	0x3838b489	4.4037155e-05
3	0x3992c883	0.00027996683
4	0x3900cc46	0.00012283129
5	0x38715dbc	5.7546175e-05
6	0x384c8d0c	4.876875e-05
7	0x3851d6b9	5.002946e-05
8	0x3808450a	3.2489224e-05
9	0x38825c53	6.21608e-05
10	0x38b02c8d	8.400632e-05
11	0x38aaa0e9	8.1362035e-05
12	0x385bef8b	5.243676e-05
13	0x38d2c364	0.00010049975
14	0x38b272eb	8.5091066e-05
15	0x393d4cb0	0.00018053013
16	0x3984c676	0.00025324867
17	0x395a322e	0.00020808793
18	0x389901f5	7.295973e-05
19	0x384489cc	4.6858375e-05
20	0x37d5c470	2.5483052e-05
21	0x37df33b4	2.6607748e-05
22	0x384e9c31	4.9259692e-05
23	0x383940a7	4.416765e-05
24	0x38a41265	7.823556e-05
25	0x385ca18d	5.2602543e-05
26	0x380cb8e2	3.3550787e-05
27	0x382e0650	4.149071e-05
28	0x390de768	0.00013533013
29	0x385c8ba5	5.258214e-05
30	0x381b6c9b	3.7056026e-05
31	0x3995ad8f	0.00028548806
32	0x3845d9e4	4.7171387e-05
33	0x387b165a	5.986388e-05
34	0x38b70fff	8.7290995e-05
35	0x37ce2007	2.4572028e-05
36	0x37f964c9	2.9730045e-05
37	0x3841e67c	4.622944e-05
38	0x38dd7b8b	0.00010561113
39	0x38748f97	5.830786e-05
40	0x39ec5240	0.0004507471
41	0x3909ec44	0.00013153354
42	0x383f2387	4.5571036e-05
43	0x389c8162	7.462759e-05
44	0x37d426c3	2.529042e-05
45	0x37b6d41a	2.1794858e-05
46	0x37c68756	2.366646e-05
47	0x3917887b	0.00014451325
48	0x381c63c8	3.7286227e-05
49	0x38003892	3.0570263e-05
50	0x38bf5361	9.12312e-05
51	0x3802847d	3.1117805e-05
52	0x387b6597	5.9937676e-05
53	0x38375b04	4.3715365e-05
54	0x380fb858	3.426554e-05
55	0x38ee232d	0.000113552764
56	0x37eb0db4	2.8020564e-05
57	0x388cc782	6.7128814e-05
58	0x38857402	6.363542e-05
59	0x38c3b290	9.3315844e-05
60	0x3908d097	0.00013047676
61	0x3b188983	0.0023275323
62	0x38023a48	3.1048694e-05
63	0x388048a0	6.117043e-05
64	0x38b71bfc	8.7313325e-05
65	0x38664af7	5.490609e-05
66	0x38325a71	4.2522737e-05
67	0x38d8641a	0.00010318328
68	0x384610c1	4.7222482e-05
69	0x388fee8a	6.863203e-05
70	0x38554a18	5.0852163e-05
71	0x38a78d65	7.989517e-05
72	0x3805c414	3.1892283e-05
73	0x38e0c40d	0.0001071767
74	0x380df923	3.3849046e-05
75	0x391ea24c	0.00015128514
76	0x387fa53f	6.0950635e-05
77	0x3c912e1c	0.017722182
78	0x3839e887	4.4323995e-05
79	0x39061af5	0.00012789278
80	0x38188b44	3.6369325e-05
81	0x38f7619b	0.00011796058
82	0x3c8428ef	0.0161328
83	0x38b35cdc	8.5526815e-05
84	0x38969231	7.179788e-05
85	0x397b9ba6	0.00023995209
86	0x386c3c5d	5.6323002e-05
87	0x38410b42	4.602527e-05
88	0x389d9734	7.514507e-05
89	0x37f6f594	2.9439841e-05
90	0x38ccaee5	9.760055e-05
91	0x38586a94	5.159767e-05
92	0x381fe609	3.812279e-05
93	0x38e2c9ab	0.00010814083
94	0x3874f2ce	5.8400263e-05
95	0x38e67e28	0.00010990753
96	0x385989ea	5.1865274e-05
97	0x3a277301	0.00063876814
98	0x3814b07b	3.545031e-05
99	0x389f99c8	7.610355e-05
100	0x3903c38b	0.00012565979
101	0x37e34e01	2.7096832e-05
102	0x38c838c3	9.547316e-05
103	0x37a80360	2.0028732e-05
104	0x38a2c4ff	7.761455e-05
105	0x39176c31	0.00014440787
106	0x388c1e1d	6.681329e-05
107	0x392ab03e	0.00016278119
108	0x38a266bc	7.743898e-05
109	0x3846b2fd	4.7373574e-05
110	0x3b2dcd4b	0.002652007
111	0x3883856e	6.27142e-05
112	0x384ad6e1	4.8360675e-05
113	0x382f823e	4.184455e-05
114	0x3818a6d8	3.639501e-05
115	0x3941d3f7	0.00018484877
116	0x37e2ac7d	2.702162e-05
117	0x3890bdfb	6.901842e-05
118	0x3841b817	4.6186233e-05
119	0x38ce7de1	9.846292e-05
120	0x3812df3e	3.5017023e-05
121	0x3830954b	4.210071e-05
122	0x39da1e65	0.00041602846
123	0x390710b5	0.00012880827
124	0x38c59674	9.421716e-05
125	0x38d9bd6f	0.00010382651
126	0x38253fd7	3.939852e-05
127	0x380c3525	3.3428096e-05
128	0x38a94711	8.071785e-05
129	0x37f75eb3	2.9488792e-05
130	0x37b61cea	2.1709555e-05
131	0x391d3cc4	0.00014995324
132	0x37a9819e	2.0206728e-05
133	0x39428d4d	0.0001855392
134	0x38208b22	3.827655e-05
135	0x3806662f	3.2043255e-05
136	0x398b05f4	0.0002651658
137	0x38b2f7ad	8.5338346e-05
138	0x380e9f2d	3.4003682e-05
139	0x3811518d	3.4646644e-05
140	0x3815f651	3.575377e-05
141	0x381d03de	3.743532e-05
142	0x37d611f0	2.551914e-05
143	0x387c62de	6.017356e-05
144	0x39a3a5ab	0.00031213215
145	0x37d8e2cb	2.5854815e-05
146	0x382d233b	4.1279225e-05
147	0x383e43c1	4.536263e-05
148	0x391b8f62	0.00014835366
149	0x389d216b	7.492568e-05
150	0x38094297	3.2725362e-05
151	0x385b5cf7	5.230025e-05
152	0x389846d3	7.261117e-05
153	0x38199e02	3.66252e-05
154	0x38a80afb	8.0129095e-05
155	0x38e7ec12	0.0001105891
156	0x38e012ab	0.000106846295
157	0x38cbcea0	9.718281e-05
158	0x3853096a	5.0315088e-05
159	0x39109b78	0.00013790827
160	0x3880eaab	6.147226e-05
161	0x387c98ef	6.0223912e-05
162	0x38ac377e	8.211935e-05
163	0x38401ff0	4.580611e-05
164	0x37f2c346	2.893958e-05
165	0x384f010f	4.935363e-05
166	0x3902fbec	0.00012491614
167	0x38e5ef7e	0.0001096418
168	0x387366de	5.8031517e-05
169	0x38bd7a7c	9.035037e-05
170	0x3826d708	3.9777748e-05
171	0x391cbeb6	0.00014948365
172	0x3835fac8	4.338732e-05
173	0x381534e8	3.557364e-05
174	0x38851e2c	6.347554e-05
175	0x37b112a0	2.1108717e-05
176	0x38a2f9eb	7.771313e-05
177	0x387d677b	6.0416274e-05
178	0x384efd13	4.934992e-05
179	0x37f999c1	2.975471e-05
180	0x38f978df	0.00011895759
181	0x389feb94	7.625591e-05
182	0x3837753e	4.373979e-05
183	0x389b0a77	7.392925e-05
184	0x38a08b69	7.655362e-05
185	0x38d000ca	9.91836e-05
186	0x3854371f	5.0596074e-05
187	0x3908272a	0.0001298456
188	0x38f1a363	0.00011522209
189	0x38035c0c	3.131856e-05
190	0x38248c9e	3.9231607e-05
191	0x38358f95	4.3287484e-05
192	0x38040671	3.147725e-05
193	0x3893a662	7.0404974e-05
194	0x387a39f0	5.9658603e-05
195	0x389cc506	7.475358e-05
196	0x38499575	4.8061327e-05
197	0x37f6bf6d	2.9414625e-05
198	0x38c598b9	9.422139e-05
199	0x38137121	3.515289e-05
200	0x382d9529	4.138533e-05
201	0x38980097	7.248035e-05
202	0x387f82d2	6.0918574e-05
203	0x38229441	3.8761882e-05
204	0x38b789e8	8.751807e-05
205	0x386a3eea	5.584854e-05
206	0x395f46f3	0.00021293368
207	0x37b1c8ce	2.1193551e-05
208	0x38a7de86	8.004629e-05
209	0x38be2958	9.067607e-05
210	0x379d91c8	1.8783743e-05
211	0x392be507	0.0001639315
212	0x389e16ce	7.538275e-05
213	0x3884ffec	6.34192e-05
214	0x38626659	5.3977918e-05
215	0x391ce43d	0.00014962345
216	0x38496ec2	4.8025286e-05
217	0x3b1140b3	0.0022163808
218	0x3843dacf	4.6695404e-05
219	0x3aa05434	0.0012232126
220	0x382da821	4.1402996e-05
221	0x3801a0c4	3.090572e-05
222	0x38ae130c	8.300514e-05
223	0x38b445dd	8.596082e-05
224	0x38b491ce	8.610227e-05
225	0x38b2fced	8.5348125e-05
226	0x3843fbe3	4.672621e-05
227	0x3909ec98	0.00013153476
228	0x38d0254a	9.9251585e-05
229	0x3841d1c7	4.6210156e-05
230	0x38198f79	3.6611662e-05
231	0x38cec03a	9.8586504e-05
232	0x38c2b287	9.283894e-05
233	0x38146224	3.537735e-05
234	0x3836c19f	4.3572505e-05
235	0x38aed731	8.337049e-05
236	0x37ee4a81	2.8406504e-05
237	0x38136242	3.513904e-05
238	0x37e5d8d3	2.7399894e-05
239	0x3892ac81	6.993954e-05
240	0x39a26edb	0.00030981642
241	0x388da514	6.754152e-05
242	0x385ead10	5.30901e-05
243	0x3880420f	6.11582e-05
244	0x39076c9f	0.00012915068
245	0x38f778d7	0.00011800386
246	0x382f005c	4.1723586e-05
247	0x38dceaa4	0.00010534123
248	0x37c2a24f	2.3202183e-05
249	0x3945132b	0.00018794525
250	0x38391992	4.413125e-05
251	0x387b8bdb	5.9973314e-05
252	0x3874047d	5.8178313e-05
253	0x3893d71f	7.049576e-05
254	0x389284ef	6.986583e-05
255	0x38322f01	4.2482283e-05

exp_avg f4 [2]
0	0x3b2cf3b3	0.0026390373
1	0xbb2cf39c	-0.002639032

exp_avg_sq f4 [2]
0	0x3a7e8512	0.000970916
1	0x3a7e8514	0.0009709161
