2024:05:01_ckpts/operational/Linear/lr_0.001_epoch_100/3.pth (torch, 21075 bytes, 6 tensors)

linear.weight f4 [2, 768]
-0.26692608 0.2027088 0.29935163 0.11029438 0.16658112 0.13242583 0.2878974 -0.1829359
0.09262082 -0.17232734 -0.26741964 0.06860648 0.13553648 -0.028692164 -0.22848776 0.015319907
0.10790147 0.25464028 0.38895303 -0.39256597 -0.28293318 0.43198398 -0.105108194 0.12783438
-0.26268303 0.0514018 -0.1732293 -0.32644084 0.17470855 0.18506788 0.25240815 0.20648107
0.23858254 0.10017417 -0.017930944 0.17923975 0.122827046 0.11413745 -0.22634342 -0.09275793
0.09607709 0.43192136 0.18676554 -0.074523635 0.058958262 0.4449288 -0.047752406 0.29214436
0.3456552 0.11759472 -0.14377046 -0.13325647 0.02924255 -0.3970703 -0.019708894 -0.086221635
0.49583906 0.050054766 -0.14402944 0.3235052 0.20715024 -0.07765859 -0.13804957 -0.20848224
0.09710622 -0.28463632 -0.11756774 -0.13691874 0.62486523 -0.2610512 0.112370014 0.46822315
0.074463755 0.16028921 0.031480804 -0.14541419 0.066782385 -0.049599297 -0.030779764 -0.23153429
0.09344686 0.041587234 -0.062979564 -0.378305 0.2689326 -0.11655083 -0.09338198 0.40146527
-0.5288864 0.0033391672 0.2172139 -0.003929643 0.10520747 0.048743382 0.5559113 -0.2996152
0.7036775 0.15918946 -0.08714433 0.05898816 -0.14276816 -0.5816886 0.13746807 -0.22339264
0.011831586 0.30464777 -0.12546536 0.06958157 -0.18489958 0.050612397 0.0023723177 -0.2169193
-0.22041893 0.20371702 -0.13634278 0.30137357 0.40382665 -0.21169801 -0.36366335 0.14234358
0.16282874 -0.20480832 -0.10209257 -0.15722486 0.10900002 0.2806129 0.12747972 -0.006842431
-0.025478214 0.05841195 0.74616826 0.20180315 -0.54784554 0.19481221 0.36423936 -0.61240846
0.07360475 -0.06681846 0.40116096 0.12785058 0.010959736 -0.004138947 0.18790083 -0.3581427
-0.097387955 -0.4046545 0.49567044 0.088608086 0.58293974 -0.1339787 -0.30066794 -0.06115673
-0.2890247 -0.5487392 -0.06864354 0.094638065 0.38695022 0.083380945 -0.07889485 -0.38521716
-0.22254796 0.09539563 0.46373066 -0.11867219 0.48709902 -0.08823934 0.030092213 -0.3117685
0.5303567 -0.18351676 0.6596701 0.17339866 -0.21727951 -0.114493005 0.41582322 0.09417444
0.109807745 0.058504675 0.4901411 -0.30563697 0.10224007 0.30115378 -0.4924698 -0.08236027
-0.32978958 -0.0430246 0.2854297 -0.1712808 0.102599666 -0.2753581 -0.4032975 -0.4484456
-0.13997349 0.10669063 -0.4230577 0.5136974 0.07830098 -0.28730875 -0.41506776 -0.22200087
-0.099817745 0.35561383 -0.013834453 -0.12539917 0.124657616 -0.2055201 0.00085049315 -0.20380072
-0.3156916 0.186785 -0.137803 0.13261905 0.14677222 0.25703245 0.35311866 0.00438521
0.12151769 -0.054000057 0.16428094 -0.013404417 -0.06833125 -0.24605978 0.16605142 0.036062744
-0.15073387 0.063759856 0.6148134 0.020858336 -0.049347363 0.05969631 -0.36190212 0.36525026
0.33659685 -0.45980856 0.3442761 0.38633934 0.31224626 -0.59523916 -0.3397859 0.47733244
-0.09421509 -0.057205185 0.02092106 -0.14368136 0.08473808 -0.41711923 -0.008933421 -0.2716487
-0.18878551 -0.05357373 0.24157555 0.125088 0.14581679 0.17625248 -0.2527538 -0.25284997
00000000: 89aa 88be e592 4f3e 9e44 993e 05e2 e13d
00000010: 3e94 2a3e a39a 073e 4a67 933e 8c53 3bbe
00000020: fcaf bd3d 9476 30be 3aeb 88be 8e81 8c3d
00000030: 13ca 0a3e d40b ebbc b2f8 69be 5900 7b3c
00000040: 72fb dc3d 3660 823e da24 c73e 68fe c8be
00000050: 9edc 90be 012d dd3e f742 d7bd 04e7 023e
00000060: 647e 86be b28a 523d 0663 31be 4123 a7be
00000070: cce6 323e 6f82 3d3e a43b 813e c66f 533e
00000080: fb4e 743e 1e28 cd3d eae3 92bc a08a 373e
00000090: bf8c fb3d e5c0 e93d 92c6 67be dff7 bdbd
000000a0: 11c4 c43d cc24 dd3e 773f 3f3e d99f 98bd
000000b0: 387e 713d b5cd e33e 0798 43bd f293 953e
000000c0: b8f9 b03e 80d5 f03d 9038 13be 6274 08be
000000d0: 128e ef3c cc4c cbbe 8c74 a1bc f894 b0bd
000000e0: 9ede fd3e 3a06 4d3d 747c 13be 79a2 a53e
000000f0: 311f 543e 780b 9fbd de5c 0dbe 5e7c 55be
00000100: a0df c63d dabb 91be 5bc7 f0bd 6d34 0cbe
00000110: 2bf7 1f3f 81a8 85be 4022 e63d f2ba ef3e
00000120: 7480 983d db22 243e 04f2 003d 75e7 14be
00000130: 34c5 883d a228 4bbd d825 fcbc 5317 6dbe
00000140: 1161 bf3d 6057 2a3d 6efb 80bd 31b1 c1be
00000150: 89b1 893e 34b2 eebd 0d3f bfbd db8c cd3e
00000160: 1965 07bf eed5 5a3b 526d 5e3e 3cc4 80bb
00000170: 0477 d73d 24a7 473d 3450 0e3f 2a67 99be
00000180: 3524 343f 9002 233e ba78 b2bd 929d 713d
00000190: d131 12be 8be9 14bf 6ec4 0c3e 0ac1 64be
000001a0: 45d9 413c cbfa 9b3e fe79 00be c880 8e3d
000001b0: 5156 3dbe f24e 4f3d e378 1b3b 1820 5ebe
000001c0: 80b5 61be 329b 503e 719d 0bbe a34d 9a3e
000001d0: 5ec2 ce3e 5dc7 58be 1532 babe 84c2 113e
000001e0: 94bc 263e 46b9 51be e915 d1bd 8eff 20be
000001f0: 673b df3d 7eac 8f3e 0b8a 023e 7936 e0bb
00000200: b0b7 d0bc 5e41 6f3d e204 3f3f 7ca5 4e3e
00000210: 9b3f 0cbf da7c 473e 957d ba3e cdc6 1cbf
00000220: 16be 963d 1ed8 88bd f864 cd3e 43eb 023e
00000230: 7790 333c 01a0 87bb 1369 403e 7b5e b7be
00000240: 5673 c7bd e02e cfbe 84c8 fd3e 2878 b53d
00000250: 8a3b 153f b631 09be 26f1 99be 7b7f 7abd
00000260: 0cfb 93be 2c7a 0cbf fc94 8cbd 9ad1 c13d
00000270: 571e c63e a1c3 aa3d a093 a1bd 2f3b c5be
00000280: 9de3 63be c95e c33d 1b6e ed3e 680a f3bd
00000290: 0b65 f93e d4b6 b4bd f283 f63c 1fa0 9fbe
000002a0: 75c5 073f d1eb 3bbe 24e0 283f 6b8f 313e
000002b0: 857e 5ebe 4f7b eabd c8e6 d43e 87de c03d
000002c0: e2e2 e03d 99a2 6f3d c6f3 fa3e 737c 9cbe
000002d0: 3e63 d13d d430 9a3e 0025 fcbe 80ac a8bd
000002e0: 2eda a8be 903a 30bd d723 923e 3c64 2fbe
000002f0: c61f d23d bdfb 8cbe 037d cebe a99a e5be
00000300: 3655 0fbe 9e80 da3d 059b d8be ac81 033f
00000310: 445c a03d 221a 93be c383 d4be 3254 63be
00000320: 3f6d ccbd 0413 b63e e7a9 62bc a468 00be
00000330: 7e4c ff3d dc73 52be a1f3 5e3a 23b1 50be
00000340: 54a2 a1be 9144 3f3e 3b1c 0dbe 4acd 073e
00000350: 754b 163e c299 833e f8cb b43e cfb1 8f3b
00000360: 44de f83d 2a2f 5dbd 4339 283e 339e 5bbc
00000370: 41f1 8bbd 18f7 7bbe 6209 2a3e 87b6 133d
00000380: fb59 1abe 8794 823d 6964 1d3f 1adf aa3c
00000390: 7620 4abd 1e84 743d 3c4b b9be 1502 bb3e
000003a0: 6c56 ac3e 076c ebbe f544 b03e 45ce c53e
000003b0: bede 9f3e 9861 18bf 6bf8 adbe eb64 f43e
000003c0: d7f3 c0bd fc4f 6abd a562 ab3c 3521 13be
000003d0: 298b ad3d a790 d5be 7c5d 12bc 8a15 8bbe
000003e0: fd50 41be 2170 5bbd 955f 773e 1217 003e
000003f0: ff50 153e 887b 343e f268 81be 8d75 81be

linear.bias f4 [2]
-0.009552495 -0.015080209
00000000: 1182 1cbc fb12 77bc

exp_avg f4 [2, 768]
-0.00018130595 0.0013436478 -0.00036671804 0.0020553751 0.0009929992 -8.930831e-05 0.0010101211 0.001521083
-0.00030804492 -0.00051117246 -0.00060346693 0.00095202954 0.000984687 -0.0038030753 -0.0021922113 -0.00022160444
-0.0006554791 0.0075790957 -0.0012734655 -0.0007806665 -0.0015101578 0.0015093428 0.0034747177 -0.0037980946
-0.0031040239 -0.001550912 0.0006955739 -0.0012444649 -0.0037818751 0.0010118813 0.00057890173 0.0016328034
-0.0007913896 0.00087571127 -0.0021708726 0.00055711396 9.3094524e-05 4.6511e-05 -0.0036710508 -0.00042410326
0.002431078 -0.0020474722 -0.0007943161 -0.0014563653 -0.00024028578 -0.0015011663 -0.0019548812 0.0008311975
-0.001062926 0.0011267918 0.0036510625 -0.0010156485 0.00093120814 -0.0005198975 0.0009761867 -0.00058951555
0.0017881386 -0.0023083189 0.001571623 8.577135e-05 -0.0028934279 0.0005654339 0.0009625238 -0.00023808854
0.0025021825 0.0005286878 -0.0010041595 -0.0030565478 0.0009912378 -0.0009530834 -2.8612138e-05 0.0025716797
0.000615743 -5.6074867e-05 -0.00022722766 -0.00018043451 -0.002619153 -0.02201462 -0.0012290286 -0.00042996617
0.0022832034 -0.0027467473 -0.01585092 0.0006135703 -0.0020409909 -0.0011163263 -0.00018730598 0.0006040011
-7.2317285e-05 -0.00010436737 0.0005499729 -0.0013466645 -0.0030251662 0.0016125649 -0.001967677 -0.0020217337
-0.0018182928 -0.0022107451 5.8414385e-05 4.5999128e-05 -0.0029607336 0.0013840888 -0.0016403343 0.00014231274
-0.0015667982 -0.0035867712 -0.00086467585 0.0029254425 0.00020817376 -0.0022077283 -0.0033929185 0.0027911006
-0.0024117595 0.00016160934 -0.0022072652 0.002531741 0.001508009 -0.00047115673 0.00031591268 0.0022422767
-0.00050294143 0.0027084067 0.002233369 0.005002127 0.0037424816 -0.0019360104 -0.000897556 0.004729806
-0.00068354467 -0.0012972055 -6.876486e-05 0.0014967107 0.0005077279 0.002100991 9.706629e-05 0.00090966054
0.0015309547 0.0019146496 -0.0019700197 0.0006258296 -0.0014875515 -0.00043094927 0.0007564056 -0.0013748211
-0.0017981126 -0.00031234766 0.0009924631 -0.0005150662 -0.00565351 -0.0025893797 -0.0005606931 0.002850762
-0.0007725007 0.0011024305 0.004290225 0.004009283 -0.002564858 -0.0033098126 0.0020654632 -0.00318173
-0.0015429588 0.00012601934 -0.00079735706 0.0020940003 0.0015046655 -0.0011030636 -0.0027712048 0.0020091084
0.00021498991 -0.0004791008 0.0017557528 0.00033298493 -9.7046846e-05 0.001126566 -0.0034871355 -0.00069703924
-0.004094611 -0.00064190116 0.0023531388 0.0012032789 0.00085300574 -0.0026214197 0.00074031926 -0.0020769075
-0.00040000235 0.0045927493 0.0024860324 0.0003198402 0.002227775 -0.00088082626 0.00022477048 0.00069767365
-0.0003488311 -0.0024839786 -0.0011666733 0.00082751614 -0.00036996632 0.0029183233 -0.00039313236 0.0021334472
-0.0002507036 -0.00044131896 0.00078119774 -0.00018767348 0.0024846615 -0.00042626614 -0.0001657003 -0.0007727295
0.00010701652 0.0022048175 -7.7319804e-05 -0.006838589 -0.00064880104 -0.0002801655 -0.0009782943 0.0046351417
-0.0040573073 0.0056558214 -0.00065382465 -0.0049663656 0.0025432238 1.6028807e-05 0.0015436265 -0.0001841782
0.0037826237 0.0010647537 -6.5821754e-05 0.0050334046 0.0034541097 -0.002239291 -0.00038642978 0.0012383872
0.0036357755 0.0014401622 -0.0003801825 -0.0012100324 0.0007937914 0.000977045 -0.0009188313 4.892858e-05
0.004789182 0.0003729944 -0.00054443465 -0.0035363499 -0.00074332196 -0.00240882 -0.0021468666 0.005423321
0.001155872 -0.0009240833 -0.00021767059 0.0022172781 -0.0009166252 0.0016000724 -0.004308707 0.0013746907
00000000: f21c 3eb9 571d b03a 1044 c0b9 79b3 063b
00000010: 8627 823a 094b bbb8 0a66 843a 135f c73a
00000020: 1781 a1b9 3400 06ba fb31 1eba 9f91 793a
00000030: 9d10 813a 043d 79bb 34ab 0fbb 7d5e 68b9
00000040: 75d4 2bba 105a f83b 69ea a6ba a4a5 4cba
00000050: 7df0 c5ba 24d5 c53a 17b8 633b 74e9 78bb
00000060: e16c 4bbb f947 cbba 2d57 363a 501d a3ba
00000070: 56d9 77bb 1aa1 843a 70c1 173a ca03 d63a
00000080: 4275 4fba fd8f 653a 3345 0ebb 490b 123a
00000090: be3b c338 ce14 4338 0396 70bb 2d5a deb9
000000a0: b952 1f3b e22e 06bb a739 50ba 83e3 beba
000000b0: 39f5 7bb9 c8c2 c4ba 771d 00bb b8e4 593a
000000c0: e151 8bba dcb0 933a aa46 6f3b 821f 85ba
000000d0: 521c 743a bb49 08ba c8e6 7f3a b889 1aba
000000e0: fa5f ea3a 2a47 17bb ebfe cd3a 25e0 b338
000000f0: aa9f 3dbb a039 143a e151 7c3a 68a7 79b9
00000100: a8fb 233b a397 0a3a 009e 83ba 5d50 48bb
00000110: 6cec 813a 58d8 79ba 1904 f0b7 a089 283b
00000120: d069 213a ee31 6bb8 f643 6eb9 0533 3db9
00000130: 18a6 2bbb 0158 b4bc 5b17 a1ba 156d e1b9
00000140: cca1 153b c602 34bb cad9 81bc 01d8 203a
00000150: 25c2 05bb b251 92ba 9167 44b9 d455 1e3a
00000160: 0ca9 97b8 cedf dab8 0e2c 103a 9082 b0ba
00000170: de41 46bb b35c d33a 24f4 00bb 107f 04bb
00000180: c853 eeba 26e2 10bb f801 7538 30ef 4038
00000190: de08 42bb 506a b53a 7c00 d7ba c939 1539
000001a0: 065d cdba 0910 6bbb 6aab 62ba c8b8 3f3b
000001b0: 3849 5a39 89af 10bb ba5b 5ebb e6ea 363b
000001c0: 9c0e 1ebb ad75 2939 c4a7 10bb 91eb 253b
000001d0: 63a8 c53a 9605 f7b9 15a1 a539 29f3 123b
000001e0: d4d7 03ba 867f 313b b75d 123b e2e8 a33b
000001f0: 6c44 753b bbc1 fdba f749 6bba 7dfc 9a3b
00000200: e82f 33ba fe06 aaba da35 90b8 472d c43a
00000210: 0b19 053a c8b0 093b 1190 cb38 4976 6e3a
00000220: 51aa c83a fbf4 fa3a 721b 01bb b70e 243a
00000230: f2f9 c2ba 08f1 e1b9 8549 463a 5733 b4ba
00000240: a6ae ebba 98c2 a3b9 8915 823a 8205 07ba
00000250: 1441 b9bb 95b2 29bb 7afb 12ba dad3 3a3b
00000260: a581 4aba 6e7f 903a 0495 8c3b 4e60 833b
00000270: 2d17 28bb 71e9 58bb b95c 073b 9284 50bb
00000280: 1b3d caba 0f24 0439 ba05 51ba 7f3b 093b
00000290: 3238 c53a ac94 90ba 1a9d 35bb 3fab 033b
000002a0: ea6e 6139 d22f fbb9 4a21 e63a 7b94 ae39
000002b0: a185 cbb8 48a9 933a 6d88 64bb 83b9 36ba
000002c0: 162c 86bb 4245 28ba 1e37 1a3b 57b7 9d3a
000002d0: 3f9c 5f3a 20cc 2bbb fc11 423a ba1c 08bb
000002e0: 68b7 d1b9 c67e 963b b4ec 223b 3ab0 a739
000002f0: ddff 113b 40e7 66ba 5eb0 6b39 16e4 363a
00000300: 51e3 b6b9 3fca 22bb 0feb 98ba abed 583a
00000310: 0af8 c1b9 5741 3f3b 551d ceb9 4ed1 0b3b
00000320: de70 83b9 d460 e7b9 4bc9 4c3a 37ca 44b9
00000330: b4d5 223b 797c dfb9 d6bf 2db9 0091 4aba
00000340: 0f6e e038 b37e 103b c126 a2b8 3e16 e0bb
00000350: 4d14 2aba 2de3 92b9 1c3a 80ba 63e2 973b
00000360: 29f3 84bb 7854 b93b 6e65 2bba e5bc a2bb
00000370: 37ac 263b 9a75 8637 8353 ca3a f61f 41b9
00000380: e5e5 773b 358f 8b3a c909 8ab8 42ef a43b
00000390: 585e 623b 12c1 12bb ba99 cab9 6151 a23a
000003a0: 3146 6e3b d3c3 bc3a 3b53 c7b9 f399 9eba
000003b0: 7016 503a 3110 803a badd 70ba aa38 4d38
000003c0: 92ee 9c3b 768e c339 64b8 0eba 1bc2 67bb
000003d0: 7edb 42ba 4bdd 1dbb 72b2 0cbb 1db6 b13b
000003e0: a180 973a 2e3e 72ba 813e 64b9 c14f 113b
000003f0: ad49 70ba 85b9 d13a 0e30 8dbb f72e b43a

exp_avg_sq f4 [2, 768]
2.673708e-05 0.00012781972 3.514718e-05 0.00044399014 0.00014493424 7.288383e-05 4.9255697e-05 7.961193e-05
3.7464997e-05 4.7865222e-05 8.833043e-05 0.00016152373 6.140266e-05 0.00013504029 0.000111793066 0.00011330696
0.00024621145 0.00018925942 6.2168496e-05 3.646113e-05 4.156849e-05 2.6197898e-05 6.641949e-05 7.1963834e-05
6.501577e-05 8.126031e-05 3.8734735e-05 4.570789e-05 8.6612374e-05 4.0241826e-05 4.4935252e-05 0.00031655972
3.97106e-05 3.722388e-05 9.718878e-05 1.6981938e-05 4.8116253e-05 3.1179687e-05 0.00022347365 4.8673675e-05
0.00059034675 0.00017085625 6.0520542e-05 7.448348e-05 2.6751755e-05 7.044117e-05 4.7293823e-05 0.00014418675
2.4305536e-05 2.5219797e-05 8.8718596e-05 2.2337515e-05 5.067771e-05 6.259144e-05 7.063211e-05 0.00015871973
2.2022063e-05 0.0001356243 8.414452e-05 6.457077e-05 9.285312e-05 0.0014758512 4.979507e-05 7.167e-05
6.170399e-05 5.3519303e-05 3.3977936e-05 0.000108797794 2.9139128e-05 0.00013831198 2.5533023e-05 7.3934076e-05
3.2559994e-05 0.00017123864 3.9275612e-05 0.00018629171 8.6890075e-05 0.013860245 7.0580645e-05 0.00015257057
2.7979946e-05 0.00017657469 0.010511024 9.076316e-05 6.968083e-05 0.00033702498 5.217472e-05 7.090215e-05
2.701167e-05 2.800094e-05 0.000117829506 5.3891945e-05 5.9227048e-05 0.00014887715 3.16092e-05 0.00014202176
3.1064243e-05 0.00055960845 4.186863e-05 8.1071645e-05 0.00014461469 4.925574e-05 0.00011459226 2.2424023e-05
4.708254e-05 0.00012897266 8.7299726e-05 0.0002437337 6.111964e-05 3.2602286e-05 0.002090806 0.00011288717
9.075641e-05 4.3570304e-05 2.6251799e-05 0.00012999002 4.7013746e-05 5.8598933e-05 3.57093e-05 0.0001329365
3.4157587e-05 3.828861e-05 0.0005623648 8.964278e-05 0.0001339562 0.00010995615 3.9319784e-05 5.9471993e-05
2.6842656e-05 2.8351724e-05 2.5544583e-05 0.00022072904 3.0503561e-05 0.00012228652 3.5849735e-05 3.0996474e-05
0.00013971938 8.527859e-05 3.097998e-05 4.6927173e-05 5.6916735e-05 5.3663258e-05 2.6002486e-05 2.7671922e-05
0.00027169028 2.8206621e-05 2.692223e-05 3.5613957e-05 0.000112034206 8.261662e-05 7.878002e-05 6.416696e-05
7.51485e-05 7.539893e-05 0.0001419195 0.00021817736 8.9445624e-05 0.00019342566 0.000151283 0.00013830354
4.0773335e-05 5.814109e-05 5.754793e-05 5.8175257e-05 3.343559e-05 7.520534e-05 0.00012510554 0.000106923704
4.386643e-05 8.4349376e-05 3.8586564e-05 8.584221e-05 4.1527033e-05 4.4236232e-05 7.754907e-05 5.3171756e-05
9.580936e-05 7.302483e-05 3.473634e-05 2.5213849e-05 0.00011352061 8.28937e-05 3.5966932e-05 5.6915673e-05
3.6704372e-05 0.00019921843 6.6341505e-05 8.107217e-05 0.00029391167 7.904425e-05 3.5578334e-05 4.6616417e-05
2.560488e-05 0.00011149304 4.066174e-05 7.7579316e-05 5.4103268e-05 6.136961e-05 7.583677e-05 2.9683624e-05
3.7895876e-05 4.380459e-05 9.627065e-05 2.4710102e-05 0.00014058524 5.3287724e-05 0.00015397611 4.714223e-05
4.4329365e-05 0.00011306378 2.2394119e-05 0.00020355577 8.555279e-05 0.00011513035 8.935055e-05 0.00014242071
9.821206e-05 0.001991741 5.888046e-05 0.0012808611 4.0162922e-05 2.2637003e-05 6.1580045e-05 3.739487e-05
0.0001248842 0.00014249119 3.278575e-05 0.00011334428 0.0001325826 6.8324975e-05 3.2760083e-05 0.00012787803
8.731723e-05 4.9843686e-05 5.4513956e-05 0.00013505493 1.6461505e-05 3.718477e-05 3.2321343e-05 2.1208836e-05
0.00026947836 4.3079293e-05 6.370891e-05 0.000107064734 0.00012528579 0.00010229606 3.0354826e-05 0.00016911754
3.324304e-05 0.00016471067 4.4313776e-05 8.233284e-05 4.4937988e-05 4.642121e-05 8.803987e-05 4.3734828e-05
00000000: 7149 e037 5807 0639 ff6a 1338 59c7 e839
00000010: 7df9 1739 35d9 9838 e797 4e38 54f5 a638
00000020: bc23 1d38 e4c2 4838 0a3e b938 b25e 2939
00000030: 4dc5 8038 9a99 0d39 7272 ea38 369f ed38
00000040: f115 8139 f073 4639 7560 8238 d7ed 1838
00000050: d459 2e38 8fc3 db37 b14a 8b38 4aeb 9638
00000060: 1359 8838 4c6a aa38 1b77 2238 79b6 3f38
00000070: aaa3 b538 55c9 2838 dc78 3c38 edf7 a539
00000080: ef8e 2638 d620 1c38 d4d1 cb38 6f74 8e37
00000090: 6fd0 4938 efc6 0238 4054 6a39 f626 4c38
000000a0: 80c1 1a3a e027 3339 70d7 7d38 0434 9c38
000000b0: f568 e037 d1b9 9338 5b5d 4638 d630 1739
000000c0: bee3 cb37 1a8f d337 6f0e ba38 7361 bb37
000000d0: c78e 5438 8643 8338 5320 9438 016e 2639
000000e0: 05bc b837 5f36 0e39 bf76 b038 2b6a 8738
000000f0: 24ba c238 5971 c13a 0ddb 5038 8a4d 9638
00000100: 1467 8138 ea79 6038 8883 0e38 5f2a e438
00000110: cd6f f437 d707 1139 c02f d637 0e0d 9b38
00000120: 0791 0838 868e 3339 debb 2438 4d57 4339
00000130: c138 b638 1516 633c b204 9438 5afb 1f39
00000140: 7ab6 ea37 e826 3939 6e36 2c3c 1a58 be38
00000150: 9c21 9238 bab2 b039 2ed6 5a38 4db1 9438
00000160: 1f97 e237 90e3 ea37 3c1b f738 090a 6238
00000170: 8f6a 7838 e81b 1c39 1f94 0438 adeb 1439
00000180: fa4a 0238 b0b2 123a 199c 2f38 0205 aa38
00000190: b6a3 1739 f397 4e38 4051 f038 391b bc37
000001a0: 7e7a 4538 d63c 0739 af14 b738 c492 7f39
000001b0: 5b2d 8038 70be 0838 e705 093b d7bd ec38
000001c0: 7a54 be38 42bf 3638 4f37 dc37 ee4d 0839
000001d0: a030 4538 20c8 7538 92c6 1538 df64 0b39
000001e0: 6e44 0f38 1598 2038 aa6b 133a 9afe bb38
000001f0: 9876 0c39 4298 e638 4ceb 2438 9171 7938
00000200: 2a2c e137 ddd4 ed37 9348 d637 8073 6739
00000210: e6e1 ff37 0a3a 0039 5c5d 1638 3602 0238
00000220: a381 1239 98d7 b238 80f0 0138 abd3 4438
00000230: e1b9 6e38 7c14 6138 ea1f da37 0021 e837
00000240: a771 8e39 429d ec37 0cd7 e137 3260 1538
00000250: e8f3 ea38 7642 ad38 b436 a538 6091 8638
00000260: 0b99 9d38 7e1f 9e38 3ad0 1439 8ac6 6439
00000270: c194 bb38 4ed2 4a39 b9a1 1e39 9305 1139
00000280: 0904 2b38 85dc 7338 9f5f 7138 3501 7438
00000290: 313d 0c38 8fb7 9d38 c32e 0339 3a3c e038
000002a0: 38fd 3738 bae4 b038 02d8 2138 3006 b438
000002b0: 502d 2e38 4b8a 3938 d7a1 a238 bd04 5f38
000002c0: 42ed c838 e824 9938 dcb1 1138 5482 d337
000002d0: ea11 ee38 37d7 ad38 33db 1638 bdb8 6e38
000002e0: 05f3 1938 4ae5 5039 d320 8b38 4a05 aa38
000002f0: 2818 9a39 8fc4 a538 f239 1538 ff85 4338
00000300: 10ca d637 5fd1 e938 368c 2a38 14b2 a238
00000310: f1ec 6238 8fb3 8038 8e0a 9f38 1901 f937
00000320: 63f2 1e38 d2ba 3738 e9e4 c938 8a48 cf37
00000330: 106a 1339 4281 5f38 a674 2139 96ba 4538
00000340: 4bee 3938 a81c ed38 01db bb37 9671 5539
00000350: ce6a b338 2372 f138 b661 bb38 c556 1539
00000360: 33f7 cd38 de87 023b 6af6 7638 91e2 a73a
00000370: 9c74 2838 98e4 bd37 8924 8138 70d8 1c38
00000380: 59f3 0239 b069 1539 6e83 0938 3fb3 ed38
00000390: df05 0b39 b149 8f38 df67 0938 ff16 0639
000003a0: 151e b738 400f 5138 eaa5 6438 889d 0d39
000003b0: d016 8a37 d8f6 1b38 c790 0738 a1e9 b137
000003c0: c648 8d39 0ab0 3438 769b 8538 f187 e038
000003d0: 265f 0339 c787 d638 7ea2 fe37 2555 3139
000003e0: 716e 0b38 2fb6 2c39 8edd 3938 1baa ac38
000003f0: cc7b 3c38 65b4 4238 0ca2 b838 ea6f 3738

exp_avg f4 [2]
0.004566878 -0.004566871
00000000: c0a5 953b b1a5 95bb

exp_avg_sq f4 [2]
0.00083693623 0.0008369362
00000000: d765 5b3a d665 5b3a
