2024:05:01_ckpts/operational/Linear/lr_0.001_epoch_100/4.pth (torch, 21075 bytes, 6 tensors)

linear.weight f4 [2, 768]
-0.55098844 -0.073044725 0.39746213 0.1794956 -0.04504208 0.06182478 0.13065104 0.08378433
-0.05740806 0.09048597 -0.072504506 -0.016764486 0.070706636 -0.13854247 0.032510616 0.07960743
-0.39981556 0.18396372 0.12037915 -0.34367904 0.1065094 0.26385364 -0.007682824 0.048341025
-0.082171686 0.2117327 -0.11145405 -0.39559397 -0.047891147 0.4651778 0.018218407 0.112492
0.04616398 -0.057424977 0.15374494 -0.42983586 -0.20832865 0.3506982 -0.14875774 -0.08546946
0.07595448 0.13464361 0.54428995 0.64431584 -0.32565373 -0.0038786775 0.09568031 0.15717183
0.43558216 -0.2602937 0.07568933 -0.28035265 0.37917623 -0.37341735 -0.15641685 0.044596348
0.30198753 0.06667 0.27060258 0.07765832 0.031554118 -0.08723333 -0.10157149 -0.09205258
-0.39629915 -0.45758504 0.1728641 -0.07324846 0.66510034 -0.26202342 -0.42705226 0.30451515
0.026145916 0.28558385 0.2197203 -0.008034151 -0.0060171345 -0.034454074 0.18052875 -0.18125512
0.12725739 -0.1875278 -0.07606524 0.052423414 0.0040052026 -0.1002623 -0.23731007 0.3335724
-0.2859424 -0.02531748 -0.014433714 0.25116232 0.12179617 0.34271526 -0.15742074 -0.18639588
-0.037835043 0.14031956 -0.22947563 0.1674414 -0.1950276 -0.24786514 0.2689057 0.38128003
-0.2837299 0.054494567 -0.38617644 -0.06153475 0.10172777 -0.07127209 0.0187712 -0.0860049
-0.3732007 -0.16065797 -0.50845134 0.5490355 0.45644593 0.22581096 0.06619806 0.04727474
0.375166 0.09262924 -0.021451754 -0.1185517 -0.10981043 0.07862878 -0.12370142 -0.111602046
-0.09400934 -0.25960878 0.64361703 -0.040265463 -0.47466728 0.17323738 -0.3594161 -0.02721987
0.025487809 0.0054270113 0.7229334 0.13719401 0.20686373 -0.1432028 0.061797652 -0.037162002
0.059026163 0.10245054 -0.020230532 0.30040005 0.494914 -0.26601535 -0.3440654 0.21391892
-0.119843066 -0.49437097 -0.009197512 -0.11283749 0.11347695 0.11745483 0.19131854 -0.4191063
-0.51417863 0.08459095 0.08810685 0.17012726 0.694531 0.17372927 0.24009441 -0.20590462
0.40536982 -0.021865787 0.0669566 -0.21140039 -0.08401846 0.19664238 0.23206346 0.41882777
0.18137132 -0.060479052 0.2052209 -0.3435999 -0.29260218 0.22018237 -0.3945841 0.20689854
0.2496745 -0.0062961853 0.17255831 -0.12775138 0.32837957 -0.42004678 0.031511135 0.17171232
-0.40538454 0.045216497 -0.23369564 0.19617103 0.34683904 -0.15520698 -0.17535754 0.08933738
-0.10564422 -0.13977551 0.086450346 -0.7770778 0.4490386 -0.30290133 0.21246175 -0.09851566
-0.023408653 0.08230298 -0.5119712 0.13481121 -0.15178451 0.27401128 0.3849303 0.17347018
0.2392543 0.0002145647 0.021171067 -0.018098729 -0.17599171 -0.13777785 0.017558962 0.09105949
0.17546989 0.14158282 -0.27529228 -0.13035686 -0.251047 -0.039509997 0.35912806 0.3966277
0.22548784 -0.44596526 -0.009776338 0.43575716 -0.18059462 -0.5772476 0.21660702 -0.23675594
-0.32680002 -0.22076522 -0.5467368 -0.14299233 0.001887756 -0.13266878 -0.2577432 -0.28002423
0.13064101 -0.29408318 -0.08140574 0.05268645 -0.24237843 -0.14232521 -0.3183171 -0.43709758
00000000: 940d 0dbf 7998 95bd 2880 cb3e b2cd 373e
00000010: 0b7e 38bd fb3b 7d3d 63c9 053e 1e97 ab3d
00000020: b724 6bbd b550 b93d 3e7d 94bd ad55 89bc
00000030: a4ce 903d 14de 0dbe da29 053d 3809 a33d
00000040: a0b4 ccbe fc60 3c3e 5889 f63d b3f6 afbe
00000050: 9a21 da3d d317 873e 33c0 fbbb 3d01 463d
00000060: a149 a8bd 75d0 583e 0542 e4bd 4b8b cabe
00000070: 8229 44bd c92b ee3e c53e 953c 3562 e63d
00000080: 7116 3d3d 7436 6bbd 506f 1d3e 7213 dcbe
00000090: 1b54 55be b78e b33e f353 18be 9d0a afbd
000000a0: 068e 9b3d 04e0 093e 9656 0b3f e2f1 243f
000000b0: 16bc a6be 6931 7ebb 0af4 c33d a7f1 203e
000000c0: a004 df3e 3745 85be 0203 9b3d 628a 8fbe
000000d0: 6323 c23e 8f30 bfbe bd2b 20be a9aa 363d
000000e0: 1c9e 9a3e 488a 883d 6c8c 8a3e 530b 9f3d
000000f0: e43e 013d 63a7 b2bd b704 d0bd 1086 bcbd
00000100: b9e7 cabe 9648 eabe 4903 313e 4a03 96bd
00000110: 0444 2a3f ef27 86be 98a6 dabe 69e9 9b3e
00000120: f62f d63c 0c38 923e 5cfe 603e aca1 03bc
00000130: 622b c5bb b71f 0dbd 87dc 383e f19a 39be
00000140: c34f 023e 4a07 40be 18c8 9bbd efb9 563d
00000150: 133e 833b 5256 cdbd 6901 73be 00ca aa3e
00000160: 0b67 92be 9b66 cfbc 627b 6cbc 5998 803e
00000170: 4570 f93d 6078 af3e e732 21be 90de 3ebe
00000180: ebf8 1abd eeaf 0f3e a9fb 6abe c275 2b3e
00000190: 51b5 47be 5cd0 7dbe 02ae 893e 2337 c33e
000001a0: 0c45 91be b235 5f3d ebb8 c5be dd0b 7cbd
000001b0: a656 d03d 1af7 91bd 0fc6 993c 5623 b0bd
000001c0: 2a14 bfbe 8683 24be de29 02bf 978d 0c3f
000001d0: 48b3 e93e fd3a 673e d992 873d 28a3 413d
000001e0: c215 c03e 66b4 bd3d 97bb afbc 3ccb f2bd
000001f0: 4ae4 e0bd 2008 a13d 2c57 fdbd 9d8f e4bd
00000200: f887 c0bd 71eb 84be 16c4 243f 66ed 24bd
00000210: 9707 f3be 2465 313e 6305 b8be 34fc debc
00000220: cfcb d03c 12d5 b13b 2a12 393f 967c 0c3e
00000230: 16d4 533e c1a3 12be 891f 7d3d 2f37 18bd
00000240: 6bc5 713d 97d1 d13d 80ba a5bc 09ce 993e
00000250: 5e65 fd3e 2a33 88be 5729 b0be 900d 5b3e
00000260: 4870 f5bd 311e fdbe 29b1 16bc 5817 e7bd
00000270: 9a66 e83d 288c f03d 02e9 433e 1a95 d6be
00000280: 36a1 03bf 053e ad3d 5d71 b43d d735 2e3e
00000290: c9cc 313f 16e6 313e 4fdb 753e a9d8 52be
000002a0: a28c cf3e e11f b3bc 8b20 893d 5879 58be
000002b0: df11 acbd 9f5c 493e 0ba2 6d3e 9870 d63e
000002c0: 67b9 393e e2b8 77bd 6d25 523e 53ec afbe
000002d0: f4cf 95be 7d77 613e ed06 cabe 36dd 533e
000002e0: acaa 7f3e 3b50 cebb 20b3 303e 42d1 02be
000002f0: 5e21 a83e 5f10 d7be d211 013d 5bd5 2f3e
00000300: 908e cfbe ef34 393d e94d 6fbe 0fe1 483e
00000310: e394 b13e 94ee 1ebe ed90 33be 84f6 b63d
00000320: ff5b d8bd 5021 0fbe e10c b13d 92ee 46bf
00000330: 63e8 e53e e215 9bbe 938f 593e 94c2 c9bd
00000340: 81c3 bfbc 778e a83d 8b10 03bf f30b 0a3e
00000350: 666d 1bbe 354b 8c3e 9615 c53e 2ba2 313e
00000360: 14ff 743e c6fc 6039 f26e ad3c c943 94bc
00000370: 2c37 34be a315 0dbe d0d7 8f3c 667d ba3d
00000380: 61ae 333e 16fb 103e 1cf3 8cbe 457c 05be
00000390: 3b89 80be 3cd5 21bd a2df b73e c912 cb3e
000003a0: 49e6 663e 8f55 e4be ef2c 20bc 901b df3e
000003b0: cced 38be 80c6 13bf 3bce 5d3e 2670 72be
000003c0: 5552 a7be 4710 62be f1f6 0bbf 956c 12be
000003d0: 956e f73a 53da 07be ebf6 83be 565f 8fbe
000003e0: c2c6 053e 1292 96be 0db8 a6bd bfcd 573d
000003f0: 0d32 78be b3bd 11be 75fa a2be 41cb dfbe

linear.bias f4 [2]
0.05619947 -0.06402745
00000000: 6a31 663d d320 83bd

exp_avg f4 [2, 768]
0.0010752617 5.4119314e-06 0.0011273896 0.003816723 0.005766983 -0.0011835329 -0.00092679315 0.0026030114
-0.00096842466 -0.002950093 0.0024945494 0.0029067704 3.8162107e-05 -0.0023177885 -0.0019862165 -0.00041186158
0.002643146 0.0021495584 -0.0013251693 0.001230271 -0.00053178787 -0.00032888853 0.0020155662 -0.0016454811
-0.0025768157 0.0020113615 0.00042124637 -0.0008482115 -0.002157544 0.0015847423 0.0001445669 0.0015154289
-0.00014684263 0.00037911092 0.00049787347 0.000793611 0.00023029452 0.00035196217 -0.0044523184 -0.0001344602
0.0064002336 -0.00034851642 -0.001924244 -0.00054411724 0.0003372794 -0.00040027365 -0.0007774215 0.00090296706
0.00068358704 -0.00066578254 0.00048051283 -0.0010998338 0.00019448863 0.0020781425 0.0023453538 -0.0024136119
-0.0012072456 0.0004183384 0.0023803713 0.0014048616 -0.0019508523 0.0041057128 -0.0018240024 -0.0014726289
-0.0008200851 -0.0007939732 2.8563454e-05 0.00021808602 0.00079847 0.00031747125 0.00011308261 0.00011338073
0.0014425728 -0.0015571375 -0.00062624755 -0.000101954254 0.0016191914 -0.015280251 -4.4266242e-05 0.0032235861
-0.0018271834 -9.002873e-06 -0.017152075 0.0009790567 -0.0010936973 -0.0032160862 0.00012721261 -0.000119332035
0.0012596966 0.0016387829 0.0007672223 -0.0023838445 0.00013027909 0.0026226207 -0.00016337051 0.00054574787
0.0010068935 -0.004262971 0.00029520594 0.0008780244 -0.00014622425 0.00079103804 -0.00062338077 -0.0006749665
0.0019262685 -0.0023655568 -0.0008607154 -0.002154675 -0.0001826909 0.00021574367 -0.0009605142 -0.00196013
-0.000749811 -0.0005858913 -0.0011510154 0.0004146644 -0.0006188415 -0.001415382 -0.0009409685 0.0016488951
-0.0033087363 -0.00168586 0.0035892213 0.002508783 0.001432584 -0.00025855534 -0.0013777588 -0.00052415114
-0.00034293556 -0.0004145638 -0.0002978847 0.0053023817 0.0020335303 0.0023420814 -0.0024464503 0.0011782363
-0.00031214158 -0.0010005182 -0.00020377347 -0.0018910812 -0.00079541205 -0.0014387368 -0.0013306247 -0.00013303307
0.00040820218 -0.0006685333 0.00037495306 0.00027849246 -0.00069911574 -0.0012714954 0.0015866723 -2.2862494e-05
-0.0016533044 0.00097212556 0.003868772 0.0019292186 -0.0010980191 -0.0023947363 -0.00023921054 -0.0009787686
0.001995409 0.00017133549 -0.0018715231 0.005215224 -0.001073621 0.0004019005 -0.004340725 0.0020362758
-0.00020222497 0.00045895771 0.0023904024 -0.0015636759 8.6080814e-05 0.002507041 -0.003768733 0.0011473869
0.0003329078 -0.0017127624 -0.00038783078 0.0016957637 0.0017249796 -0.0020357599 0.0013645361 0.001879352
-0.0015750915 0.0028790466 0.0016087666 -0.0019365135 0.0012962921 -0.00090066955 -4.961049e-05 0.00046503433
0.0014554629 -0.0036063355 0.00081002415 -0.001468554 -0.00037571497 0.000608828 -0.0013972396 0.00018107575
0.00035687606 -0.00034566256 3.0807725e-05 -0.0014824588 -0.000559932 -0.0019812682 0.0027376022 0.0014905195
3.5149766e-05 -0.0011403431 0.00029694973 -0.00080021744 -0.0006307953 0.0021466517 0.002496392 0.0030613567
-0.0016641038 -0.0051029352 0.00066544925 -0.003263424 -0.0010382144 0.0007635225 -0.0008115027 -0.0018477058
0.0005445291 -0.0012767547 -0.0014423061 0.0022292582 0.0042128623 0.00020023822 -0.00045122695 0.002049271
-8.162194e-05 0.0019924312 -0.0016746478 -0.0016237161 -0.00030970844 0.0020406141 0.0006224256 0.00025495273
-0.00022307807 -0.0013669565 0.0010428644 0.0016056033 0.0013122262 -0.00049925986 -0.0004346474 0.001389623
0.0021726012 -0.0020906122 0.00094024837 0.00022932545 7.868834e-05 0.0023362378 -0.0024876725 -2.1570563e-06
00000000: ccef 8c3a 2398 b536 ebc4 933a fc21 7a3b
00000010: f6f8 bc3b c620 9bba 09f4 72ba 4997 2a3b
00000020: e1dd 7dba 5956 41bb 987b 233b 847f 3e3b
00000030: 4010 2038 0ae6 17bb 2f2b 02bb 20ef d7b9
00000040: a238 2d3b 9bdf 0c3b 4eb1 adba 0b41 a13a
00000050: ae67 0bba ac6e acb9 9717 043b 2fad d7ba
00000060: cbdf 28bb 0cd1 033b bbda dc39 835a 5eba
00000070: 9565 0dbb 21b7 cf3a e296 1739 5ba1 c63a
00000080: c5f9 19b9 68c3 c639 b983 023a 550a 503a
00000090: 377b 7139 9087 b839 c1e4 91bb e3fd 0cb9
000000a0: 0db9 d13b 15b9 b6b9 ea36 fcba 17a3 0eba
000000b0: e0d4 b039 d2db d1b9 e0cb 4bba 18b5 6c3a
000000c0: c032 333a e987 2eba 57ed fb39 4c28 90ba
000000d0: a5ef 4b39 7231 083b 82b4 193b b02d 1ebb
000000e0: 713c 9eba 6e54 db39 0100 1c3b 5523 b83a
000000f0: beb3 ffba 3789 863b 5d13 efba 3a05 c1ba
00000100: fbfa 56ba a422 50ba 8d9b ef37 05ae 6439
00000110: 6a50 513a 4572 a639 c426 ed38 d1c6 ed38
00000120: b614 bd3a dd18 ccba c32a 24ba 46d0 d5b8
00000130: 0c3b d43a 055a 7abc 84aa 39b8 cd42 533b
00000140: 1a7e efba 0c0b 17b7 8282 8cbc b153 803a
00000150: 645a 8fba f9c4 52bb 6064 0539 e641 fab8
00000160: 671c a53a 6ecc d63a 6b1f 493a 463a 1cbb
00000170: 879b 0839 46e0 2b3b 704e 2bb9 8510 0f3a
00000180: bdf9 833a 65b0 8bbb dfc5 9a39 382b 663a
00000190: c653 19b9 aa5d 4f3a 606a 23ba 3cf0 30ba
000001a0: d87a fc3a 7507 1bbb a2a1 61ba 7335 0dbb
000001b0: b790 3fb9 4039 6239 04cb 7bba 8675 00bb
000001c0: f78e 44ba 8096 19ba abdd 96ba 5067 d939
000001d0: c039 22ba 5784 b9ba 54ab 76ba bd1f d83a
000001e0: 62d7 58bb 13f8 dcba 2439 6b3b 656a 243b
000001f0: 8bc5 bb3a b68e 87b9 ea95 b4ba 3067 09ba
00000200: 08cc b3b9 d059 d9b9 682d 9cb9 9abf ad3b
00000210: fa44 053b 9b7d 193b a054 20bb 0d6f 9a3a
00000220: efa6 a3b9 d223 83ba 06ac 55b9 28de f7ba
00000230: 3383 50ba ff93 bcba 5b68 aeba cb7e 0bb9
00000240: f803 d639 8340 2fba 5995 c439 a002 9239
00000250: dd44 37ba 4ea8 a6ba e3f7 cf3a d5c8 bfb7
00000260: b1b3 d8ba 3ed6 7e3a 398b 7d3b d6dd fc3a
00000270: 68eb 8fba 02f1 1cbb 97d4 7ab9 064a 80ba
00000280: 68c5 023b 85a8 3339 e54d f5ba 78e4 aa3b
00000290: beb8 8cba 2cb6 d239 a43c 8ebb 0a73 053b
000002a0: 5a0c 54b9 43a0 f039 4ca8 1c3b 42f4 ccba
000002b0: 4986 b438 2b4d 243b d9fc 76bb ea63 963a
000002c0: 218a ae39 c57e e0ba c455 cbb9 6344 de3a
000002d0: b618 e23a 626a 05bb 3cda b23a 9754 f63a
000002e0: 4d73 ceba 63ae 3c3b 40dd d23a 9cd2 fdba
000002f0: 58e8 a93a e91a 6cba dc14 50b8 dacf f339
00000300: 3bc5 be3a 4558 6cbb cd57 543a 7f7c c0ba
00000310: 9cfb c4b9 c199 1f3a 9523 b7ba 27df 3d39
00000320: 181b bb39 0b3a b5b9 8b37 0138 104f c2ba
00000330: 67c8 12ba 2ad8 01bb 5869 333b 895d c33a
00000340: c66d 1338 9177 95ba ebaf 9b39 afc5 51ba
00000350: f55b 25ba d7ae 0c3b 829a 233b 0ba1 483b
00000360: 0f1e daba 8636 a7bb 8b71 2e3a 2bdf 55bb
00000370: b214 88ba 2127 483a 06bb 54ba b82e f2ba
00000380: bbbe 0e3a c758 a7ba c30b bdba bf18 123b
00000390: 0d0c 8a3b 0af7 5139 a892 ecb9 104d 063b
000003a0: 722c abb8 7393 023b db7f dbba dfd2 d4ba
000003b0: 5d60 a2b9 d3bb 053b 462a 233a 2dab 8539
000003c0: 10ea 69b9 732b b3ba b9b0 883a 1b73 d23a
000003d0: 01ff ab3a c3e0 02ba 63e1 e3b9 0324 b63a
000003e0: 3362 0e3b a702 09bb 007b 763a 1577 7039
000003f0: 7b05 a538 911b 193b 3808 23bb f2c1 10b6

exp_avg_sq f4 [2, 768]
2.448462e-05 0.00013803942 6.175242e-05 0.00036988273 0.00018975264 0.00011921609 3.2393466e-05 8.849848e-05
4.215701e-05 6.757296e-05 8.463179e-05 0.00017483071 5.2831354e-05 0.00010753255 0.0001143845 0.0001098689
0.0001993387 0.00018431158 9.3016846e-05 5.575401e-05 3.145724e-05 3.348099e-05 5.789725e-05 7.2513285e-05
6.488991e-05 3.5283698e-05 3.7465292e-05 2.9599487e-05 5.994353e-05 5.1929837e-05 4.0122057e-05 9.599924e-05
4.105642e-05 3.3909233e-05 0.000106000036 1.6072803e-05 5.6459598e-05 3.8232767e-05 0.00024727712 3.270986e-05
0.00061917066 0.00016021144 3.181435e-05 2.9081802e-05 2.6492306e-05 4.0040155e-05 5.4233067e-05 0.00013007614
2.2484573e-05 2.8220933e-05 7.8296034e-05 4.6687783e-05 4.901531e-05 3.671653e-05 5.2796415e-05 0.00014640346
1.8498895e-05 0.00013246815 5.7356992e-05 4.6592275e-05 0.0001055767 0.001224966 8.121136e-05 8.04342e-05
3.2411106e-05 4.0401006e-05 1.9318239e-05 0.00010371077 2.1372063e-05 4.390667e-05 2.8118602e-05 5.7614372e-05
2.9644287e-05 0.00020884923 5.2573578e-05 0.00019651587 8.780234e-05 0.017073771 8.087436e-05 0.00016052621
2.4818888e-05 0.00011717181 0.010517056 7.567075e-05 4.8008562e-05 0.00037645551 2.4261895e-05 6.641542e-05
3.2447577e-05 2.7799273e-05 7.304626e-05 5.3440708e-05 4.1780164e-05 0.0001560124 2.2248738e-05 8.3650426e-05
3.9534938e-05 0.000652442 1.7899387e-05 0.00010134789 0.00014360927 3.408617e-05 0.00012498646 2.5130446e-05
6.4315704e-05 0.00011065512 7.805978e-05 0.00018192605 3.412327e-05 6.1472776e-05 0.0016386698 0.00011186948
9.736327e-05 3.4633496e-05 2.3907804e-05 0.00013836581 3.932245e-05 4.984986e-05 4.3195327e-05 0.00020865408
6.786853e-05 2.9413297e-05 0.00047211128 0.00010337544 0.000117606396 0.00010018744 4.0503524e-05 5.476254e-05
3.3663426e-05 1.838404e-05 1.3032606e-05 0.00041785292 3.7337268e-05 0.0001675611 3.629731e-05 4.1546165e-05
0.00011906286 3.469149e-05 2.6856038e-05 2.6543641e-05 4.416888e-05 5.524181e-05 2.8560342e-05 3.3548724e-05
0.00023626132 2.3577066e-05 1.8815657e-05 2.7725984e-05 9.83917e-05 8.49851e-05 3.287239e-05 7.326434e-05
8.525768e-05 7.035917e-05 0.00021503252 0.00020725525 8.235418e-05 0.00017720285 0.00013340026 0.00012696943
4.085398e-05 9.421438e-05 8.909991e-05 0.000111343004 4.454959e-05 4.946506e-05 0.000117999414 0.00010187218
3.5201625e-05 8.7039945e-05 0.00010921034 5.9377027e-05 4.811847e-05 4.811744e-05 0.00014516829 3.3845405e-05
7.674789e-05 9.159692e-05 1.9099325e-05 3.4081488e-05 7.198635e-05 6.6757115e-05 4.1102117e-05 5.4293298e-05
4.3834163e-05 0.00019813792 7.862726e-05 6.1430306e-05 0.00014792608 5.1696337e-05 2.9261211e-05 6.0662183e-05
1.9111438e-05 0.00010913536 7.5950265e-05 8.444521e-05 5.612455e-05 4.0222603e-05 9.193933e-05 4.5594705e-05
4.2178715e-05 3.964818e-05 7.871253e-05 2.6826776e-05 0.00012659104 5.9170485e-05 0.0001682335 1.9178342e-05
3.364308e-05 0.00011316935 2.1553757e-05 0.00018201469 8.587789e-05 0.00015294971 0.000105828185 0.00011367434
8.443252e-05 0.002235717 6.46382e-05 0.001428334 2.6557673e-05 3.055418e-05 6.245018e-05 6.208149e-05
0.00012239258 0.00012974837 3.4669047e-05 6.0309383e-05 0.000105003426 0.00012568095 2.2816848e-05 0.00012506772
7.9864636e-05 7.382258e-05 6.271653e-05 6.5874374e-05 2.1585727e-05 3.5337944e-05 3.786054e-05 1.3332263e-05
0.00021510413 3.1292733e-05 3.7297174e-05 0.00018949683 9.5909454e-05 8.9694244e-05 4.186576e-05 0.00023811872
5.3542055e-05 9.376652e-05 5.5567194e-05 7.5844335e-05 4.578384e-05 8.5544285e-05 7.979713e-05 4.0348154e-05
00000000: 5264 cd37 adbe 1039 1481 8138 d2ec c139
00000010: 56f8 4639 a703 fa38 38de 0738 4298 b938
00000020: bfd1 3038 f5b5 8d38 597c b138 c352 3739
00000030: 3c97 5d38 1983 e138 b6e1 ef38 6b69 e638
00000040: 9305 5139 c343 4139 0a12 c338 6ad9 6938
00000050: f4f0 0338 f06d 0c38 b3d6 7238 4612 9838
00000060: 8115 8838 95fd 1338 0d24 1d38 6a4c f837
00000070: e06b 7b38 3dcf 5938 bb48 2838 3353 c938
00000080: ff33 2c38 c339 0e38 564c de38 15d4 8637
00000090: 08cf 6c38 1f5c 2038 f9a4 8139 f231 0938
000000a0: d74f 223a 6efe 2739 6670 0538 b2f4 f337
000000b0: cb3b de37 caf0 2738 5078 6338 0c65 0839
000000c0: 419d bc37 febb ec37 dd32 a438 a0d2 4338
000000d0: ca95 4d38 1300 1a38 b871 5d38 e183 1939
000000e0: 132e 9b37 26e7 0a39 9a92 7038 136c 4338
000000f0: 0f69 dd38 0a8f a03a 0450 aa38 c8ae a838
00000100: 29f1 0738 4074 2938 9a0d a237 4c7f d938
00000110: 2848 b337 6e28 3838 3de0 eb37 f6a6 7138
00000120: 9fac f837 8afe 5a39 7382 5c38 d40f 4e39
00000130: 8622 b838 4bde 8b3c 179b a938 ed52 2839
00000140: 2832 d037 23ba f538 bb4f 2c3c 6db1 9e38
00000150: cd5c 4938 015f c539 0686 cb37 8248 8b38
00000160: 5218 0838 7c32 e937 6a30 9938 8625 6038
00000170: 1c3d 2f38 4297 2339 cda2 ba37 7b6d af38
00000180: 51d2 2538 a408 2b3a a426 9637 bc8a d438
00000190: d295 1639 bff7 0e38 cc0e 0339 39cf d237
000001a0: 3be1 8638 840f e838 06b4 a338 67c3 3e39
000001b0: 951f 0f38 f2ea 8038 a2c8 d63a 789b ea38
000001c0: 822f cc38 6f43 1138 9e8d c837 4a16 1139
000001d0: 29ee 2438 e115 5138 a12c 3538 27ca 5a39
000001e0: a454 8e38 93bc f637 b485 f739 44cb d838
000001f0: 74a3 f638 b91b d238 54e2 2938 d4b0 6538
00000200: d431 0d38 6d37 9a37 9ea6 5a37 4513 db39
00000210: 969a 1c38 57b3 2f39 f13d 1838 db41 2e38
00000220: 63b1 f938 b481 1138 e748 e137 09aa de37
00000230: f941 3938 71b3 6738 de94 ef37 abb6 0c38
00000240: eabc 7739 5dc7 c537 51d6 9d37 1995 e837
00000250: a457 ce38 073a b238 76e0 0938 7ea5 9938
00000260: 5ecc b238 cb8d 9338 5a7a 6139 a852 5939
00000270: 90b5 ac38 87cf 3939 5ce1 0b39 1923 0539
00000280: a15a 2b38 f694 c538 26db ba38 d280 e938
00000290: c2da 3a38 b478 4f38 7476 f738 36a4 d538
000002a0: 75a5 1338 3789 b638 db07 e538 990b 7938
000002b0: d0d2 4938 b5d1 4938 5138 1839 3af5 0d38
000002c0: b6f3 a038 b917 c038 7d37 a037 b8f2 0e38
000002d0: 61f7 9638 f4ff 8b38 1065 2c38 fcb8 6338
000002e0: 93da 3738 3ec3 4f39 b0e4 a438 25d4 8038
000002f0: 9b1c 1b39 85d4 5838 f975 f537 866f 7e38
00000300: 8051 a037 9adf e438 7d47 9f38 2d18 b138
00000310: 4767 6b38 b1b4 2838 8dcf c038 f13c 3f38
00000320: 0de9 3038 e94b 2638 7812 a538 100a e137
00000330: 86bd 0439 d32d 7838 d667 3039 2de1 a037
00000340: fb1b 0d38 5555 ed38 57ce b437 32db 3e39
00000350: 5719 b438 2061 2039 13f0 dd38 7264 ee38
00000360: 5d11 b138 1b85 123b 5f8e 8738 f036 bb3a
00000370: 2bc8 de37 4d27 0038 aff7 8238 bf31 8238
00000380: 8256 0039 100d 0839 9b69 1138 b5f4 7c38
00000390: 4935 dc38 39c9 0339 cf66 bf37 9c24 0339
000003a0: 007d a738 32d1 9a38 ae86 8338 0926 8a38
000003b0: ff12 b537 d437 1438 72cc 1e38 a2ad 5f37
000003c0: 938d 6139 5140 0338 896f 1c38 abb3 4639
000003d0: ff22 c938 3b1a bc38 0499 2f38 82af 7939
000003e0: 5892 6038 84a4 c438 d210 6938 9e0e 9f38
000003f0: 0608 4038 3d66 b338 c258 a738 803b 2938

exp_avg f4 [2]
0.0048733884 -0.004873381
00000000: f2b0 9f3b e2b0 9fbb

exp_avg_sq f4 [2]
0.0007865078 0.0007865079
00000000: a52d 4e3a a72d 4e3a
