2024:05:01_ckpts/operational/Linear/lr_0.001_epoch_100/5.pth (torch, 21075 bytes, 6 tensors)

linear.weight f4 [2, 768]
00000000: 3327 60be 0e17 4c3e 2a88 003f 7ba5 ef3d
00000010: cb60 1bbe d92c d23d a0d9 f53d 2b3a 403e
00000020: 2248 2cbe 065f 0cbe cde5 973e 4f8d a5bc
00000030: a97f 243e 460c 53be 48b5 5b3c 5446 233e
00000040: f7f2 cbbe 0eec d43d e74b d1be 80d5 afbe
00000050: ba90 6f3d 4456 a9be 25f6 b5bd 74d5 9a3d
00000060: f973 a43b 95cb 33bf f86c d63c be01 963d
00000070: 8a07 2b3e 7022 933e e8dd 0b3f 6467 a73d
00000080: 8b86 6cbe 075e 99be aa37 e7bc 9ae1 acbd
00000090: 4146 be3d be3a aabd 122d 99bc 0d80 423f
000000a0: 610d 3cbd 4838 bf3e 8b5d eabc a5b5 6fbe
000000b0: efab 203e 7108 94bd 2e1f 4abe 4e11 513e
000000c0: 43d2 a63e 3474 e2be 8b81 883e 7ec3 09be
000000d0: 784f f63e 75f3 c5be f7ce 67bd a9aa ddbd
000000e0: b222 1a3e 279e b73e e82c 9abb a5dd bdbd
000000f0: 6d01 6b3d 713e 7cbd f827 bfbe 9b2d 8bbe
00000100: 216e afbe 8a82 21bf eb13 823e ae6d f8bd
00000110: 076f 023f 0734 ebbe cd0e bdbe 36e3 0c3f
00000120: 39cf 47be 2ef1 563e 77b5 9c3d c928 9ebd
00000130: ca84 77be caf0 6dbd 7581 fe3e 4d64 b6be
00000140: 0bf2 643e 19b4 aebe bb03 30bd fc91 b2bd
00000150: dc53 1a3e 4a85 cfbe e9eb 4b3e 23a3 ea3e
00000160: 7d74 58be 89d3 cd3e 1b9b a0bd ff3c 02be
00000170: 3582 b3bc 7062 113d a677 303e d35f aebd
00000180: 2272 25bd 0235 073e 004f 3cbe 73a7 55bc
00000190: 1a26 3abb 132f 32be d81e 6e3e 0f63 b43e
000001a0: 389b 27bf d38e e43d 53e4 b3bd 95b3 f13d
000001b0: f06e 30be 5047 5f3e 33d1 c03b 9bef 5dbe
000001c0: 8ba7 17bf 5751 623e 8ee0 78bd c331 003f
000001d0: 822a 1e3f aad5 d53d e1e1 7a3e fc91 583e
000001e0: 8833 04be 28d6 94bc f8a1 023e 3234 303e
000001f0: 6ebd 09be a9a7 2bbd fce6 0e3d f430 783e
00000200: 9c0b 14be d0ff e33c 832a 873e e229 0dbc
00000210: 01f2 94be 5a5a 19bd 411e e5be ca8e ccbe
00000220: 0f79 3f3d 70ea 03be cd30 473e 5ab0 45be
00000230: 3a8e cd3e af7f 5ebe f15c afbe 01b8 d1be
00000240: a97d 373d c74f bb3c f584 963e e7a6 713e
00000250: f5fb 0e3f 4718 65be ad4f 37be 1a27 283d
00000260: d0a3 f73b d39f 8fbd e416 ca3c be92 be3b
00000270: 195f 923e a1f0 213e 1a6a 863e 7105 35bd
00000280: 3166 97bd d73d 783e 93fc 063f a376 64be
00000290: 76bc 59be fe0f 8d3d 2ca4 833e 4a77 2ebe
000002a0: c4e7 b5bd b89a 943e b4b3 953e e1f7 13be
000002b0: 8df0 633e 70e7 a33e e35b 9e3d c418 e7be
000002c0: f5c0 e7bd b7d6 b3bd ef87 1eba 63c8 8abf
000002d0: eb96 ca3d 3ab0 84bd 59ca 003e cac7 f13e
000002e0: eaa6 373c c776 24be 343a c93d 641b 55be
000002f0: 5748 083e 4048 0f3d 815e bdbd 0a68 9c3e
00000300: 0c3a 163f 32de a93e be4b f53d 5361 563e
00000310: adf4 ca3d 86c5 dcbd 4e42 e5be 499b 28be
00000320: 3ae7 483d ce70 93be 67b4 9b3e d461 05bf
00000330: 0035 e13e cc12 cbbd 164f 993e fa82 16bd
00000340: 2a48 81be bba9 af3e a000 aabd 8b65 e03d
00000350: bb19 e6bd 18ca 4c3e 5137 d83e 876b 083e
00000360: 2544 3c3e 3abf a4bd 147f 82be 9978 0f3c
00000370: 1f59 1cbe 5a47 b43e cd54 80bd f5b1 333d
00000380: 60a6 46bd 470f ce3e f950 4c3d ab2c 39bf
00000390: fcde c2bd ce78 f2bd c732 813d 771c 0d3f
000003a0: b151 ac3d fc43 ebbe d4e0 fb3b 86d9 0f3f
000003b0: 7b54 ebbd be09 64be 8579 26be 15fc 45be
000003c0: fbe5 43be fbd2 ef3d be33 5bbe cb2b b9be
000003d0: 58a6 5a3e ec15 a63d f993 6b3c 747a 85bd
000003e0: eedf c43e 9784 29be bf8a 8f3e 6887 f8bd
000003f0: 6fc7 763e 9628 93be c9fc 07bf 82c0 983e
-0.21889953 0.1993067 0.5020777 0.11701485 -0.15173642 0.1026246 0.12004399 0.1877219
-0.16824391 -0.13708124 0.29667512 -0.020208983 0.16064323 -0.2061015 0.01340992 0.15944797
-0.39833805 0.10396586 -0.4087822 -0.34342575 0.05848763 -0.33073628 -0.08884839 0.07560244
0.005018708 -0.70232517 0.026175007 0.07324551 0.16702095 0.2873721 0.5463548 0.08174017
-0.23098199 -0.2995455 -0.028224785 -0.084414676 0.092907436 -0.083119854 -0.018698249 0.7597664
-0.045911197 0.37347627 -0.028609058 -0.23409136 0.15690587 -0.072281726 -0.19738457 0.20416757
0.32582292 -0.4422928 0.26661333 -0.1345348 0.48107505 -0.38662305 -0.05659386 -0.108235665
0.15052298 0.35862848 -0.0047050603 -0.09270791 0.057374407 -0.061582986 -0.3733518 -0.27183232
-0.3426371 -0.6308981 0.2540582 -0.12130295 0.50950664 -0.4593813 -0.36925355 0.55034196
-0.19512643 0.2099044 0.07651799 -0.07722623 -0.24171749 -0.058090962 0.49708143 -0.35623398
0.22357957 -0.3412178 -0.042972308 -0.087192506 0.15071052 -0.4053138 0.19914211 0.45827588
-0.21138187 0.4020045 -0.07842084 -0.1271858 -0.021912673 0.035494268 0.17233142 -0.08514371
-0.04039205 0.13203815 -0.18389511 -0.013040411 -0.0028404058 -0.1740077 0.23253953 0.35231826
-0.6547122 0.11160054 -0.08783784 0.11801831 -0.1722982 0.21804547 0.0058843135 -0.21673433
-0.59240025 0.22101341 -0.060761027 0.5007593 0.6178361 0.10441144 0.24500228 0.21149439
-0.12910283 -0.018168524 0.12757099 0.17207411 -0.13451168 -0.04190794 0.034888253 0.24237424
-0.14457554 0.027831942 0.2639962 -0.008615943 -0.29090884 -0.03743968 -0.44749644 -0.3995269
0.04674631 -0.128824 0.1945221 -0.19305554 0.40147573 -0.21728395 -0.34250596 -0.40960696
0.044797573 0.02286519 0.29398313 0.23598824 0.55853206 -0.22372542 -0.17901488 0.041052915
0.00755737 -0.07012906 0.024669118 0.005815833 0.2858818 0.15814449 0.26252824 -0.044194642
-0.07392538 0.2424234 0.5272915 -0.22310881 -0.21263298 0.06887816 0.2571119 -0.17037693
-0.088820964 0.2902429 0.29238665 -0.14450027 0.22259732 0.3201251 0.0773237 -0.45136082
-0.113161005 -0.08781188 -0.00060474774 -1.0842403 0.098920666 -0.06478925 0.1257719 0.4722274
0.011209229 -0.16060935 0.098255545 -0.2081123 0.13308845 0.034981012 -0.09246541 0.30548126
0.5868232 0.33177334 0.11977337 0.20935564 0.099099495 -0.10779862 -0.4477715 -0.16465487
0.04904864 -0.28797 0.30411074 -0.521024 0.43985748 -0.099156946 0.2994315 -0.036746003
-0.2525037 0.34309182 -0.083009005 0.10956868 -0.112353764 0.19998968 0.42229703 0.13322268
0.1838537 -0.08044286 -0.25487578 0.00875678 -0.15268372 0.35210687 -0.062661745 0.043870885
-0.04849851 0.4024603 0.04988191 -0.7233378 -0.09515187 -0.11839448 0.06308513 0.5512156
0.08414019 -0.45950305 0.0076867137 0.5619129 -0.11490723 -0.22269341 -0.16257294 -0.19334443
-0.191307 0.11710163 -0.21406457 -0.36166224 0.21352518 0.0810965 0.014378541 -0.06517497
0.38452095 -0.16554485 0.28035542 -0.12135202 0.24099515 -0.28741902 -0.53120095 0.29834372

linear.bias f4 [2]
00000000: 2f8e 803d e6c3 7ebd
0.06277119 -0.062198542

exp_avg f4 [2, 768]
00000000: aa52 a9ba 9ea4 583a 5bee 2e3b bb22 1d3b
00000010: 54b1 9bba e200 b639 bd3e a539 961e 8eba
00000020: 1222 ed38 72e7 753a 8592 2f39 0e17 97b9
00000030: a903 62ba 2158 a53a 17d1 3d39 e486 35bb
00000040: af76 8e3a 5e79 d239 436c 99ba 11b9 4a3a
00000050: 0790 d43a 9bba a7ba 8682 1e3b 74b9 67bb
00000060: c7aa 23bb 11d0 bc3a 44a7 b6b8 6706 f23a
00000070: 04ed 8b36 9d23 85ba b5ad 9e39 34a3 193b
00000080: e2eb ca3a a0f2 14b9 09c9 053b 4a74 9739
00000090: e326 b5b9 be00 82ba b8f3 9dba 2ac3 743a
000000a0: 2a82 4c3a 1eb3 8dbb c2aa b4ba a5ec 0dbb
000000b0: 49c0 a6b9 e321 4f38 8527 2eba 9eac 01bb
000000c0: 6365 8aba 96bb afb8 3b93 d139 7cab b8b9
000000d0: fd1c 6ab9 3a69 a6ba 5cf0 cbb9 80c9 013b
000000e0: 3cd7 dc39 0b85 323b 0f3e 963a 6c11 0036
000000f0: 4552 d0b9 2375 153b 754b b5ba 6530 e0ba
00000100: 5f1f 51b8 01f5 e93a e414 68b9 3a5b 97b9
00000110: ef2f 1dba bade 8c3a 4a15 a7b8 f4ee a43a
00000120: 0867 a039 138d 6436 7432 d6ba 6c51 d93a
00000130: 04df 223b e9e8 bdbb 5fb2 b1ba e216 863b
00000140: 6197 0d3b fdfe a8ba 6790 a6bb 5376 abba
00000150: 7b9a d539 2cd8 51bb 09eb 383a ccc3 dbba
00000160: 80cf ecba cd2e 59b8 5b8f a6b8 99fb 0a3a
00000170: 5b41 873a eaf9 193a 98e3 c4b9 49cf ae3a
00000180: 3533 97b9 3d01 35bb c501 7eb9 9556 cbb9
00000190: 912f f0b9 5846 5eb9 0e15 1139 5129 073a
000001a0: f412 983a aa89 053b def2 28ba 78eb 8fba
000001b0: c4a2 403a 602e 893a 415b 8a3b f526 3eba
000001c0: 49f2 ba3a 2045 053a be28 95ba b00c 083a
000001d0: aa49 b8ba 3514 1d3a 323a a5ba 2c93 db3a
000001e0: 3bd4 883a 7a47 1d3b d1e2 93b9 c241 3eb9
000001f0: 4143 12bb 3961 2f3b 0797 d5b7 a22c ef3a
00000200: 7b63 96ba b66b 783a 417b c23a d2c2 043b
00000210: 92b4 033a 5e02 19b9 61f6 cab9 0169 82ba
00000220: a19c 83ba 7637 41ba af9e 1e3a 90e2 893a
00000230: bb6d d53a ea60 e53a ecd0 fcb9 4027 a9ba
00000240: 0ea1 17bb 854d d5b9 5d88 dcb9 b54f d73a
00000250: a7fd 44bb cf13 0d3a 6215 c23a c75f 733a
00000260: 1016 473a 2b48 33bb 5654 323b 72fc a33a
00000270: b79d c13a 9ff6 c1ba e7f0 d73a b18c 17ba
00000280: de23 4aba c0af d3b9 2005 783a cd17 bc3a
00000290: 236a 11bb 0981 273a 3b34 c43a d84f 06ba
000002a0: 0985 98ba cccd 9f3a 806a 463b f0bf 073b
000002b0: 3755 c1ba cd51 a039 5412 9bba 9fbb 8fb7
000002c0: 8e9f aab9 d7e8 dfba d10b e839 25fc fb38
000002d0: d96b 4d3a efdd 44bb 193d 34ba 5acd 81bb
000002e0: 2cef 0ebb 5930 ae3a 005e b0ba 2856 fd3a
000002f0: da60 183a 29ff 80ba 15c5 18b7 4282 ed3a
00000300: e285 0a39 17da 913a 65cb 47ba 6529 3f3a
00000310: f082 d5ba 5d1f b1ba 0807 e1ba 44d8 9139
00000320: ed26 47ba 4987 03b9 8347 1839 ad6c 2aba
00000330: 3757 c2b7 e2cb 77ba e576 c9ba 74de eeb9
00000340: 60d4 4c3b 6581 6539 f2d2 f8ba 20f5 acb9
00000350: b5b2 ff3a 2918 12bb da37 01ba f88f f1b9
00000360: d0de 8737 e5b9 653b 0d23 e33a 408a f7bb
00000370: a4cf 61ba 871a b03a 27a0 e1ba 3ee7 e0b9
00000380: 125d 66ba 6f86 9839 cfe5 8b3a 4c5e c7b7
00000390: 9952 c63a c2ad e7ba cd7a f239 54f9 8f3a
000003a0: f416 423b ef70 8fba 97ac a739 36b6 54ba
000003b0: 1963 31ba 2b9b 0c3a f3d4 ebb9 90c1 cf3a
000003c0: 488c e9ba 2d9b dcba c8cd 95ba c06a 21b9
000003d0: 59d7 403a 4b46 d239 59ca e1b9 55cc c9b9
000003e0: 7ef2 bf3a 711f 01bb b65e 13bb 1c9a 4039
000003f0: b4e6 56b9 90dc 8c3a 8bba 3cbb 676c c4b9
-0.0012918313 0.0008264276 0.0026692364 0.0023977 -0.001187841 0.00034714403 0.00031517996 -0.0010842856
0.00011307387 0.00093804963 0.00016743883 -0.0002881814 -0.0008621761 0.0012614765 0.00018102337 -0.002769881
0.0010869111 0.00040144747 -0.0011705238 0.00077332655 0.001621724 -0.0012796702 0.0024186685 -0.0035358341
-0.0024973617 0.001440527 -8.709592e-05 0.0018465043 4.170115e-06 -0.0010157708 0.0003026553 0.0023443224
0.0015481676 -0.00014204765 0.0020414016 0.00028887606 -0.00034551983 -0.0009918434 -0.0012050783 0.0009336943
0.00078013784 -0.004324331 -0.00137838 -0.0021655944 -0.0003180525 4.9384205e-05 -0.0006643462 -0.0019786726
-0.001055878 -8.379591e-05 0.00039973282 -0.0003522298 -0.00022326778 -0.0012696155 -0.0003889826 0.0019803941
0.00042122032 0.0027239944 0.0011462587 1.9083627e-06 -0.00039734147 0.0022805415 -0.0013831692 -0.0017104266
-4.98587e-05 0.0017849506 -0.00022133027 -0.00028868933 -0.00059962174 0.001074753 -7.967146e-05 0.0012583421
0.00030594342 3.4056764e-06 -0.001634194 0.0016580052 0.0024852166 -0.0057955873 -0.0013557187 0.0040920833
0.0021605121 -0.0012893375 -0.005083132 -0.0013081528 0.00040741623 -0.0032019718 0.0007054066 -0.0016766726
-0.0018067211 -5.178042e-05 -7.942199e-05 0.0005301773 0.001031916 0.0005873727 -0.00037553604 0.0013336922
-0.00028839117 -0.0027619146 -0.00024223987 -0.00038783686 -0.00045811807 -0.00021197775 0.00013836121 0.0005155998
0.0011602328 0.0020376244 -0.00064448814 -0.0010980209 0.0007348473 0.0010466091 0.004222304 -0.000725373
0.001426288 0.0005083848 -0.001137994 0.0005189879 -0.001406004 0.0005992086 -0.0012605845 0.0016752235
0.0010439226 0.0023998902 -0.00028207016 -0.00018144309 -0.0022317918 0.002676083 -2.5461906e-05 0.0018247555
-0.0011473739 0.00094764994 0.0014837758 0.0020257724 0.00050241605 -0.00014592099 -0.0003871201 -0.0009949506
-0.0010041186 -0.000737063 0.00060508674 0.0010519791 0.0016283313 0.0017500196 -0.00048220844 -0.0012905374
-0.0023136768 -0.00040684282 -0.00042063268 0.0016426953 -0.0030058415 0.0005381675 0.0014807398 0.00092839863
0.0007594535 -0.0027356248 0.0027210913 0.0012511148 0.0014771734 -0.001479823 0.0016474993 -0.00057811575
-0.0007711033 -0.00040376 0.0009461213 0.0014350355 -0.0022188507 0.0006389772 0.0014969179 -0.0005123592
-0.0011636327 0.001219207 0.0030275881 0.002071377 -0.0014750127 0.00030578524 -0.0011831024 -1.7134296e-05
-0.00032543804 -0.0017082941 0.00044259292 0.00012015578 0.00078362 -0.003003951 -0.00068755593 -0.0039612474
-0.0021810038 0.0013289555 -0.0013455749 0.0019328045 0.0005812772 -0.0009841669 -9.105793e-06 0.0018120485
0.00013210581 0.0011127618 -0.00076215557 0.000729224 -0.0016289633 -0.0013513375 -0.0017168233 0.00027817686
-0.0007597048 -0.00012543531 0.0001452249 -0.00065011793 -2.3167215e-05 -0.0009452683 -0.0015370516 -0.00045560638
0.0031254515 0.00021887345 -0.0018983765 -0.0003298903 0.0019508215 -0.0022292233 -0.0004929282 -0.00046074367
1.619701e-05 0.0035053429 0.0017329172 -0.0075543225 -0.000861401 0.001343564 -0.0017213867 -0.00042896898
-0.0008787672 0.0002909186 0.0010673347 -2.3766559e-05 0.0015130817 -0.0017675685 0.0004624933 0.001098434
0.0029615732 -0.0010943691 0.00031981312 -0.000811431 -0.0006766781 0.0005363698 -0.00044981352 0.0015850533
-0.0017818296 -0.0016830914 -0.0011429125 -0.00015393924 0.0007356308 0.00040106694 -0.00043066105 -0.00038489947
0.0014644412 -0.0019702578 -0.0022486872 0.00018367957 -0.00020494574 0.0010746885 -0.0028797712 -0.000374648

exp_avg_sq f4 [2, 768]
00000000: a8d4 f037 8386 1b39 4371 5938 9bd8 033a
00000010: 311f 7539 ff0a 8239 48e7 9738 d431 4338
00000020: 570e 6338 0457 5438 dcdf be38 61ad 7239
00000030: 47bb 8638 42df 1439 1cd0 cd38 6509 1139
00000040: f3f8 5a39 fa73 1739 7e8f 5338 7237 9938
00000050: 0701 2f38 cee0 0738 abd1 a638 31f8 a438
00000060: 93be 7538 0782 f237 6ed6 0838 f6b0 9238
00000070: cf8f 8738 45f7 3538 423a 2438 05c4 2f39
00000080: aba7 6138 fe1b 7438 97ea 9338 56e1 0138
00000090: 7c65 e838 3fa7 3238 6160 8239 ae66 4f38
000000a0: f06b e239 ac1b 3639 3a53 8e38 fed7 6838
000000b0: f729 da37 ccc4 1138 69f4 7138 381e b538
000000c0: 0f99 3238 5615 4e38 5e72 b338 e531 1738
000000d0: cb1d 3638 c7a2 1c38 58e5 2038 96e3 5739
000000e0: 96b6 de37 53af 0039 ac40 1a38 6ef5 8838
000000f0: f0f4 a438 001a 893a 2487 e238 7935 a038
00000100: 88f6 6f38 b474 2738 eeff 6238 fd33 c038
00000110: f98a f637 e812 5938 fc7f 2838 02ce a338
00000120: 4347 fb37 1252 3d39 891c 9438 f758 1639
00000130: 1a3b 7e38 ce84 9b3c 0eb7 9038 0b66 3e39
00000140: f23b 6538 d8fd 9038 5f52 123c 34fa 9938
00000150: 0bc3 7e38 17f0 c039 16e2 0f38 db4a 7938
00000160: 5dca 6d38 b34b 2138 51db 9138 dd05 3b38
00000170: 2c0f 3838 4366 6f39 2541 0638 2c91 b238
00000180: 756c 3238 8e19 403a 7bd1 e337 4e32 fe38
00000190: 99b9 2c39 95ee 6138 025b d038 d9ed ef37
000001a0: 060c 5138 b957 fa38 1452 b638 8ca7 2c39
000001b0: 1a17 5238 d76a e737 6119 763a 4431 1139
000001c0: a3fe e038 08c2 4838 204c 1038 ae30 1539
000001d0: e02a 1238 c0d0 6738 f381 1538 a6e5 3439
000001e0: 0ca1 4538 2bfb 8c38 1c6a f639 9786 a138
000001f0: bc06 fa38 50f5 f038 a7a5 9138 73ff 5b38
00000200: 397e 8d38 9742 ed37 a33e 1238 8e2d 1d3a
00000210: 01ff 5638 950d 1539 94c7 0438 b8fc 1438
00000220: 5bdc a938 60bf 6538 376d 1738 73c0 0338
00000230: 576f 0b38 fc1e aa38 ece4 1138 eb73 1938
00000240: be37 9c39 1731 ab37 8a06 1738 4992 1f38
00000250: 94b3 ec38 8b7b be38 a741 2238 1805 8d38
00000260: 18aa b738 6a8e 8138 e826 1f39 4742 3839
00000270: ff5d a038 6279 2e39 318a 0839 7e5a f438
00000280: 3cfd cb37 8109 ae38 2c05 7938 577c 2939
00000290: bd18 2e38 fc54 6f38 c7b7 9538 ebea 0f39
000002a0: 2481 1638 43cc a038 8900 8238 a48f 5638
000002b0: 9401 1838 8fa4 f237 633a 0339 7ee7 5138
000002c0: 740c 9f38 48d7 a938 2d1e 2038 e93c e037
000002d0: fa62 8738 dc39 7c38 4b86 4038 8e16 3038
000002e0: 90cc 2938 f272 3139 f01a 4538 1edc 7e38
000002f0: 37df 0339 ef99 8338 7d07 0538 5494 4a38
00000300: ce72 f137 f2be 0939 f18c 7e38 7ce3 bb38
00000310: c957 3a38 8588 2538 d9c5 a138 c761 d137
00000320: d78f 0b38 5d14 8538 ae1a ab38 148b c938
00000330: 3258 e038 8f42 5f38 3741 2d39 aa1a 1b38
00000340: 5a01 0938 30ea ea38 3bb3 3d38 96b1 1239
00000350: d1c5 a038 73c1 2a39 26b6 d438 5c61 f338
00000360: 9b11 8738 a05d 0f3b 74cb 6438 8ebb c13a
00000370: 328f 9238 26e6 f037 68bf 9938 87b3 5538
00000380: 5e2d 1339 c0e0 f238 136d f037 d3d6 1638
00000390: 328c 0739 5e17 f938 7975 2f38 4b34 fb38
000003a0: 1036 9b38 8b1e a138 08f4 7638 ccae 8838
000003b0: 124f f537 65ed f837 ddf3 0e38 82ee 1738
000003c0: 4e44 8439 142b 0b38 8179 7038 42fb f338
000003d0: 2cad 3b38 d1fb ac38 8c50 0138 ffd7 9f39
000003e0: a779 2138 edd1 a838 436b 9a38 610f 8d38
000003f0: 4820 8a38 dd5c b038 48a3 7438 147f 4338
2.8709255e-05 0.00014832061 5.1842315e-05 0.000502953 0.0002337664 0.00024803725 7.2433206e-05 4.653803e-05
5.4134372e-05 5.062578e-05 9.101603e-05 0.00023143507 6.424501e-05 0.0001419755 9.813925e-05 0.00013831777
0.00020882841 0.00014443687 5.0439958e-05 7.305936e-05 4.1724208e-05 3.2395874e-05 7.9545505e-05 7.866359e-05
5.8590038e-05 2.8909197e-05 3.262463e-05 6.994784e-05 6.464088e-05 4.338405e-05 3.9154904e-05 0.00016762324
5.3800333e-05 5.8200203e-05 7.053202e-05 3.0965857e-05 0.00011081525 4.2594267e-05 0.0002486734 4.9448274e-05
0.000431865 0.00017367181 6.78659e-05 5.551427e-05 2.6007167e-05 3.4753975e-05 5.7686502e-05 8.636381e-05
4.2581054e-05 4.9134098e-05 8.556688e-05 3.6047673e-05 4.341993e-05 3.7344897e-05 3.8360566e-05 0.0002058878
2.6549485e-05 0.00012272345 3.677669e-05 6.5307e-05 7.8657526e-05 0.0010460019 0.00010801692 7.6393546e-05
5.721164e-05 3.992459e-05 5.4120952e-05 9.164957e-05 2.93902e-05 5.175444e-05 4.0173516e-05 7.8108176e-05
2.9954716e-05 0.00018055018 7.062505e-05 0.00014338257 6.061336e-05 0.018984225 6.900552e-05 0.00018157826
5.4653683e-05 6.913737e-05 0.008930772 7.3422125e-05 6.0739967e-05 0.00036799975 3.4304416e-05 5.943594e-05
5.669367e-05 3.845589e-05 6.95499e-05 4.4589735e-05 4.388315e-05 0.00022830912 3.200876e-05 8.514742e-05
4.2539516e-05 0.00073280267 2.7158056e-05 0.00012121034 0.00016472339 5.3866377e-05 9.9351644e-05 2.8601777e-05
4.984068e-05 0.000119372686 8.6937245e-05 0.00016465614 5.0089417e-05 2.7587097e-05 0.0009387937 0.0001384663
0.00010728582 4.786442e-05 3.4403172e-05 0.00014227882 3.4849043e-05 5.5269105e-05 3.5645393e-05 0.00017251688
4.7118447e-05 6.722504e-05 0.00046999834 7.7021476e-05 0.00011922183 0.00011489785 6.944994e-05 5.2451574e-05
6.746915e-05 2.828361e-05 3.4867448e-05 0.0005995863 5.1259067e-05 0.00014214807 3.1657124e-05 3.5521312e-05
8.0995924e-05 5.4776086e-05 3.610292e-05 3.1412066e-05 3.3243876e-05 8.112003e-05 3.4783894e-05 3.6586e-05
0.0002979617 2.0407648e-05 3.6007295e-05 3.8044793e-05 0.00011286806 9.082918e-05 3.8684953e-05 6.724353e-05
8.7578024e-05 6.177726e-05 0.00015177915 0.00017572298 7.646903e-05 0.00016639152 0.00013021451 0.00011651682
2.4317407e-05 8.298737e-05 5.9371043e-05 0.00016163416 4.1507872e-05 5.706119e-05 7.139105e-05 0.00013725056
3.588306e-05 7.667441e-05 6.198983e-05 5.115535e-05 3.6241094e-05 2.8925277e-05 0.00012514884 5.0045077e-05
7.5840304e-05 8.098647e-05 3.8175076e-05 2.6731244e-05 6.4557375e-05 6.0135368e-05 4.5901437e-05 4.1982676e-05
4.0483254e-05 0.00016922856 4.6993548e-05 6.076332e-05 0.00012576288 6.275239e-05 3.1716645e-05 4.8298694e-05
2.8782899e-05 0.00013136471 6.068958e-05 8.959227e-05 4.4427612e-05 3.946621e-05 7.71393e-05 2.4960273e-05
3.3274144e-05 6.345727e-05 8.158885e-05 9.610332e-05 0.0001069758 5.322933e-05 0.0001652286 3.6979713e-05
3.2664604e-05 0.0001120161 4.5228033e-05 0.00013989801 7.666241e-05 0.00016284529 0.000101428755 0.000116052775
6.440581e-05 0.0021875873 5.4548917e-05 0.0014780627 6.988495e-05 2.87174e-05 7.331261e-05 5.0950355e-05
0.00014035913 0.00011581322 2.8661021e-05 3.5962858e-05 0.0001292683 0.00011877598 4.1832656e-05 0.00011978353
7.401046e-05 7.682767e-05 5.8878242e-05 6.517544e-05 2.9243096e-05 2.967445e-05 3.4082554e-05 3.6223333e-05
0.00025227893 3.3180302e-05 5.733362e-05 0.00011633943 4.4745553e-05 8.2485036e-05 3.0831012e-05 0.00030487773
3.849869e-05 8.049966e-05 7.363271e-05 6.7262685e-05 6.5863656e-05 8.409631e-05 5.83262e-05 4.6609974e-05

exp_avg f4 [2]
00000000: d4e3 263a 49e3 26ba
0.00063663465 -0.00063662656

exp_avg_sq f4 [2]
00000000: d41a 293a d51a 293a
0.0006450836 0.00064508367
