2024:05:01_ckpts/operational/Linear/lr_0.001_epoch_100/6.pth (torch, 21075 bytes, 6 tensors)

linear.weight f4 [2, 768]
000000 a7 4e bb be 50 72 ea 3d 95 f7 02 3e 6e af 0d 3c
       -0.36583444 0.11447585 0.12789758 0.008647783
000010 e8 75 77 be 5d 96 a4 3d bd 86 a0 3d 1c 49 29 be
       -0.24166071 0.08036492 0.07838199 -0.16531795
000020 e5 ea 0c bd 2d e6 80 3d df da 8b 3d 8a c6 96 be
       -0.0344037 0.062939025 0.06828856 -0.29448348
000030 a1 c6 fc bd 54 a3 51 be 1b 60 79 be dd 63 34 3e
       -0.12342573 -0.20472461 -0.24353068 0.1761622
000040 4c b2 81 be 7b 18 a2 bd 17 9c 00 3e 41 c8 8e be
       -0.25331342 -0.079148255 0.12559544 -0.27887157
000050 be 22 36 bd 7d 21 23 be ce 87 22 be 41 46 1f 3d
       -0.044466726 -0.15930744 -0.15872118 0.03888536
000060 a5 29 91 be f5 54 12 bf 31 e5 98 be c8 ea 1b be
       -0.28352085 -0.57160884 -0.2986236 -0.1522628
000070 bc 33 5d bd 06 f4 31 3d c3 fa fe 3d de b4 00 be
       -0.054004416 0.04344561 0.12450173 -0.12568995
000080 9f ea 4e 3e 0f d2 66 be 51 14 0c bc 7c 0c cc be
       0.20206688 -0.22541068 -0.008549766 -0.39853275
000090 51 d5 10 be ec 50 d3 bc 66 33 b5 bd 17 b5 e1 3d
       -0.14143874 -0.025795422 -0.08847694 0.11020868
0000a0 45 d9 73 3d 11 70 b0 3e 35 7d dd 3c 5f 8d d6 be
       0.059533376 0.344605 0.027037242 -0.41904733
0000b0 78 d1 a6 3e 4d a5 87 3e 16 2f 09 3e dc f7 a0 3e
       0.32581687 0.26493302 0.13396868 0.31439102
0000c0 ee 04 7d be 9b a7 87 be c4 a7 60 3e 7d 3f 2b bd
       -0.24708912 -0.2649506 0.21938998 -0.041808594
0000d0 7d 54 96 3e 72 35 cc 3d ac ce e9 bc 6a 8e 06 be
       0.29361334 0.099711314 -0.028540932 -0.13140264
0000e0 3c 49 a1 3e bf aa 56 3e e9 f4 ef bd 59 ec 0b 3e
       0.31501186 0.20963572 -0.11716635 0.13664378
0000f0 34 55 15 3d 34 a7 2b bc ec 27 60 be cb 22 3a be
       0.03645821 -0.010476876 -0.21890229 -0.18177335
000100 c9 cb 91 be 44 76 16 bf 19 1a 82 be 2c 05 78 be
       -0.28475788 -0.5877421 -0.25410536 -0.24220723
000110 17 59 12 be 4c 63 09 bd d9 6f db be 9f 03 fc 3e
       -0.14291798 -0.033541963 -0.4285877 0.49221513
000120 e9 dd e0 be c0 82 0f 3d f4 e0 bb 3e 67 17 4e 3e
       -0.43919304 0.035036802 0.36695063 0.20126115
000130 75 68 ca 3d c6 6e 82 bd 97 54 2c 3f 1e d4 12 bf
       0.09883205 -0.063687846 0.67316574 -0.57354915
000140 ef 3f 6d 3e b7 ac 05 be 4a e7 8f ba 33 74 83 bd
       0.2316892 -0.13054167 -0.0010978964 -0.064186476
000150 26 cc 53 be 09 72 88 be 2e c7 bc be f0 b6 c5 3e
       -0.20683345 -0.26649502 -0.36870712 0.38616133
000160 4a 72 30 bd 2b e0 48 3e d8 10 cf 3c 0b 05 36 3e
       -0.043077745 0.19616763 0.025276586 0.17775361
000170 5e 2f 4e 3e 8b 55 39 3e ea 05 d9 3e 2e 3d fb bb
       0.20135257 0.18099038 0.42387325 -0.0076672053
000180 c0 94 85 3d 0a 69 d2 3d b6 76 05 3f c1 39 0f be
       0.065225124 0.10273941 0.52134264 -0.13986875
000190 08 fe bc 3c a6 90 11 3e 71 d3 bb 3d 58 2f 00 bf
       0.02307035 0.14215335 0.091711886 -0.5007224
0001a0 90 1e ba 3d f9 ea b6 3e ec 74 0c 3d 78 89 7a 3c
       0.090878606 0.35726145 0.034291193 0.015291564
0001b0 46 34 0a 3f e2 bb 17 3e d8 00 81 bb 99 71 e9 3d
       0.5398601 0.14817765 -0.003936868 0.1139862
0001c0 8f f8 a3 be f5 15 5c bd 36 53 a4 3d 3c 38 6e 3e
       -0.32025573 -0.053731877 0.08023684 0.23263639
0001d0 d8 1b 34 3a 2e 5b 06 be df 86 41 3e d1 65 db be
       0.0006870604 -0.1312072 0.18899105 -0.42851117
0001e0 59 84 82 bd 2c e8 f4 be b9 96 fa 3d 59 e5 ee be
       -0.063728996 -0.47833383 0.12235779 -0.46659353
0001f0 11 d6 d2 bb 16 9e 78 3c 77 d8 8a be 48 01 8b 3d
       -0.00643421 0.015174409 -0.27118275 0.06787354
000200 5f 07 fb 3d 50 f1 8a be d8 eb b8 bd dd 76 7a 3d
       0.12257265 -0.27137232 -0.090293586 0.061148513
000210 19 a2 c8 be 19 a0 e1 be 4e 5e 9a be 95 0c 09 3d
       -0.3918617 -0.44067457 -0.30150074 0.033459265
000220 96 07 6b be c9 89 30 3f a8 06 15 3f 51 c0 d2 3c
       -0.22952113 0.68960243 0.5821328 0.02572647
000230 a7 1e eb 3d 98 29 96 bd 5c eb 7f be c8 e1 cb 3c
       0.11480456 -0.07332152 -0.24992126 0.024887934
000240 81 fc 89 3d 25 3e 18 bd 41 b5 8d be 7b 6e a9 3e
       0.067376144 -0.03716864 -0.27677348 0.33092102
000250 79 03 e4 3e 45 fe 20 3d 12 77 5e be b0 b2 b0 bc
       0.445339 0.03930499 -0.21725109 -0.02156958
000260 46 17 08 bf c3 d9 bf be 3c 63 22 3e 8c 19 f5 3d
       -0.5316051 -0.37470827 0.15858167 0.11967763
000270 3d d1 cb 3d f6 44 d9 3d c0 45 56 3e 14 6f 10 be
       0.099520184 0.106088564 0.20925045 -0.14104873
000280 b1 ad be be 6c 5b 98 3e 1f b9 82 bd 8e b6 32 3b
       -0.3724189 0.2975725 -0.06382965 0.0027269456
000290 e7 76 b5 3e ed 26 12 3e c2 ee 24 3e 83 4c 98 be
       0.35442278 0.14272662 0.16106704 -0.29745874
0002a0 35 79 a0 3e 65 e5 7a 3e 80 5e 4c be 66 68 d3 3d
       0.31342474 0.2450157 -0.19957924 0.10322647
0002b0 58 33 af bd c8 9b 8b 3d aa 3b 9c 3d 59 d9 60 bf
       -0.08554715 0.06816822 0.076285675 -0.87831646
0002c0 c7 26 af bd fa 89 b7 3c 56 e0 d8 3d 6e 91 60 bf
       -0.08552318 0.02240466 0.10589664 -0.8772191
0002d0 be e9 b8 3e c9 21 e8 3e 59 df ef 3c d7 e3 2a bd
       0.3611583 0.45338276 0.029281305 -0.04172119
0002e0 9a 64 03 be 19 81 f2 be 49 d2 ab bd d5 7d a8 3d
       -0.12831345 -0.4736412 -0.08389718 0.082271256
0002f0 13 ae d6 3d 99 b1 31 3e 8e 47 56 be 43 60 f4 bd
       0.10482421 0.17352904 -0.20925733 -0.11932423
000300 85 f6 1c 3f d8 55 54 3e ba a6 bf be b2 14 6b 3e
       0.6131366 0.20735872 -0.3743189 0.22957113
000310 e4 3a 3c 3e 35 fe be 3d 4e 8c cd be 65 29 53 3e
       0.1838184 0.0932583 -0.40146106 0.2062126
000320 68 55 89 be f0 ad 9b 3e 01 2d 31 be a0 8b db bd
       -0.26822972 0.3040614 -0.17302324 -0.10719991
000330 b5 9f 04 3f 76 5a ac bc 41 cc 4e 3e 1e 8e f3 bd
       0.51806194 -0.021039229 0.20195104 -0.11892341
000340 96 71 94 bd 28 40 ab 3d 81 ff a6 3d fb 01 ab 3e
       -0.07248227 0.08361846 0.08154202 0.33399948
000350 c8 e8 8b 3e 7f 23 03 bd 45 5b 77 3d d5 d2 26 3e
       0.27326035 -0.032016274 0.060389776 0.16291364
000360 f8 d4 ad 3e 7c 76 89 bd 42 96 6a 3e bb 3a c2 3c
       0.33951545 -0.06712052 0.22908881 0.023709645
000370 6d 1f 97 3c 92 8f d9 bd 9e 8b 19 bf 7d d0 93 be
       0.018447602 -0.10623087 -0.59978664 -0.2887
000380 02 3a 09 3e fd 22 c0 bd 82 e7 19 be 05 de 15 be
       0.13401034 -0.093816735 -0.1502972 -0.14635475
000390 3b f3 20 bd e9 dc 48 be 1c 58 be be b6 84 c1 3e
       -0.039294463 -0.1961552 -0.37176597 0.37796563
0003a0 32 fe 90 be 9f e2 37 be 00 61 88 be e7 a0 9f 3e
       -0.28318936 -0.17957543 -0.26636505 0.31177446
0003b0 67 ef c7 3d 34 92 34 be 68 9b 29 3e bc 6b 04 3e
       0.09762459 -0.17633897 0.16563189 0.12931722
0003c0 f0 42 51 bd 28 db 61 be 19 86 1e be 63 6b da bd
       -0.051089227 -0.22056258 -0.15480842 -0.10665014
0003d0 cb aa 9c 3c f9 96 3d bd 26 85 4a bc 83 4a 44 bd
       0.01912441 -0.046286557 -0.012360847 -0.047922622
0003e0 dc 35 eb 3c 4c 0d 0f bc 32 e7 68 3e 0f 19 9b be
       0.028712206 -0.008731198 0.22744444 -0.30292556
0003f0 f1 f6 22 3e da a5 84 be c7 7e e5 3c 93 73 7c be
       0.15914513 -0.25907785 0.028014554 -0.24653463

linear.bias f4 [2]
000000 4f aa 75 3d 45 98 0c bd
       0.059976872 -0.034324903

exp_avg f4 [2, 768]
000000 bf 15 5f 3a cb 2d f4 ba 84 0d a5 3b d0 c9 e8 ba
       0.00085100153 -0.001862937 0.0050370116 -0.001776034
000010 19 3a 38 bb 7b 05 41 3b 5d e0 39 bb c4 cd 2b bb
       -0.00281108 0.002945273 -0.002836249 -0.0026215175
000020 2e e5 46 3b eb bb 41 3b 0a 33 3d bb d8 f7 2a 3b
       0.0030349004 0.002956147 -0.0028869533 0.0026087668
000030 c9 c9 e2 ba b7 f3 96 ba b6 59 82 3b 97 d8 57 3b
       -0.0017302568 -0.0011516724 0.0039779795 0.0032935494
000040 07 a1 39 ba 93 14 9c ba 13 3a 35 bb 09 af a0 ba
       -0.0007081185 -0.0011907987 -0.0027653023 -0.0012259196
000050 c8 5f c1 3a c1 0b a0 b8 6d 76 73 3a db 8f e2 ba
       0.0014753276 -7.631584e-05 0.0009287361 -0.0017285304
000060 73 a0 67 3b 14 b3 8a ba 87 e6 8f 3a 89 68 05 3b
       0.0035343438 -0.0010581934 0.0010978737 0.0020356497
000070 cb 01 ec 38 fd a0 00 bb 49 de ca ba d5 28 02 3a
       0.00011253691 -0.0019627206 -0.0015477623 0.0004965191
000080 b8 e4 94 ba ad 14 a0 3a 67 87 d0 b8 1d e5 3a 3a
       -0.0011359667 0.0012213193 -9.9434335e-05 0.00071294775
000090 72 0b 01 bb 38 e1 2f ba 86 63 41 3b 7e a7 d0 3a
       -0.001969066 -0.00067092804 0.0029508783 0.0015919057
0000a0 d0 bf 8b bb d2 8b b5 bb ec 25 3e 3a 42 5f b0 b8
       -0.004264809 -0.0055403495 0.00072535756 -8.410077e-05
0000b0 0e b0 1a bb 6d 57 67 3a 33 eb 32 3a 61 d9 a7 bb
       -0.0023603472 0.0008824978 0.00068252085 -0.005122349
0000c0 44 61 28 bb 07 3f c0 39 42 64 c4 3a 33 9d cf 3a
       -0.002569274 0.00036668053 0.0014983492 0.0015839696
0000d0 a1 fb 7b 3a 31 46 01 3a 09 60 e2 b7 dc d8 16 3b
       0.0009612386 0.0004931419 -2.698602e-05 0.0023017442
0000e0 96 3b 5a 3a 35 27 ac 3a a6 4e 54 3b f1 82 97 3a
       0.0008324919 0.0013134243 0.003239551 0.0011559409
0000f0 02 0a 36 3b 2a 85 21 bb cf 4e 55 3a 5c 66 1c b9
       0.0027776961 -0.0024646022 0.00081370486 -0.00014915451
000100 b4 d6 e3 3a 81 26 77 bb 5d 4d fe ba f1 40 94 bb
       0.0017382712 -0.003771216 -0.0019401718 -0.004524343
000110 e6 dd b5 3a 73 0e 85 3a 57 7d 00 ba 04 7a f4 ba
       0.0013875335 0.0010151401 -0.00049014896 -0.0018652086
000120 cd 57 f0 ba 3f dd b0 3a 64 ad 80 b9 9d cb 8a b9
       -0.0018336714 0.0013493671 -0.0002454325 -0.00026473115
000130 00 ad 9b 3a 29 42 42 3c 9f ad a2 bb ba 2a a8 ba
       0.001187712 0.011856594 -0.004964545 -0.0012830116
000140 c2 d6 13 bb c7 9c d4 ba 32 70 79 3b 7f 1b 67 bb
       -0.0022558426 -0.001622104 0.0038061258 -0.0035264192
000150 27 4f 92 ba 29 b6 96 3b 7c 0e df 37 8c 18 07 3b
       -0.0011162505 0.004599352 2.6590416e-05 0.0020613996
000160 85 4b 80 ba 29 49 0a bb 54 d3 d8 ba 7d 5f d0 b9
       -0.0009788132 -0.0021100736 -0.0016542473 -0.00039743996
000170 b4 7a 3a bb f9 ae 2f bb be de 43 3b 19 24 24 3b
       -0.0028454484 -0.0026807173 0.0029887403 0.002504593
000180 8d d7 15 3a 00 56 fa ba 13 70 45 3b 97 90 b5 bb
       0.00057160185 -0.0019099116 0.0030126616 -0.005540918
000190 89 96 86 39 dd f8 03 bb 81 79 85 bb 02 3b 81 ba
       0.0002567063 -0.0020137348 -0.0040733223 -0.0009859505
0001a0 cb d5 ba 3a 35 20 00 3c d6 fc 35 3a 4f e3 25 ba
       0.0014254389 0.007820179 0.00069422775 -0.0006328122
0001b0 e1 51 15 3a 37 05 23 bb a3 87 23 3b bc d7 4d 3b
       0.00056961 -0.0024874934 0.0024952672 0.0031409105
0001c0 b7 16 13 3b 39 18 c0 ba a0 a9 4f 38 84 ea bb ba
       0.002244396 -0.0014655656 4.951062e-05 -0.0014336859
0001d0 7a 71 f3 ba 29 e8 6e 3b 4d 83 d2 39 cf 8c 41 3b
       -0.0018573247 0.0036454296 0.00040152148 0.0029533391
0001e0 c6 e1 fd 3a 33 63 b9 3a eb 09 9d bb e1 bf 0c bb
       0.0019369654 0.0014143944 -0.004792442 -0.0021476673
0001f0 f6 17 13 bb 76 45 ab ba da a2 3b 3b 4d 0c d9 38
       -0.0022444702 -0.0013066966 0.0028631003 0.000103496575
000200 84 6a 9f ba cd 20 64 38 53 b3 20 3b 70 4c d8 bb
       -0.0012162481 5.4389984e-05 0.0024520948 -0.006600909
000210 67 38 84 b8 70 56 78 bb 3f c1 0d 3b 9e 97 e2 3a
       -6.304756e-05 -0.0037893318 0.0021630076 0.0017287617
000220 ff 70 7d 3b fd a3 3b bb 84 20 1b 3b 36 6c 5f 3a
       0.0038672087 -0.002863168 0.0023670504 0.00085228996
000230 84 d8 9e 39 a4 40 27 3b a9 97 0e ba 89 f4 99 b9
       0.00030297425 0.0025520707 -0.0005439469 -0.00029364627
000240 c9 35 05 bb e6 56 35 ba d7 38 7e 3a 30 6d 63 b8
       -0.0020326248 -0.0006917551 0.0009697801 -5.4222706e-05
000250 3f 5d 36 3b 00 73 85 ba ec fb 38 3b 8b 06 15 ba
       0.0027826575 -0.0010181367 0.002822633 -0.0005684874
000260 a3 77 17 3b f6 c4 ac b9 85 bb c2 3a b6 93 b2 bb
       0.002311208 -0.00032953144 0.001485691 -0.0054497374
000270 4d 12 4a 3b ca 40 7b bb 44 53 16 ba 10 04 fe bb
       0.0030833662 -0.0038338178 -0.00057344534 -0.007751949
000280 5a ba 44 3a 71 1a 58 3b ad e6 a6 b9 cd 18 5e ba
       0.0007504575 0.0032974745 -0.00031833854 -0.00084723235
000290 5f ee 8b 39 91 b8 c1 ba 64 ca 64 ba d8 d4 f7 b8
       0.00026689746 -0.0014779737 -0.00087276683 -0.00011817523
0002a0 a5 c5 17 3a cd c1 54 bb 4c 66 93 ba 7c 14 65 ba
       0.0005789644 -0.0032464147 -0.0011245697 -0.0008738709
0002b0 38 1c 15 bb cf 44 b9 b8 63 6d 06 ba 0e dc 92 3a
       -0.0022752415 -8.834304e-05 -0.0005127994 0.0011204497
0002c0 ca f7 f3 ba 6d 0c 3a 3a 1b 32 48 bb 49 2d ab 3a
       -0.0018613276 0.00070971885 -0.0030547443 0.0013059761
0002d0 7c c5 07 3a 57 9c 00 bb 99 5b 39 ba 96 1a 32 3b
       0.0005179269 -0.0019624436 -0.0007070839 0.002717649
0002e0 22 74 1c 3a c6 d1 42 bb 87 cb 1d 3b b9 bf d9 b9
       0.0005968233 -0.0029727085 0.002407761 -0.0004153231
0002f0 0e 93 d5 ba 9f 78 a2 3a ed 54 1a 39 6e 03 6d 3a
       -0.0016294436 0.0012395567 0.00014718222 0.00090413436
000300 ed 66 58 3b f8 c7 57 3a 46 57 dd 38 25 10 62 3b
       0.0033020333 0.0008231397 0.00010554357 0.0034494486
000310 d9 fc 12 bb 4d 9b 89 ba bd c9 5f 3b 06 b1 88 3a
       -0.002242854 -0.0010498554 0.0034147345 0.0010428734
000320 ac 10 49 3a ae 43 b6 ba f0 3c 8e 3a 30 bd 71 b9
       0.0007670026 -0.0013905668 0.0010851901 -0.00023054029
000330 65 d5 bf 39 ca a8 93 3a 6f bd 5d bb 1b 15 13 3a
       0.0003658935 0.0011265513 -0.0033834835 0.000561075
000340 64 ba f0 3a 39 d8 38 ba 55 6d 26 bb f9 58 c5 bb
       0.0018366096 -0.00070512627 -0.0025394757 -0.0060225693
000350 ae 95 a0 3b c4 06 66 3a bd c0 8d ba 2f ae 5b ba
       0.0049006557 0.0008774812 -0.0010814887 -0.00083801424
000360 02 66 5c 3b b4 39 d8 3b 58 12 3e ba b2 08 85 3a
       0.0033630137 0.0065986756 -0.0007250658 0.0010149686
000370 69 e4 3c 3a 4c 6c 0b 3a 0f 9f 32 bb cc b4 32 3b
       0.00072056666 0.00053185667 -0.002725545 0.0027268408
000380 fa 4a 8b bb 31 75 37 3b cd 1c 35 3b f3 50 ae b8
       -0.0042508813 0.0027993436 0.0027635575 -8.3120445e-05
000390 c3 33 6c ba bc 05 9d bb ba 05 b8 ba 82 de c1 3a
       -0.00090103986 -0.0047919434 -0.0014039793 0.0014791044
0003a0 75 25 97 3b 6a fd 3c bb ba ab 8e 3b b6 70 e6 ba
       0.0046126195 -0.002883757 0.0043539675 -0.0017581198
0003b0 33 ea 87 b8 ea 45 79 3a 6b 24 00 b9 b0 77 90 3a
       -6.480925e-05 0.0009509014 -0.00012220598 0.0011021998
0003c0 49 34 a3 3b ab df 9a b9 f4 cf 53 3b 36 8d 1f ba
       0.004980598 -0.00029539815 0.0032319995 -0.0006086411
0003d0 b9 36 dc 39 78 bb 4f ba 12 d4 37 3b 6f a6 b1 bb
       0.00042002441 -0.00079243584 0.0028049988 -0.0054214518
0003e0 ab f1 87 ba 76 14 a6 ba dc 6c 2f bb b9 e0 c0 3a
       -0.0010371705 -0.0012670893 -0.0026767766 0.001471541
0003f0 6d 67 9b b9 9e 09 e3 3a b4 6c a4 b8 5a fa 46 3a
       -0.00029640962 0.0017321592 -7.840377e-05 0.0007590406

exp_avg_sq f4 [2, 768]
000000 06 ce d4 37 21 69 42 39 ef 1a 3d 38 01 2c ad 39
       2.5368307e-05 0.00018540445 4.5086195e-05 0.00033029917
000010 03 1f 8c 39 98 0b 28 39 72 9b 09 38 27 b3 2f 38
       0.00026725986 0.00016026048 3.2808115e-05 4.18901e-05
000020 91 e3 a2 38 36 ed 07 38 be 90 f4 38 c5 20 1a 39
       7.7671495e-05 3.2407428e-05 0.00011661787 0.00014698792
000030 f7 24 8d 38 9a a1 11 39 03 3e b9 38 88 7a fa 38
       6.730289e-05 0.00013888479 8.833038e-05 0.00011943752
000040 94 4b 14 39 06 2b b3 38 7f 09 2d 38 df 4c 6a 38
       0.00014142535 8.543399e-05 4.1255258e-05 5.586154e-05
000050 b5 9c 68 38 cc a2 13 38 04 4a a1 38 c4 8e 7d 38
       5.5459055e-05 3.5199148e-05 7.690865e-05 6.045286e-05
000060 69 0b 88 38 ca 81 06 38 c5 df 04 38 99 dc d0 38
       6.487111e-05 3.2068965e-05 3.1679654e-05 9.9593024e-05
000070 cc fe 84 38 2f 2b 32 38 b9 09 05 38 81 24 f3 38
       6.34171e-05 4.2478725e-05 3.1718726e-05 0.00011593942
000080 f6 1a 6d 38 c4 a6 86 38 80 20 9f 38 bc 38 cb 37
       5.6530313e-05 6.4206804e-05 7.5877644e-05 2.4225905e-05
000090 0b ce da 38 b2 f0 05 38 4b 62 a7 39 db a6 75 38
       0.000104334285 3.1933836e-05 0.00031925956 5.8567948e-05
0000a0 f4 4d d3 39 f9 3c 30 39 f2 12 1c 38 b0 20 35 38
       0.00040303136 0.00016807382 3.7210943e-05 4.3184205e-05
0000b0 eb 58 75 38 5d 16 02 38 11 33 6b 38 91 a3 cc 38
       5.8495363e-05 3.1015243e-05 5.6075925e-05 9.757945e-05
0000c0 a8 70 eb 37 7a 63 4c 38 9f 8c e1 38 06 28 0c 38
       2.8066643e-05 4.8730035e-05 0.00010755029 3.3415876e-05
0000d0 47 4a 69 38 ad 83 59 38 ec 5c 08 38 4d 2e 1b 39
       5.5620705e-05 5.1859464e-05 3.2511467e-05 0.000147992
0000e0 f1 9c 0f 38 8e cd 0e 39 27 d8 30 38 fb 98 1a 38
       3.424002e-05 0.0001361875 4.2162977e-05 3.6858935e-05
0000f0 39 0a 88 38 18 12 8c 3a a4 ce bc 38 d9 fa 94 38
       6.4868895e-05 0.0010686545 9.0030284e-05 7.103914e-05
000100 15 36 63 38 e1 cb 4d 38 3d 5c 2c 38 a2 a5 98 38
       5.4171385e-05 4.9065686e-05 4.10939e-05 7.278776e-05
000110 5a 4c 35 38 d2 b2 ca 38 67 12 1f 38 91 89 46 38
       4.322487e-05 9.6654185e-05 3.7925693e-05 4.7334997e-05
000120 b0 e2 fb 37 e6 09 29 39 cd 27 6e 38 43 4f f5 38
       3.0027091e-05 0.00016120783 5.678069e-05 0.00011697274
000130 a9 3f 49 38 55 bb ac 3c ec 08 d3 38 9e b8 1c 39
       4.7981423e-05 0.02108542 0.00010062926 0.00014946095
000140 cf ed 0a 38 db e3 65 38 26 e1 0d 3c fb 98 8c 38
       3.312324e-05 5.481006e-05 0.008659637 6.704215e-05
000150 ba 28 a8 38 87 19 9d 39 4d cb f0 37 4b 5a 9d 38
       8.01845e-05 0.00029964393 2.8704899e-05 7.503162e-05
000160 b5 cd 42 38 fe 4f 04 38 75 38 81 38 92 6b 61 38
       4.6444784e-05 3.154575e-05 6.161715e-05 5.3744363e-05
000170 31 f0 10 38 36 14 70 39 53 5b 03 38 d9 d5 eb 38
       3.455597e-05 0.00022895713 3.1317886e-05 0.000112455054
000180 dc 40 14 38 8f d4 4b 3a 52 2a c2 37 49 48 4b 39
       3.5346355e-05 0.0007775509 2.314631e-05 0.00019386517
000190 6d 24 25 39 10 f0 1f 38 85 4e f0 38 bb ff 01 38
       0.00015749196 3.813213e-05 0.00011458717 3.0994164e-05
0001a0 f4 ca 32 38 65 39 17 39 73 d8 bd 38 de d6 56 39
       4.2627522e-05 0.00014421863 9.052539e-05 0.00020488675
0001b0 5e 48 10 38 22 f3 cd 37 9d 20 0a 3a 5b 53 cb 38
       3.4399673e-05 2.4551122e-05 0.0005269142 9.6953205e-05
0001c0 11 8e ac 38 a3 d7 20 38 92 62 f4 37 7d 8c f8 38
       8.228061e-05 3.83478e-05 2.9132967e-05 0.000118517295
0001d0 96 0b 39 38 0e 02 a3 38 e9 af 3d 38 b2 e1 fc 38
       4.4118227e-05 7.7728284e-05 4.522494e-05 0.000120583354
0001e0 86 2e 82 38 59 c7 17 38 2d cb 06 3a 85 bf 7b 38
       6.207549e-05 3.6186862e-05 0.000514197 6.002143e-05
0001f0 0e 36 10 39 97 63 12 39 46 ce 44 38 0e cb 82 38
       0.00013753047 0.00013960745 4.692215e-05 6.236705e-05
000200 e6 d8 8f 38 9a 2a a2 37 b9 38 db 37 8d 58 25 3a
       6.859172e-05 1.9331743e-05 2.6133248e-05 0.00063074456
000210 ea 32 43 38 1a 88 01 39 1b 93 48 38 ed 61 35 38
       4.653904e-05 0.000123531 4.782072e-05 4.3244963e-05
000220 f1 42 89 38 b7 8e f2 37 c5 5c cf 37 4d d1 04 38
       6.545138e-05 2.8915105e-05 2.4719522e-05 3.166618e-05
000230 60 85 26 38 7b 63 a9 38 d8 1a ce 37 10 67 be 37
       3.97017e-05 8.077078e-05 2.4569614e-05 2.2697757e-05
000240 d5 b1 b6 39 ce a3 a0 37 6a 24 d2 37 9c 6c ef 37
       0.0003484624 1.9149764e-05 2.5050907e-05 2.8541595e-05
000250 0b 37 b4 38 93 70 9d 38 4d f4 5d 38 91 46 8d 38
       8.5933214e-05 7.507312e-05 5.291803e-05 6.736548e-05
000260 55 6b 5b 38 83 24 53 38 bc 9d 9e 38 ed 79 76 39
       5.231363e-05 5.0340324e-05 7.5634074e-05 0.00023505809
000270 75 1d fd 38 1b 8c 40 39 f5 5f b0 38 c4 66 d2 38
       0.00012069467 0.0001836274 8.4102074e-05 0.00010032722
000280 5b 5d fa 37 6a 73 bd 38 0b f4 75 38 3c e1 81 38
       2.9845794e-05 9.03372e-05 5.8639835e-05 6.1931525e-05
000290 73 be ee 37 86 26 98 38 79 2e 98 38 72 a3 93 38
       2.8460496e-05 7.2551e-05 7.256581e-05 7.03995e-05
0002a0 80 40 0a 38 f0 2d cc 38 92 e5 b6 38 05 17 2a 38
       3.2961834e-05 9.7360346e-05 8.721197e-05 4.0552597e-05
0002b0 61 e6 2f 38 35 e5 ce 37 ca 0d 1e 39 f3 c1 54 38
       4.193781e-05 2.4663846e-05 0.00015073191 5.0725368e-05
0002c0 4c 38 99 38 e1 f4 80 38 e7 6c e1 37 e1 61 ad 37
       7.3060946e-05 6.149128e-05 2.6872802e-05 2.0668786e-05
0002d0 eb 54 6a 38 ee 17 51 38 1a 8b 53 38 3d 89 32 38
       5.5869034e-05 4.985177e-05 5.043587e-05 4.256632e-05
0002e0 21 e2 11 38 0b 98 25 39 9b 1d e8 37 e5 38 90 38
       3.4781293e-05 0.00015792267 2.7670341e-05 6.8770525e-05
0002f0 41 36 f6 38 d3 8d 4c 38 78 89 c1 37 4f 79 00 38
       0.000117403 4.8769474e-05 2.3071407e-05 3.0630556e-05
000300 a9 b1 d4 37 c4 90 17 39 e9 d2 a5 38 53 c0 de 38
       2.5355099e-05 0.00014454412 7.907098e-05 0.00010621608
000310 c3 52 08 38 aa 4c 64 38 7b 07 a0 38 49 2f 9e 37
       3.2502005e-05 5.4430835e-05 7.630788e-05 1.8857087e-05
000320 bf 15 3e 38 f8 b8 32 38 1a ce c7 38 66 dd dc 38
       4.5319783e-05 4.2610773e-05 9.527449e-05 0.00010531656
000330 f4 bc b7 38 34 3e 32 38 ff c5 c6 38 7d 7a fc 37
       8.761315e-05 4.249644e-05 9.4782554e-05 3.0097779e-05
000340 47 0f e8 37 b4 34 f4 38 ba d7 cd 38 5f c8 22 39
       2.766367e-05 0.000116446434 9.815344e-05 0.00015524168
000350 13 f2 97 38 90 cb 13 39 41 78 c9 38 eb 39 eb 38
       7.245331e-05 0.00014094845 9.606826e-05 0.00011216461
000360 cb cc 9c 38 dd 0e 25 3b af 69 7d 38 67 4e ec 3a
       7.476805e-05 0.002518586 6.0418326e-05 0.0018028737
000370 63 9a dc 37 36 71 fe 37 97 eb 74 38 55 67 02 39
       2.6297936e-05 3.0331877e-05 5.8393543e-05 0.0001243626
000380 4b 80 f9 38 f1 23 07 39 26 04 2f 38 dd d0 25 38
       0.00011897142 0.00012887992 4.1727115e-05 3.9533585e-05
000390 2d 3d 00 39 17 f0 b1 38 68 10 1b 38 6a cf ba 38
       0.00012229821 8.484738e-05 3.697016e-05 8.907805e-05
0003a0 4d 76 92 38 b3 87 a4 38 63 5a 90 38 aa 7e 67 38
       6.983858e-05 7.845405e-05 6.883291e-05 5.5192657e-05
0003b0 a3 2a da 37 4f bb 00 38 8b 21 0f 38 2b 39 c9 37
       2.600748e-05 3.0692023e-05 3.4125096e-05 2.3987688e-05
0003c0 65 98 77 39 32 26 02 38 68 73 3d 38 2b 61 b4 38
       0.00023612527 3.1029987e-05 4.5168592e-05 8.601168e-05
0003d0 77 d8 70 38 98 3a b8 38 6a dd 2e 38 f2 8f ca 39
       5.7422058e-05 8.784718e-05 4.169104e-05 0.0003863569
0003e0 3b c6 23 38 69 f0 98 38 d8 5a 7e 38 03 ab 70 38
       3.9046845e-05 7.292705e-05 6.0642924e-05 5.7379726e-05
0003f0 d8 70 70 38 3d ec f6 38 7d bf 97 38 bd fb 33 38
       5.7325553e-05 0.00011774197 7.2359086e-05 4.2911375e-05

exp_avg f4 [2]
000000 3a 39 e7 ba 77 39 e7 3a
       -0.0017640956 0.0017641027

exp_avg_sq f4 [2]
000000 d0 e8 2c 3a d2 e8 2c 3a
       0.0006595971 0.0006595972
