2024:05:01_ckpts/operational/Linear/lr_0.001_epoch_100/7.pth (torch, 21075 bytes, 6 tensors)

linear.weight f4 [2, 768]
00000000: 6821 87be 5f97 513e 8e03 67bd 8682 dc3d
00000010: d634 8fbd f0c4 f13b 8318 043d b619 c63e
00000020: c15f 3bbe 2cf6 973d a5fd 0b3e e0e8 a2bc
00000030: 3ae7 37bd 8bab dfbd 2b35 acbd c78c 803e
00000040: dbed a4be e19f 033e 0acc 27be 9a0d 3dbf
00000050: 77b9 c2bd a4f9 6fbe 7e3d e3bd a676 78be
00000060: 4a29 bcbd 58e2 7bbe c88d bebd 6ac6 713d
00000070: bbd1 8e3e 40f0 65be 7734 f53d 58b9 ba3e
00000080: 92a0 a53e e667 813d 51e1 0f3d 158a 95be
00000090: 70e5 063e 94ad 21be fe94 ec3e a293 db3e
000000a0: 52d4 e9bb c09e 093f aaeb 673e 1f99 5ebe
000000b0: ca51 c03e 2171 03be 4255 5e3e 40cb 5a3e
000000c0: f830 503e 93f0 113b a70a 15bd 8d94 49bf
000000d0: 0e41 4c3e 9ef6 62be 8740 e93d 7626 04be
000000e0: 4ac4 793e b19c 7e3e 79e6 3bbd b024 9d3e
000000f0: 42af 343c 60e5 5b3d e901 5dbe 474a 35be
00000100: 6b08 93be c03c c5bd 9f5c eb3e c671 8cbe
00000110: f8f0 4abd 1cdc b3bd 08c6 abbb 38e1 de3e
00000120: d717 333c 4ccc 4e3c 08b2 243c 4e9f b6be
00000130: b7c7 733e 725f 7cbd 8a4a 103e 4192 ecbe
00000140: f224 bb3e 9ea2 8fbe 0d22 ecbb c260 c3be
00000150: df26 5bbe e3fc 09be 5804 d5bd 3224 8c3d
00000160: a15a 88be eb2e 943d d565 95be 8f1a 943e
00000170: 14b8 24bf 48dd 44bc 9fc0 b13d 9dbb 34be
00000180: dd0e 1ebf 4a0e b83e 79ea ac3d 3b52 bdbd
00000190: 83a5 55bd 7fd4 9abe 9ad6 56bd 8808 c9be
000001a0: 02fb 74bd dc58 ba3e bad3 023c a158 88bd
000001b0: 4539 5f3e 5dce 023c 5d7e cd3c 765e 903e
000001c0: 5e34 aabc 3ed4 14bd e81e c4bb f55f d73e
000001d0: 462b b5be 03d0 3ebe 4fd4 9cbb 4744 1ebe
000001e0: 703e 2e3e 6ce4 d23c 1d65 0f3e 02f1 b3be
000001f0: 0be1 be3e 1442 30be 3297 25bf 43d7 053e
00000200: f7cc 543e 13a2 f7bd 2de0 74bd fa74 343e
00000210: 4a07 9cbd a01d d6be 6e75 acbe ae80 4e3d
00000220: 64f0 183e daff c53e bbca 093f 7ffc 503e
00000230: 0198 d5bd 8c4d 563d 4a32 ee3d aedf 8b3d
00000240: dcd7 c63d 55a7 c83d 9893 4e3d c5a0 143e
00000250: 413b 053f 57dc 1dbe 9ace 0b3e 5a8d c63e
00000260: 373d 1ebf 4292 4c3c 4c88 4abd b986 dd3e
00000270: f961 513b ceeb f33c 968c 1fbe 546e 8bbe
00000280: a27a c43e 8eb2 e43b e6a3 d73e e6ab a8bc
00000290: 376d 2e3e 80e1 1d3e 2ef7 5dbd 2e4b 54be
000002a0: 4ce7 30be 4cfe b73e 6a8a 6b3d a7dd ac3d
000002b0: cc5b 8c3d c487 3abe e835 ec3d 18c4 55bf
000002c0: 3f37 433d 3c7c 543c 937a d5be f00a 983e
000002d0: aa34 ef3e 17d8 ef3e 1860 20bd 10c3 823e
000002e0: b42f eb3c bf2c 36be bb40 9e3d 515a bd3e
000002f0: c32e 96ba 1e20 0bbc c858 4bbe 0f2a 39bd
00000300: 933b 84bc 8a4f 99bd d7d0 9ebd aa57 fa3e
00000310: 7ea6 78bb 89a0 66be 4423 89be 1bf7 9fbe
00000320: 89b4 31bf e2d0 a0be 46e9 cbbd 6ef3 02bf
00000330: 63b9 f23e 3fd7 803d 14ff a13c 3563 08bf
00000340: 87ad 1abe 41a5 0a3d f6fd 8a3e cbdf 0a3e
00000350: eeb0 7cbd b20f 613e e3e0 86be 771a 083f
00000360: 4df2 953e ad33 3bbd 8840 dfbc 0d18 6abc
00000370: 42bd 0b3d 1586 c8bd a9e8 d3be 1909 37be
00000380: fd8e 6f3e 35a2 af3c af8f 573e 26ae b83e
00000390: 3616 f4bd 8dfe 75bd 0efa ad3d d7cf 063e
000003a0: 48d3 64be d1ac ad3d 5086 19bd 0c74 503e
000003b0: 9776 803e 76bd b33e 6a2e 1c3e 91ea 0fbf
000003c0: 353d 30be 75a4 f9bd c65e 9a38 d5e8 b0be
000003d0: 9cf4 943e fe6a 74be 65ae 1bbe 5e34 ae3d
000003e0: 8f69 03be eb1b c3bd f495 df3e e6f9 55bd
000003f0: b583 763e c203 2bbe 107f 5e3d 872b 693d
-0.26392674 0.204679 -0.056399874 0.10767083 -0.069924995 0.007378213 0.03224994 0.3869149
-0.18298246 0.074200004 0.13670976 -0.019886434 -0.04489825 -0.10921391 -0.084085785 0.25107405
-0.3221272 0.12853958 -0.16386428 -0.7384888 -0.09508031 -0.23435074 -0.11095713 -0.24264011
-0.09187563 -0.24598062 -0.093043864 0.059027113 0.27894387 -0.2245493 0.119728975 0.3646953
0.32349068 0.06318645 0.035126988 -0.2920691 0.13173461 -0.15788871 0.46207422 0.42886072
-0.0071359063 0.5375786 0.22648492 -0.21738099 0.375624 -0.12836124 0.21712211 0.21366596
0.2033118 0.0022268638 -0.036387112 -0.78742296 0.19946691 -0.2216439 0.11389261 -0.12905297
0.24391285 0.2486446 -0.045874093 0.30692053 0.011028113 0.053685546 -0.2158276 -0.17704116
-0.2871736 -0.09630728 0.45969102 -0.27430552 -0.049546212 -0.08782217 -0.005242113 0.43531203
0.010930977 0.01262195 0.010052212 -0.35668415 0.23806654 -0.06161446 0.14090934 -0.46205333
0.36551625 -0.28053755 -0.0072062076 -0.38159758 -0.21401547 -0.13475375 -0.10401219 0.06842841
-0.26631644 0.072355114 -0.29179254 0.28926513 -0.6434338 -0.012015648 0.08679318 -0.17649694
-0.6174143 0.35948402 0.084431596 -0.092442 -0.052159797 -0.30240247 -0.052450754 -0.3926432
-0.059809692 0.3639592 0.00798505 -0.066575296 0.2179919 0.007983771 0.025084669 0.28197068
-0.020776924 -0.036335222 -0.0059851296 0.42065397 -0.35384578 -0.18634038 -0.0047860513 -0.15455733
0.17016006 0.025743686 0.14003415 -0.35144812 0.3728107 -0.17212707 -0.6468383 0.13070397
0.20781313 -0.1209146 -0.059784103 0.17622748 -0.07618578 -0.41819477 -0.33683342 0.050415687
0.14935452 0.38671762 0.5382497 0.2040882 -0.10429383 0.05232005 0.116306856 0.06829773
0.09709141 0.09797541 0.050433725 0.14514454 0.5204354 -0.15416084 0.13653031 0.38779718
-0.61812156 0.012486042 -0.04944639 0.43266848 0.0031949265 0.029775526 -0.15580973 -0.2723261
0.3837481 0.006979293 0.42117232 -0.02058978 0.1703385 0.15418053 -0.054190807 -0.20731804
-0.17275733 0.359362 0.05750505 0.08440714 0.06853446 -0.18215853 0.11533719 -0.8350234
0.04766011 0.012969073 -0.4169508 0.29695845 0.46719867 0.4684455 -0.039154142 0.25539446
0.02870927 -0.17790507 0.0772719 0.36982968 -0.0011458028 -0.008491544 -0.19858086 -0.045206126
-0.016141688 -0.07485874 -0.07754677 0.48895007 -0.0037941034 -0.22522177 -0.26784718 -0.31243214
-0.694161 -0.31409365 -0.09956603 -0.51152694 0.47407064 0.06291055 0.019774951 -0.5327638
-0.15105258 0.033849005 0.27146882 0.13561933 -0.06169217 0.21978644 -0.2634345 0.5316538
0.29286423 -0.04570358 -0.02725245 -0.014287961 0.034116037 -0.09791199 -0.41388443 -0.17874564
0.2339439 0.021439651 0.21050905 0.36070365 -0.11918299 -0.06005721 0.0849496 0.13165222
-0.22346222 0.08480228 -0.037481606 0.20356768 0.25090477 0.35105485 0.1525208 -0.56217295
-0.17210849 -0.12189571 7.360945e-05 -0.34552637 0.29092872 -0.2386894 -0.15203245 0.08506082
-0.12833236 -0.09526809 0.43669093 -0.052240275 0.2407368 -0.16700652 0.054320395 0.056926277

linear.bias f4 [2]
00000000: 6110 a63d cb5c 30bd
0.08108593 -0.043057244

exp_avg f4 [2, 768]
00000000: 76a3 193a 222f 973b 6f25 563a 1c71 773b
00000010: d925 283b 2f14 09bb d68e a339 64e1 65ba
00000020: 6f04 9cba c7df c5b9 3fb1 31ba 0cbd 503b
00000030: 177c 0dba 5e76 50ba de94 0d3b cedd d1ba
00000040: f9f2 203b 6f9a eb3a ff12 b8ba 091b 683a
00000050: 8f60 ca3a b2c7 013a 7cb4 9539 3d60 23bb
00000060: 9954 873a 9038 a2b8 bd6b 84ba 2f46 8aba
00000070: 3e81 7e3a 5f6f bc3a 84dc 1bbb dfe0 1e3a
00000080: 3f7f b339 eb6c b9b9 5f27 113b 84d2 ad39
00000090: 1a16 52ba a4c2 303a 3d4e b5bb 2cae 8eba
000000a0: 853c ad3a a741 3bbb 8b69 423a 1a9a 383a
000000b0: 0b57 39ba f14b d33a 2e80 fcba 94d5 013a
000000c0: 749b 70b9 439a 24ba 89c7 30ba 028a 1eba
000000d0: d8c7 9dba 033c 663a b7c8 a6ba 7c02 273a
000000e0: f0f6 a6ba 635b 423b 9860 8c3a 8068 2d3b
000000f0: bd38 f53a f5eb 903b e310 81bb 1cbd 1eba
00000100: 3afd a5b9 568b 92ba c58a b53a fa12 c2ba
00000110: 805e 67ba 3e0c a9b9 743d 043b 3bc5 c33a
00000120: d8f1 c7ba b815 89bb f2a1 e9ba 2146 8bba
00000130: 3ada 473a b521 79bc d8eb 5038 5bb4 d739
00000140: 53f9 ecba 69b5 333a 8e54 25bc 3527 a93a
00000150: 7ac9 493a b014 1dbb 1c51 163b a937 ccba
00000160: 91b5 87ba aba5 89ba b895 a539 0eba 223b
00000170: 7437 2a3b 37e3 473b 3b0f 26bb 980a 37bb
00000180: 1ccc 6238 b2fe 16bc c1d5 08bb 8d81 753b
00000190: 798b acba bf44 dab9 e833 703b e282 873a
000001a0: a372 b03a 3e34 abba 5f0d 0bbb 8afb 11bb
000001b0: 51a9 13ba 24ad 543a b4c8 47ba 8923 813b
000001c0: ebf7 0ab9 d49d 693a 24f6 b1ba 09c7 fe39
000001d0: 7510 15ba 5c10 7d3b 5eb9 d8ba 7948 6a3b
000001e0: 8722 9fb9 0075 17b9 584b ad3a 1004 653a
000001f0: 7ae5 9c3b 7b30 1bba a1ad 8d3a 2cb0 9a3a
00000200: 4bda 32bb 4edb aa3a 546e b23a 8b82 a03b
00000210: 8b15 293b e75f ebba 818f 953a 5751 ebba
00000220: ab4c b7b8 48d4 e03a 06e4 a83a aa8c 89b9
00000230: cf31 1fbb 226e acba a76a 16ba 7f8b 66ba
00000240: 3ae8 e73a acd2 9e39 837e 0fbb 6d8b 5d3a
00000250: c861 b8ba 3f31 a0ba 5eee fa39 4705 df3a
00000260: c33f ab3a 53a9 64ba d186 163b 8902 683b
00000270: a072 1ebb 289a cf3a 5d23 793a 6293 fdb5
00000280: 2742 2cb8 54b1 943a a9ab ebba 3671 ec3a
00000290: a3b6 103a 9a41 bfba 54df 6f3b ad92 293b
000002a0: f5b7 8cba 714b 88ba ed43 ff3a 0fc6 a7ba
000002b0: 31b3 c6ba 27b0 af39 90f1 7dbb 82e9 a63b
000002c0: d058 403b 3915 6cbb dbb9 95ba 547c 28bb
000002d0: e59e f039 fb50 da38 634d adba d867 4aba
000002e0: cee1 2439 d06d 263b 92a2 c0b9 70fb 643b
000002f0: 6c86 bcba b1df e839 b77e 5439 c51c 1b3b
00000300: cf9c 9aba ade5 ffba 80c8 32bb e909 95ba
00000310: 0c40 d13a 4db6 153b 9b7d c13a 4470 e9ba
00000320: 1795 a8ba d5db 28ba 96c7 343b 21c6 f7b7
00000330: 3024 8bbb 0d9a ffba eef2 563b ebb1 50ba
00000340: 258f 9b39 6fa7 84bb 7eac c53a 443b 38bb
00000350: ea6a ddb9 7d5d 3a3b 1f32 f1b9 0d96 db39
00000360: 7dea ea3a 2758 1939 8173 7bba bcd4 22bc
00000370: 4831 853a 04cb b4ba 5c4d 12b9 19c2 92bb
00000380: 563b 643b 3754 503b 6c75 753a c886 e8b9
00000390: c157 c4b9 19ce 15bb 9d70 253a d28c 0dbb
000003a0: 5ed4 8239 6c74 f5b9 6c1f d03a 2549 a239
000003b0: 7e86 b3ba 31a7 c6ba c8e4 7f3a 601c 22bb
000003c0: 9ae6 38bb 9ef1 c0b9 8952 e53a 2ca8 753a
000003d0: 4ac3 963a de3e 13bb 0508 f039 5816 603b
000003e0: 6acf 283b 43ca 3bb9 9001 403a d8d3 0f3b
000003f0: 278f d6b5 1ded 123b 442b 5aba b69b af3a
0.00058608444 0.004613773 0.000816903 0.0037756627 0.0025657325 -0.0020916571 0.00031196204 -0.00087692426
-0.0011903177 -0.00037741495 -0.0006778426 0.0031850962 -0.0005397214 -0.00079522084 0.0021603624 -0.0016011538
0.0024558885 0.0017975102 -0.0014043747 0.0008854126 0.0015440154 0.00049507164 0.00028553966 -0.0024929189
0.0010324895 -7.7352975e-05 -0.0010102909 -0.0010549481 0.00097085896 0.0014376453 -0.002378256 0.000606073
0.00034236346 -0.000353671 0.002214871 0.00033153978 -0.00080141576 0.0006742871 -0.0055330084 -0.0010885647
0.0013216889 -0.0028573067 0.000741624 0.0007042006 -0.00070701604 0.0016120655 -0.0019264275 0.0004952785
-0.00022946094 -0.00062790903 -0.00067436 -0.00060477864 -0.0012037707 0.0008782746 -0.0012724613 0.00063709146
-0.0012738388 0.0029656522 0.001070994 0.0026459992 0.0018708926 0.0044226595 -0.0039387806 -0.0006055401
-0.0003165992 -0.0011180441 0.0013850561 -0.0014806681 -0.0008826032 -0.00032243313 0.002017823 0.0014936099
-0.001525457 -0.0041834973 -0.0017824753 -0.0010625758 0.0007623766 -0.01520579 4.981071e-05 0.0004114237
-0.0018079676 0.00068553403 -0.01009096 0.0012905361 0.0007697564 -0.002396863 0.0022936529 -0.0015580553
-0.0010353794 -0.0010501643 0.00031582802 0.0024830136 0.0025972994 0.003050042 -0.0025338668 -0.0027929898
5.407269e-05 -0.0092159975 -0.002087936 0.0037461251 -0.0013164125 -0.0004163142 0.0036652032 0.0010338689
0.0013461899 -0.0013061834 -0.0021217687 -0.0022275173 -0.0005632835 0.0008112958 -0.00076211547 0.0039410037
-0.00013253062 0.0008911763 -0.0013577384 0.00048594948 -0.0005686351 0.0038614487 -0.0016534736 0.0035748763
-0.00030352568 -0.00014444068 0.0013221307 0.0008736262 0.004788098 -0.0005920005 0.0010809192 0.0011801771
-0.0027290757 0.0013035329 0.0013613203 0.0048983744 0.0025800194 -0.0017957658 0.0011410565 -0.0017953318
-8.7404005e-05 0.0017153108 0.0012885339 -0.0002623548 -0.0024291163 -0.0013155381 -0.00057379383 -0.000879459
0.001769311 0.0003029307 -0.0021895475 0.0008451257 -0.0014067227 -0.0012221708 0.00047861313 0.0017015123
0.0013065267 -0.0008722741 0.002296854 0.0035401902 -0.0024177209 0.0015838789 0.0009503866 -1.8892863e-06
-4.1069605e-05 0.0011344352 -0.0017980236 0.0018039111 0.0005520379 -0.0014591694 0.003660162 0.002587478
-0.0010735976 -0.001039846 0.00194752 -0.0012800115 -0.0015159604 0.00033509845 -0.0038748719 0.0050937543
0.0029349811 -0.0036023392 -0.0011423187 -0.002570887 0.00045894753 0.00010410134 -0.0013221916 -0.00077211624
0.00015724378 0.0025395043 -0.00036742218 0.0034939907 -0.0014383323 0.0004441715 0.000202651 0.002366827
-0.0011796 -0.0019523405 -0.0027280152 -0.0011370751 0.0015964522 0.0022844255 0.0014762165 -0.0017809947
-0.0012861815 -0.0006441449 0.0027584783 -2.9536955e-05 -0.0042462572 -0.0019500867 0.0032798606 -0.0007961082
0.00029670555 -0.00404828 0.0015081314 -0.0028111497 -0.00042232062 0.002843707 -0.00046004445 0.00041882732
0.0017922666 0.00014624056 -0.00095921016 -0.009938415 0.0010161782 -0.0013793414 -0.00013952464 -0.0044787046
0.0034825406 0.0031788477 0.00093635055 -0.00044350908 -0.00037449415 -0.002285844 0.0006311031 -0.0021598828
0.00024953758 -0.00046816783 0.0015878505 0.00030953545 -0.0013696698 -0.0015156028 0.0009761569 -0.002473615
-0.002821362 -0.00036801113 0.0017495911 0.0009371068 0.0011502292 -0.0022467892 0.00045782342 0.0034193005
0.0025758394 -0.00017909058 0.00073244516 0.0021946337 -1.5985905e-06 0.0022419163 -0.0008322487 0.0013397846

exp_avg_sq f4 [2, 768]
00000000: c387 ed37 b223 3c39 288c 5338 eaea 9939
00000010: 80f3 5f39 37c1 9b39 11f5 fd37 6216 8538
00000020: 6cb7 6438 8550 3338 322a e438 80c3 c038
00000030: ef10 a238 170c de38 6e5a a638 a70b f938
00000040: 792f 0439 e385 6338 1a0c 2638 ccbe 9e38
00000050: 9963 0b38 adb5 1a38 1747 bf38 346f 9a38
00000060: f48d 9238 0aa7 6b38 797e 3638 b701 ba38
00000070: 5f79 5338 bedb 8638 351c 3c38 4d20 d738
00000080: 5e8d 9d38 b231 4838 0dbd de38 a27b a337
00000090: 35c7 d338 30c3 3338 e02e 4339 94d5 8438
000000a0: 7e72 cd39 4dc4 3f39 3ec4 6538 6881 0038
000000b0: 8e00 2b38 9b64 1238 214f 5b38 84b4 9e38
000000c0: 8351 9a37 2a0a 7538 8c0d d438 ef72 be37
000000d0: d06d 2e38 0b24 b738 ded7 4938 8a80 c038
000000e0: f809 b637 6c7c 2e39 d83a 4a38 ab57 9738
000000f0: 895d b238 76bd 7a3a 249c d438 9c4b a938
00000100: 2720 2338 eae3 ce38 92ec 3238 1b0e 9338
00000110: 4084 d437 5389 5538 bf03 d238 7956 9838
00000120: 22cd cc37 bb2f 6a39 7f0b 5538 edbb d138
00000130: 5ca9 9138 9da4 b13c a539 0239 385e 5a39
00000140: 1e6a 3b38 22be 8e38 79b9 d33b 3058 a238
00000150: 2878 a038 946c 8839 46d2 1c38 1b44 b538
00000160: dbb0 6938 ddf9 5838 4741 d738 af99 9038
00000170: 1fe3 4038 7826 a539 8eb8 1738 f6d1 2139
00000180: 2b98 2338 1085 503a 6393 cc37 6cd0 1939
00000190: e8e9 4a39 28fd 5138 3e4e 1739 9c45 3638
000001a0: 54b3 6a38 ee8b c738 7134 0e39 1b01 0639
000001b0: 50ce 1538 ee39 0838 6c47 8437 eb11 fd38
000001c0: 7948 e238 90b5 4c38 c215 0b38 4e69 0b39
000001d0: 2a50 4638 1ac0 3f39 da25 3338 6f32 5439
000001e0: 0663 2138 1f96 0038 8e78 db39 b68d f038
000001f0: 30bf 3f39 d02f 0139 5bd5 3338 9331 6338
00000200: 2801 b438 a8fe 3738 ead7 6d37 176b f639
00000210: c40a 5038 185d b638 e1da e338 05e6 2338
00000220: ea70 7438 d2de 4338 141d da37 1914 3338
00000230: ec06 4138 f27a 6f38 63f2 2138 699b ba37
00000240: df1f 7e39 1edd fb37 501b 3c38 fcbe f137
00000250: 4a27 b538 bb1b a738 24d9 9a38 5e7e b038
00000260: c8b6 9438 4bf9 8538 4482 0039 d478 ab39
00000270: 1405 9f38 cf07 f838 a685 b438 39a6 0039
00000280: 2261 bf37 322f b638 c5e9 8538 bff2 8338
00000290: c77a 0738 eb36 8538 279a b038 ff60 a538
000002a0: 6625 1938 09d8 b238 0f17 a838 4b75 1c38
000002b0: 489b 6238 5368 0738 35a4 2039 e9ae 9138
000002c0: e16e f238 0c62 a638 c1d2 c837 65b8 f137
000002d0: d10a 5b38 c577 6138 a046 9f38 9d96 8138
000002e0: 7bd0 3838 f160 1d39 8c66 3e38 d441 b538
000002f0: 2e19 be38 a9c9 9438 d8bb 5038 52d3 1e38
00000300: 3051 3e38 2dee 2439 ab4b e438 9a63 f438
00000310: 142b 2838 7de7 3238 e763 da38 6016 c837
00000320: f933 4838 9394 1f38 78d9 e838 1394 9a38
00000330: bdda aa38 1683 3e38 d540 da38 4a22 e637
00000340: 7e1b 5138 38ab d638 d07c e337 70aa 1d39
00000350: 998a 9f38 c2b3 4c39 a48d ba38 90e8 6e38
00000360: e9e1 9e38 6f63 393b 65d8 8c38 d82c e53a
00000370: 2e1e 0938 0909 1e38 e7b7 8138 9288 e638
00000380: 27e8 2939 3dbf 0639 3704 ec37 79bc 3138
00000390: f9cf 0639 cdec bd38 33aa 2e38 6a94 a638
000003a0: d839 8c38 fda2 eb38 2a8d 8938 7a3f ab38
000003b0: ad94 1f38 cff8 7738 471c 2138 4ddf 0e38
000003c0: db02 5439 3805 bf37 0302 3f38 0550 e738
000003d0: 1ca9 6538 ab17 f038 808a 2638 ed80 a139
000003e0: ddc4 6e38 0451 9d38 ba31 cf38 555d a538
000003f0: 17b9 6138 e43f 9738 7cb0 b238 bc72 2638
2.831582e-05 0.00017942375 5.043685e-05 0.0002935746 0.00021357648 0.0002970786 3.0274068e-05 6.346103e-05
5.453026e-05 4.2751915e-05 0.00010879747 9.191688e-05 7.727916e-05 0.00010588037 7.932341e-05 0.00011875416
0.00012606186 5.424571e-05 3.9588755e-05 7.569566e-05 3.323294e-05 3.688566e-05 9.120831e-05 7.3640054e-05
6.988263e-05 5.6183933e-05 4.350997e-05 8.8694906e-05 5.0419356e-05 6.430548e-05 4.4848963e-05 0.000102580154
7.512675e-05 4.773e-05 0.000106209984 1.9488685e-05 0.00010098369 4.285871e-05 0.00018614111 6.3340325e-05
0.0003918595 0.00018288307 5.478062e-05 3.0638097e-05 4.0770094e-05 3.490281e-05 5.2287363e-05 7.567651e-05
1.8396187e-05 5.8422018e-05 0.00010111471 2.2703285e-05 4.1587104e-05 8.7328335e-05 4.8123176e-05 9.179216e-05
2.1700733e-05 0.00016640284 4.8215355e-05 7.2165705e-05 8.505124e-05 0.0009564975 0.00010138031 8.072631e-05
3.8892173e-05 9.865298e-05 4.265883e-05 7.0121336e-05 2.5333953e-05 5.091105e-05 0.00010014278 7.2640316e-05
2.4414217e-05 0.0002233376 5.0793864e-05 0.000100009005 6.9456844e-05 0.021684939 0.0001241924 0.000208252
4.4683104e-05 6.806503e-05 0.006461319 7.741188e-05 7.6517754e-05 0.00026020838 3.738913e-05 8.643438e-05
5.571624e-05 5.1731116e-05 0.00010264158 6.895081e-05 4.598789e-05 0.00031499914 3.6173085e-05 0.00015432373
3.9003946e-05 0.0007954398 2.4387327e-05 0.0001466886 0.00019351358 5.0065253e-05 0.0001442963 4.345701e-05
5.595696e-05 9.5151234e-05 0.00013561711 0.00012779648 3.571651e-05 3.2478878e-05 1.5768885e-05 0.000120673176
0.00010790019 4.8806483e-05 3.3160446e-05 0.00013295302 4.7281537e-05 0.00018286743 4.2712178e-05 0.00020236683
3.8477614e-05 3.065739e-05 0.00041860755 0.000114704875 0.00018286402 0.0001232021 4.287563e-05 5.4167187e-05
8.583284e-05 4.3867767e-05 1.4176572e-05 0.00047000565 4.960109e-05 8.695776e-05 0.00010864973 3.907645e-05
5.8279293e-05 4.669914e-05 2.6001166e-05 4.2695643e-05 4.6021232e-05 5.7096542e-05 3.861113e-05 2.2245296e-05
0.000242352 3.0024497e-05 4.484813e-05 2.8818373e-05 8.638071e-05 7.968346e-05 7.383738e-05 8.415872e-05
7.0912356e-05 6.388369e-05 0.00012255559 0.00032705686 7.582657e-05 0.00011827016 8.607963e-05 0.00012268954
2.2814205e-05 8.687227e-05 6.385477e-05 6.291782e-05 3.2300853e-05 6.3521635e-05 8.421047e-05 7.88588e-05
3.6512873e-05 8.527941e-05 8.015159e-05 3.7302536e-05 5.4027216e-05 3.2283668e-05 0.00015319961 6.946718e-05
0.00011560112 7.9337595e-05 2.3939998e-05 2.8815304e-05 5.2223742e-05 5.3755724e-05 7.594866e-05 6.179253e-05
4.406318e-05 0.000150088 4.5395034e-05 8.643014e-05 9.064596e-05 7.094752e-05 4.9766008e-05 3.7866943e-05
4.537514e-05 0.00015728986 0.000108859815 0.00011653379 4.009444e-05 4.2654097e-05 0.00010413658 2.3852277e-05
4.773212e-05 3.8046925e-05 0.00011103129 7.370873e-05 8.146975e-05 4.5421613e-05 0.00010407126 2.7434104e-05
4.9855087e-05 0.00010236207 2.7118629e-05 0.0001503618 7.607527e-05 0.00019521921 8.895554e-05 5.6960213e-05
7.576106e-05 0.0028288027 6.716027e-05 0.0017484678 3.2691452e-05 3.767855e-05 6.185454e-05 0.00010992693
0.0001620358 0.00012850478 2.8135355e-05 4.2375617e-05 0.00012856712 9.05633e-05 4.1643343e-05 7.943141e-05
6.6864945e-05 0.00011236032 6.558963e-05 8.165739e-05 3.804702e-05 5.912111e-05 3.8411727e-05 3.4063403e-05
0.00020218959 2.2771404e-05 4.5539822e-05 0.00011029843 5.475535e-05 0.000114485 3.9706472e-05 0.0003080437
5.6926965e-05 7.501434e-05 9.8797915e-05 7.8851976e-05 5.381656e-05 7.212142e-05 8.520574e-05 3.968434e-05

exp_avg f4 [2]
00000000: e033 5c3b b533 5cbb
0.0033600256 -0.0033600156

exp_avg_sq f4 [2]
00000000: 4e7f 123a 4e7f 123a
0.0005588428 0.0005588428
