2024:05:01_ckpts/operational/Linear/lr_0.001_epoch_100/8.pth (torch, 21075 bytes, 6 tensors)

linear.weight f4 [2, 768]
000000 c6 67 01 bf a9 d8 9b bd d9 18 22 bf dd 3c 4f be
       -0.5054897 -0.07609684 -0.63319165 -0.20238061
000010 7b 42 14 3d 0a 0b 6d bd 10 d4 ce 3e 73 5b 5d 3e
       0.036196213 -0.057871856 0.40396166 0.21616916
000020 4a 0c 11 3c 20 54 48 be 89 0d e5 bc c4 9d 7c be
       0.008853028 -0.19563341 -0.027960556 -0.24669558
000030 e2 28 31 be f6 ad 0a be 75 48 51 be 56 0b 91 3e
       -0.17300752 -0.13542923 -0.20437796 0.2832896
000040 46 e1 c5 be 53 36 da bd 27 f3 b3 ba 4b f7 a4 be
       -0.38648432 -0.10654893 -0.0013729081 -0.3221992
000050 8a f8 92 be 14 f2 d8 bd ef a4 9d 3d 32 f0 7e bb
       -0.28705245 -0.10593048 0.07697474 -0.0038900492
000060 d0 69 ce bd 85 2c ec be 83 64 a7 be cc 17 e5 3e
       -0.10078776 -0.46127716 -0.32693872 0.44744718
000070 58 f0 26 3e f1 80 e9 bd 06 7a 1e 3e 6c ac da 3e
       0.16302621 -0.11401547 0.15476236 0.42709672
000080 16 cb 55 3e 63 fe 28 be 3a be b4 be c2 a7 b0 3e
       0.20878252 -0.16503291 -0.3530138 0.3450299
000090 78 65 e9 bd 9e 4c 32 3e db 7e f4 3d 00 a0 93 3e
       -0.11396307 0.1741204 0.11938258 0.28833008
0000a0 98 19 b7 3b 5c ee f5 3e de ca fc bd ad 39 4e be
       0.005587768 0.48033416 -0.12343381 -0.20139189
0000b0 bb 0a c2 3e 82 96 86 be f8 4c 88 3e a9 85 06 3f
       0.37898812 -0.26286703 0.26621222 0.525477
0000c0 1d f6 a1 3d 4d 33 28 be 7c 91 af 3b a9 9e b8 3e
       0.079082705 -0.1642582 0.0053579193 0.36058548
0000d0 fb 78 fe bd 6a 7a 7d be 72 44 dd bd 0b eb eb bd
       -0.12425419 -0.24753729 -0.108040705 -0.1151944
0000e0 c9 da 26 3e 03 84 db bd 44 88 b9 3e f4 67 c8 3d
       0.16294397 -0.107185386 0.36236775 0.097854525
0000f0 0a e9 60 be fc 8b c0 3d 81 eb 39 3e 32 c8 16 3d
       -0.21963897 0.094017 0.18156244 0.036812015
000100 52 3d ee be 06 8f 88 be ea b4 0a 3d 95 04 1e 3b
       -0.4653116 -0.26671618 0.03386394 0.0024111618
000110 c0 f5 0a bd d4 9d 14 be 84 84 58 bd 0a 2b 75 3e
       -0.03392577 -0.14513332 -0.05286075 0.239422
000120 57 a0 eb be 78 f6 bf 3e 11 b5 85 be 5d 25 48 3c
       -0.46020767 0.37492728 -0.26114705 0.012215939
000130 c5 9a 14 3e 4e 80 11 be 29 1a b0 3e 11 3f 0a bf
       0.14512165 -0.142091 0.3439496 -0.5400248
000140 f2 87 da 3d b1 50 d0 bd 04 cc c7 bc 86 4d 11 bf
       0.10670461 -0.10171641 -0.024389274 -0.56758916
000150 f2 30 44 3d 69 0d 54 be dd 7e 57 be 41 f4 8a 3e
       0.04789824 -0.2070824 -0.21044488 0.27139476
000160 22 35 d7 bc f4 76 9e 3e c0 ce a8 bd 65 4d a9 3b
       -0.026270453 0.3095013 -0.082425594 0.005166697
000170 11 48 c4 be 47 69 45 3e cc 5c ea bb f2 25 b6 be
       -0.38336232 0.19278441 -0.0071521755 -0.35575825
000180 7a 9b b2 3d 9c a8 b4 3d 75 2a 36 bd 45 a6 4d be
       0.08721061 0.08821222 -0.044474084 -0.20082958
000190 17 a4 59 be 6e ff 23 be 7d 65 ef 3d 11 72 c8 be
       -0.21254002 -0.16015407 0.11689279 -0.39149526
0001a0 39 7a 53 3e 65 1d 00 3f 5c bd b5 bd fb 47 14 be
       0.20652093 0.5004485 -0.08874008 -0.14480583
0001b0 c3 f5 20 be f4 7b e9 3e 2b b1 90 3d 89 16 d3 3e
       -0.1571875 0.4560238 0.07065042 0.4122813
0001c0 70 5c 86 bd ef e4 ac 3d a5 63 49 be 19 bf a6 3e
       -0.065606 0.08442103 -0.19666918 0.3256767
0001d0 7d 6e 67 3e 93 51 8e bc 98 b5 c5 bc 10 ae 8e bc
       0.22600742 -0.017372882 -0.024134442 -0.017416984
0001e0 d9 12 57 3e d3 e3 86 bc 8e 4f 5e 3e 66 5a 88 be
       0.21003284 -0.016466057 0.21710035 -0.2663147
0001f0 7c c6 70 3e fc fd d6 bd 62 9e 4b be 3c 5e d4 3d
       0.23513216 -0.104976624 -0.19884637 0.10369536
000200 a0 93 aa 3d 98 55 58 3e 69 37 5e be b3 12 9c 3d
       0.083289385 0.21126401 -0.21700825 0.07620754
000210 63 eb c4 bd d2 54 d6 be 9f d3 e4 be 3a 73 81 3e
       -0.09615209 -0.41861588 -0.44692704 0.25283223
000220 74 7a 88 bd 03 ca 9b 3e b0 b1 bf 3c f2 ad 1c be
       -0.06663981 0.3042756 0.023400158 -0.1530073
000230 11 ed c5 bd 7d d3 2d bc 8f 3f 97 bd b2 97 48 3e
       -0.096643575 -0.010609505 -0.0738517 0.19589117
000240 f7 20 cb 3d e6 0c 69 3d a0 a5 3a 3e bf 46 32 3e
       0.09918397 0.056897067 0.18227243 0.174098
000250 fb 32 95 3e 17 6e 62 3d e2 ee 56 3e b8 68 ba 3c
       0.29140458 0.05528077 0.20989564 0.022755012
000260 39 1e 14 3c 93 79 82 be f6 6c 56 3c 7e 98 7d 3e
       0.009040409 -0.2548338 0.013087502 0.24765202
000270 93 18 6a 3e d1 f6 f0 3d 5e b8 a6 3d 0b 2c 1c be
       0.22860937 0.117658265 0.08140634 -0.15251176
000280 a2 bb 95 3d 60 84 dc 3d d7 b4 df 3e 4e 7c 73 bd
       0.07311179 0.10767436 0.43692657 -0.059444718
000290 93 f9 f3 bc 30 d5 cd 3e 5e e4 31 3c a8 7e 8b be
       -0.029782092 0.40201712 0.01085767 -0.2724507
0002a0 19 ad 5d 3e 98 fa 11 3f 90 e0 ab bd eb 95 fe bd
       0.21648063 0.57023 -0.08392441 -0.12430938
0002b0 7b 59 b7 3d d0 f5 90 3c 19 2f 6d 3e f8 e9 02 bf
       0.08952614 0.017695338 0.23162498 -0.5113826
0002c0 9d df 9e 3e 8c d4 ec 3d 2e 9b c5 3d 58 ce 81 3c
       0.31029978 0.115639776 0.09648739 0.015845463
0002d0 2b 6a 03 be 56 24 83 3e 0c 84 c3 3d 8f c9 a8 3d
       -0.12833469 0.2561366 0.0954667 0.08241569
0002e0 ee 04 0d be d8 a4 fa bd ef 25 b2 3e 59 e7 8f 3e
       -0.13771412 -0.12238473 0.34794566 0.28106192
0002f0 b8 46 36 be d9 8e aa 3e 3a 41 63 be 22 00 3d 3e
       -0.17800415 0.3331211 -0.2219285 0.18457082
000300 55 e8 dd 3e fd 12 67 3e 6a 1a ad 3d 5f 7a 4d 3e
       0.43341318 0.22565837 0.08452304 0.20066212
000310 75 84 b3 3e c0 1a 17 3d c4 a4 29 be 8a 7d ea bb
       0.35061994 0.036890745 -0.1656676 -0.0071560787
000320 ca 0c 99 be 36 1b da be 6e d0 b0 bd 94 6c 2c be
       -0.2989257 -0.42598885 -0.08633505 -0.16838294
000330 68 87 e9 3e ba f2 1b be df cb b4 3e 05 7b 19 bf
       0.4561112 -0.15229312 0.3531179 -0.5995334
000340 78 4b 34 be 3f 58 09 be 2a 84 4c bd 5d ea 53 3e
       -0.17606914 -0.1341257 -0.04993073 0.20694871
000350 c3 83 08 be 6c 6f d6 3d 21 b6 e4 be 54 09 28 3f
       -0.13331513 0.10470471 -0.44670203 0.65639234
000360 ae 4c 8c 3d 74 57 3e bd f5 5d 31 3e 03 a8 ec 3d
       0.06850563 -0.04647012 0.17320998 0.11555483
000370 df a4 8b ba ed fe 6f 3e 56 a3 57 be 06 7e c7 be
       -0.0010653994 0.2343709 -0.21058401 -0.38963336
000380 46 5e 61 3e 19 23 2f 3d d9 25 27 3e c0 7b 1b be
       0.22008619 0.04275808 0.16323031 -0.15183926
000390 d8 24 97 be 87 e1 b1 3d 94 73 56 3e 04 cf c7 3e
       -0.29520297 0.08685594 0.20942527 0.39025128
0003a0 da 69 64 3e c4 b5 e1 be af 0c e1 3d 86 58 ad 3e
       0.22306004 -0.4408399 0.10988747 0.338566
0003b0 64 64 ac 3e 64 b4 76 bd e7 a0 0e 3f 00 ce e2 bd
       0.33670342 -0.060230628 0.5571427 -0.11074448
0003c0 05 dc 84 be 91 60 e6 3d b7 47 7e 3e 77 7f 71 be
       -0.25949112 0.11248887 0.24832045 -0.2358378
0003d0 ce dc 2e be 06 19 6c be 04 9b cf bd 36 32 6e 3d
       -0.17076418 -0.2305642 -0.10136989 0.058153354
0003e0 03 ce 68 be 9f 10 45 3d 7d f6 9a 3d e8 4a da bc
       -0.22734837 0.048111554 0.07566545 -0.026647046
0003f0 4f ba 84 3e d5 75 22 3e 0b 68 d8 bd d9 d3 34 3e
       0.25923392 0.15865262 -0.105667196 0.17658938

linear.bias f4 [2]
000000 3f a0 d0 3c c9 08 18 bd
       0.025467036 -0.037117753

exp_avg f4 [2, 768]
000000 23 eb cb 3a f3 1c 34 ba 5d 9b d9 b6 7b 75 d0 3a
       0.0015557747 -0.0006870769 -6.4851906e-06 0.0015904153
000010 86 b9 b4 3a fe 01 32 3b b2 79 22 b8 7d be 05 3b
       0.00137882 0.0027161832 -3.8737147e-05 0.002040773
000020 ea b0 bb 38 72 5c 07 3a 36 a8 cc 3a 5f 02 5d 3b
       8.949808e-05 0.0005163617 0.0015614096 0.0033723337
000030 b5 d1 c1 ba b4 b3 1e bb 03 c3 8f 3a 6c 66 8b 3b
       -0.0014787229 -0.0024215998 0.0010968152 0.004254153
000040 3d 9c e5 3a 2c f1 90 b9 39 c0 26 ba 6d 05 02 bb
       0.0017517876 -0.00027645507 -0.0006361041 -0.001983966
000050 55 62 33 3a 77 2f c9 ba 20 4e c7 b6 4d 14 8a 39
       0.0006842961 -0.0015349229 -5.939757e-06 0.00026336536
000060 3a e7 c6 b7 d8 dc 8b 39 5a 1c 9a b8 e3 87 82 ba
       -2.3711113e-05 0.00026676687 -7.348573e-05 -0.000995871
000070 b4 6f 9c 3a b7 7b 18 3b 3a 9d b1 3a 78 64 d5 39
       0.0011935146 0.00232671 0.0013550885 0.0004070138
000080 d1 4d e5 ba 4e 44 e3 3a fc 8b 5a 3b e6 a4 98 3a
       -0.0017494505 0.0017339082 0.0033347597 0.0011645823
000090 76 46 08 ba b7 24 96 b9 42 8e 66 ba 37 8e d2 ba
       -0.0005198488 -0.00028637584 -0.0008795002 -0.0016064112
0000a0 3a 36 8c b8 9a c0 49 ba ca 56 73 38 0c 5c 4f 3a
       -6.685821e-05 -0.00076962414 5.8016543e-05 0.00079101394
0000b0 b4 13 d4 ba 3c c8 9f ba e5 c8 20 bb ea b8 90 3a
       -0.0016180188 -0.0012190412 -0.0024533805 0.0011041437
0000c0 1e 20 1b ba ab 3e a3 ba e6 c6 e8 b9 fd c7 01 3a
       -0.00059175666 -0.001245459 -0.0004439868 0.000495076
0000d0 1d c7 04 3b 3e d9 0c 3a 1a ed 2f ba 38 c0 04 bb
       0.0020260282 0.0005372948 -0.0006711051 -0.0020256173
0000e0 e4 c4 52 ba 7b 0c ce 3a 8e 13 b6 3a dd 27 ba b9
       -0.0008040203 0.0015720272 0.0013891326 -0.00035506385
0000f0 f2 68 95 3a 53 5d ba bb 23 6e b9 ba f6 f6 8c ba
       0.0011399074 -0.0056873946 -0.0014147203 -0.0010754752
000100 34 b5 f9 ba 58 86 08 bb 98 96 08 39 b5 32 a1 3a
       -0.0019051195 -0.0020832028 0.00013026071 0.0012298437
000110 29 12 c8 38 96 0b 60 ba f5 c7 0a 38 20 01 87 ba
       9.540126e-05 -0.00085466483 3.308799e-05 -0.0010300018
000120 e0 41 33 bb a4 85 75 ba b4 10 8c ba ef 96 89 3a
       -0.0027352497 -0.00093659223 -0.001068613 0.0010497252
000130 4b 8a 8e ba f5 13 b5 bb b0 64 2e 3b b6 42 1d 39
       -0.0010874955 -0.0055260607 0.0026610307 0.00014997539
000140 f0 c0 1d b7 83 37 9d b7 b9 2e d0 3b 5f 23 18 b6
       -9.402851e-06 -1.8741708e-05 0.006353226 -2.2670354e-06
000150 8d 5c 75 39 cb 6a 40 bb 82 75 91 3a 43 9f e8 b9
       0.00023399499 -0.0029360529 0.0011097642 -0.00044369148
000160 22 0a fe 3a 71 be 39 3a 83 99 8f 3a ed 07 b0 3a
       0.0019381682 0.0007085568 0.0010955784 0.0013430096
000170 f1 bd 07 3b 37 53 63 ba 31 a7 81 b9 47 e9 31 ba
       0.002071258 -0.0008671763 -0.00024729365 -0.0006786775
000180 18 f1 e4 3a c1 52 e2 bb 93 ce bb ba 0f 9f 3d 3a
       0.0017466871 -0.0069068377 -0.0014328532 0.00072334794
000190 60 f6 98 ba 76 56 0d 39 7c a7 57 3a e9 ba 77 3a
       -0.0011670105 0.00013479017 0.0008226556 0.0009450154
0001a0 94 ae 6b 3a 32 61 a1 3a 68 5b b6 ba 95 30 96 ba
       0.0008990553 0.0012312292 -0.0013912739 -0.001145857
0001b0 0d d0 a8 3a 62 8d 0f ba 9d c6 6e ba 92 1c 9f 3a
       0.0012879387 -0.0005476085 -0.0009108575 0.0012139252
0001c0 65 4a f4 ba 8a 5b 7f 3a ea 6b 02 ba c8 6b 41 3b
       -0.0018637894 0.00097411184 -0.0004975187 0.0029513706
0001d0 44 35 e7 3a e8 e8 82 3a e5 93 b2 b9 33 04 68 3b
       0.0017639776 0.0009987624 -0.00034060996 0.0035402894
0001e0 48 6b 2c b9 0e a2 5b 3a 96 2d 81 bb ec fb e7 3a
       -0.00016443164 0.0008378335 -0.003942202 0.001769898
0001f0 35 da 00 3a 98 fe 12 3b 2a 9a c4 b9 7b 26 a2 b9
       0.0004915328 0.0022429582 -0.00037498894 -0.00030927718
000200 c1 6b 20 ba 1d bb d1 ba 45 26 0f ba 20 31 d8 3b
       -0.0006119572 -0.0016001199 -0.00054607197 0.006597653
000210 a8 e2 49 ba c9 3c 18 bb 0a e8 a2 3a b4 d1 0e bb
       -0.0007701316 -0.002322959 0.0012428772 -0.0021792473
000220 fd 9c 1a ba 01 44 8c 3a 10 88 3d 3a f6 e1 9d b9
       -0.0005898027 0.0010701419 0.0007230053 -0.00030113728
000230 54 f1 92 b9 5a cd 10 ba fa ca 47 ba 38 62 75 ba
       -0.00028027094 -0.0005523764 -0.00076214934 -0.0009360644
000240 03 ee 75 3a 1b 04 da b9 09 53 26 bb e2 51 5d ba
       0.0009381475 -0.0004158326 -0.0025379083 -0.00084426824
000250 b7 3d fd ba af c2 98 bb e6 2d fd 39 80 89 83 b9
       -0.0019320761 -0.00466188 0.00048290117 -0.00025088713
000260 a6 ed 41 3a 04 14 10 ba 69 40 01 3a ed fc 0a 3b
       0.0007397778 -0.00054961466 0.00049305573 0.0021207884
000270 45 41 16 bb ed 71 6d ba a7 21 8e b9 b0 4f 96 bb
       -0.0022927087 -0.0009057809 -0.00027109424 -0.004587136
000280 3c c1 c0 3a f6 c8 d5 3a 6f 3e 16 bb e8 a3 b3 ba
       0.0014706026 0.0016310501 -0.0022925397 -0.0013705464
000290 2a eb 02 b9 d8 a0 fa ba 29 81 ba 39 8a 76 95 3a
       -0.00012485372 -0.0019121422 0.00035572916 0.0011403125
0002a0 f0 5a 91 ba 1a 5c 1a bb ed 29 d9 3a 8e ba 02 3b
       -0.0011089724 -0.0023553432 0.0016568281 0.001994762
0002b0 ab cb e8 b8 91 34 45 ba 85 8a 79 3a 96 7b 01 ba
       -0.00011100558 -0.00075227866 0.0009519237 -0.0004939375
0002c0 b5 1a 24 3a 07 5b 18 3a 35 d8 26 ba 17 c0 3a 3b
       0.0006260083 0.0005811904 -0.0006364615 0.0028495842
0002d0 74 80 be 3a 52 2b e8 b6 ae 65 07 39 21 2e 44 3a
       0.0014534132 -6.919182e-06 0.00012912482 0.00074836804
0002e0 93 8e f7 b9 2d c4 fc 39 3c 11 71 3a 76 07 67 3a
       -0.00047217737 0.00048211348 0.00091959885 0.00088130624
0002f0 0d 3e 12 3a 2e 34 45 3a ed ba e5 b9 1a 43 8c 3b
       0.00055787043 0.0007522729 -0.00043817554 0.00428046
000300 43 e5 d6 3a 8c 42 82 bb f8 02 16 bb 1a dc d9 38
       0.001639523 -0.003975218 -0.0022889953 0.000103883634
000310 8e 33 17 ba 5c bc 63 3a 01 44 3e 3a f3 e6 a2 ba
       -0.0005767875 0.00086874305 0.0007258058 -0.0012428447
000320 12 9f 52 3b a7 90 bd ba 34 3e a6 3a 67 5b 93 b9
       0.003213827 -0.0014462665 0.0012683333 -0.00028106125
000330 a2 23 d7 b9 7f b7 44 3a 52 43 b0 3a e2 47 d9 3a
       -0.00041034544 0.00075041497 0.0013447797 0.0016577209
000340 67 57 90 ba 2d 8f 3d ba ab 1d 92 39 0f 53 8d 39
       -0.0011012376 -0.00072311127 0.00027869394 0.000269555
000350 20 a1 71 ba 01 57 ce ba f3 30 ca b9 6a 27 9c ba
       -0.000921743 -0.0015742482 -0.00038564912 -0.0011913602
000360 e7 15 2d ba 4b f4 02 bc f9 83 08 bb f9 03 06 3c
       -0.000660269 -0.007992814 -0.0020830615 0.008179658
000370 58 3c f3 ba 28 1e cf 3a 48 20 91 bb 1b 34 01 3b
       -0.0018557413 0.0015801834 -0.004428897 0.0019714895
000380 d9 5e 15 3b 11 85 01 bb 44 fe 02 bb bf bc 98 b9
       0.002279213 -0.0019763152 -0.001998798 -0.00029132326
000390 69 c2 c5 39 25 e3 78 3a 45 0e 2e bb d4 86 7f 3a
       0.00037719615 0.00094942964 -0.0026558798 0.0009747569
0003a0 28 87 81 3a 37 6f 97 3b c0 80 11 3a 6e 2f 11 3b
       0.0009882199 0.004621412 0.0005550496 0.0022153514
0003b0 69 4e c1 ba b7 7c e9 b9 61 c3 95 ba 30 30 a3 39
       -0.00147481 -0.00044534143 -0.0011426025 0.00031125685
0003c0 ca 5b a7 39 b9 f9 26 bb 3f 0a 9c b9 84 7e 2f 3a
       0.0003192111 -0.0025478436 -0.00029762273 0.00066945725
0003d0 75 1d eb ba 5d 55 ed 38 67 d2 a7 3a ed 78 59 bb
       -0.0017937856 0.00011316941 0.0012803794 -0.003318365
0003e0 d5 a8 ef 39 b6 a5 68 3a 96 5a 24 3b a1 11 15 3b
       0.00045711422 0.00088747905 0.0025078407 0.0022746103
0003f0 26 0e 71 ba 20 bb 46 3a 24 b2 82 b9 cd 9b 63 3a
       -0.00091955287 0.00075809844 -0.00024928257 0.0008682579

exp_avg_sq f4 [2, 768]
000000 95 6c 15 38 07 ae 01 39 f6 b2 56 38 16 94 c8 39
       3.5625493e-05 0.00012367229 5.1188246e-05 0.00038257305
000010 6c da 65 39 b4 60 8d 39 d2 77 1c 38 5a df 97 38
       0.0002192051 0.00026965665 3.730489e-05 7.2418436e-05
000020 24 3c b3 38 fa 38 1c 38 6f 44 e0 38 1d e8 ab 38
       8.546587e-05 3.7246362e-05 0.00010693899 8.19715e-05
000030 7c 99 b6 38 d9 33 04 39 6b 61 ad 38 f5 33 d7 38
       8.707025e-05 0.00012607816 8.267428e-05 0.00010261677
000040 a4 0d 34 39 57 65 a3 38 74 97 42 38 e4 47 c6 38
       0.00017171219 7.791322e-05 4.6394256e-05 9.4547664e-05
000050 70 a9 5a 38 61 06 58 38 72 88 84 38 33 c5 e6 38
       5.213305e-05 5.1504354e-05 6.3196654e-05 0.00011003986
000060 8b 0e 9a 38 45 f4 43 38 ae d3 5b 38 ca 3f 42 38
       7.346001e-05 4.6719117e-05 5.241081e-05 4.6312613e-05
000070 1d 25 70 38 ab b5 c2 38 e1 de 71 38 be 12 b3 38
       5.7255023e-05 9.284479e-05 5.766645e-05 8.538876e-05
000080 44 e4 52 38 b2 74 3b 38 74 59 d5 38 d9 51 5d 38
       5.028049e-05 4.4692955e-05 0.000101732934 5.2766733e-05
000090 01 8b d9 38 90 27 6a 38 b9 04 55 39 d6 d9 c5 38
       0.00010373258 5.5826793e-05 0.00020315022 9.434267e-05
0000a0 52 74 ae 39 a4 4b 7d 39 40 7d 65 38 6d 55 f5 37
       0.00033274532 0.00024156139 5.4714503e-05 2.9246055e-05
0000b0 e9 5a 69 38 64 17 27 38 b0 da 7b 38 9e 28 bc 38
       5.5636196e-05 3.9837687e-05 6.0046732e-05 8.972104e-05
0000c0 17 8f cd 37 e6 3d 95 38 43 6e af 38 79 7a 52 38
       2.4504536e-05 7.116403e-05 8.365188e-05 5.0181963e-05
0000d0 cd 79 35 38 ab 43 56 38 2d a2 51 38 d7 00 01 39
       4.32672e-05 5.1084597e-05 4.998052e-05 0.00012302712
0000e0 e6 26 da 37 61 d7 4e 39 6e cf 28 38 db a1 54 38
       2.6005739e-05 0.00019725926 4.0247505e-05 5.069548e-05
0000f0 9a bc d2 38 c7 7b 35 3a 2b a2 98 38 d9 17 87 38
       0.0001004871 0.00069230463 7.278131e-05 6.4417436e-05
000100 81 5d 5b 38 a9 d6 93 38 fc ef 2a 38 63 8c 8b 38
       5.230075e-05 7.04949e-05 4.075466e-05 6.6541856e-05
000110 b7 e2 18 38 e8 6a 49 38 59 67 ea 38 a1 fd ad 38
       3.645077e-05 4.80217e-05 0.000111772395 8.296525e-05
000120 c1 d8 10 38 0f 66 65 39 86 10 40 38 da 14 f6 38
       3.4534143e-05 0.00021877162 4.5791756e-05 0.00011734078
000130 cb 7e 8c 38 03 79 97 3c c7 05 01 39 55 68 3d 39
       6.699337e-05 0.01849032 0.00012304551 0.00018063311
000140 26 2e 50 38 23 30 91 38 47 54 a6 3b d0 40 9e 38
       4.9634044e-05 6.923105e-05 0.0050759646 7.5460994e-05
000150 51 e5 a5 38 98 b9 95 39 cc 12 2d 38 83 f5 b4 38
       7.9105266e-05 0.00028557773 4.126392e-05 8.628799e-05
000160 e8 68 83 38 ee aa 3a 38 48 0d 99 38 86 98 d3 38
       6.266107e-05 4.4505046e-05 7.298082e-05 0.00010089674
000170 0b bd 7e 38 2c ab 8b 39 9c b5 0a 38 09 cf 0c 39
       6.073438e-05 0.0002663968 3.30709e-05 0.00013428567
000180 d0 1b 18 38 ec 86 87 3a 3a 69 3f 38 be 9c 1d 39
       3.6265526e-05 0.0010339892 4.563595e-05 0.00015031078
000190 3f 53 3c 39 34 c9 6c 38 75 17 22 39 71 e2 26 38
       0.00017960089 5.645417e-05 0.00015458262 3.9788374e-05
0001a0 75 53 a5 38 32 ec cc 38 d4 b4 0b 39 f4 70 0e 39
       7.883358e-05 9.771473e-05 0.00013323437 0.00013584254
0001b0 26 f8 68 38 3c 1c 0a 38 28 a3 35 38 7d 65 17 39
       5.5544217e-05 3.292806e-05 4.3305714e-05 0.0001443829
0001c0 7a 37 d8 38 b2 16 fc 38 97 8d 2e 38 25 6b f5 38
       0.00010310016 0.00012020524 4.16167e-05 0.000117024676
0001d0 06 f0 96 38 c6 e6 b9 38 8f 1a cf 38 1e 41 62 39
       7.197265e-05 8.864472e-05 9.875476e-05 0.00021577298
0001e0 f1 0a 4f 38 9c bf 8b 38 8d 23 06 3a ee e0 ca 38
       4.9362836e-05 6.6637265e-05 0.0005116992 9.674007e-05
0001f0 0a fe 3a 39 3b 2c 0b 39 ab e1 87 38 90 15 91 38
       0.00017832979 0.0001327255 6.4793356e-05 6.918155e-05
000200 63 e1 99 38 5a ac 8e 38 a9 98 96 37 bc d7 01 3a
       7.33759e-05 6.8031906e-05 1.7952481e-05 0.00049531064
000210 ed f1 27 38 ae 46 c8 38 99 ac e8 38 45 9c 89 38
       4.0041214e-05 9.549908e-05 0.00011094771 6.5617765e-05
000220 7b c4 9f 38 4f 1d b0 38 3a dc 2e 38 78 a4 8d 38
       7.618308e-05 8.397793e-05 4.1689935e-05 6.7540386e-05
000230 b2 35 ba 38 73 41 b7 38 23 42 7f 38 28 f6 e9 37
       8.879173e-05 8.738311e-05 6.0858332e-05 2.789039e-05
000240 e9 17 31 39 9a 04 10 38 30 77 32 38 7d 9a 52 38
       0.00016888943 3.433656e-05 4.254951e-05 5.021178e-05
000250 b1 04 94 38 8c 56 bc 38 1a e4 22 38 77 65 84 38
       7.058064e-05 8.980659e-05 3.8836246e-05 6.31315e-05
000260 fb 31 a8 38 43 be 3b 38 fd f3 bd 38 f2 74 b5 39
       8.020174e-05 4.476147e-05 9.057669e-05 0.0003461014
000270 43 9c 8b 38 a1 df da 38 79 c5 9b 38 c0 ed 0b 39
       6.6571425e-05 0.00010436704 7.427758e-05 0.00013344642
000280 4f 47 13 38 c6 a4 cd 38 c7 fd 96 38 c4 4a 8e 38
       3.5113942e-05 9.805853e-05 7.199827e-05 6.785014e-05
000290 06 4f 28 38 14 6d 68 38 80 4b 04 39 27 a2 b1 38
       4.0127918e-05 5.5414697e-05 0.00012616627 8.470221e-05
0002a0 15 53 47 38 10 f0 d1 38 2f bd d4 38 01 df 3a 38
       4.7522673e-05 0.00010010612 0.00010144186 4.4553544e-05
0002b0 5e 5a 83 38 0e 6f de 37 dc d3 de 38 fe 7b 7f 38
       6.263399e-05 2.6516176e-05 0.00010625247 6.0912214e-05
0002c0 b5 df a4 38 e1 53 7e 38 f0 d8 02 38 40 0c 28 38
       7.861798e-05 6.0636437e-05 3.1196454e-05 4.006573e-05
0002d0 0d db 89 38 db 86 68 38 53 7a a8 38 54 29 48 38
       6.5734705e-05 5.5438704e-05 8.033649e-05 4.7722206e-05
0002e0 61 f1 51 38 ea 19 fe 38 ac 0a 48 38 a1 55 f6 38
       5.0054285e-05 0.00012116491 4.7693655e-05 0.00011746144
0002f0 60 1a 01 39 68 4a f4 38 ca 43 78 38 7e 1f 2c 38
       0.00012312224 0.00011648686 5.919094e-05 4.1037325e-05
000300 48 0e 01 38 3d 2e 3a 39 4f 99 45 39 c7 2d f5 38
       3.0769297e-05 0.00017755567 0.00018844496 0.00011691037
000310 d8 7c 2c 38 2b 75 87 38 cd d2 c9 38 a2 e6 26 38
       4.1124265e-05 6.459126e-05 9.6236916e-05 3.9792278e-05
000320 49 b9 8d 38 52 ca 7d 38 25 d9 10 39 40 1b b4 38
       6.757916e-05 6.0508326e-05 0.00013813803 8.5881446e-05
000330 59 3c b4 38 1e 91 51 38 8f e8 ef 38 de c1 22 38
       8.5943095e-05 4.9964634e-05 0.000114397255 3.8804363e-05
000340 8f fb 95 38 5e 59 d2 38 d9 c6 54 38 73 e1 10 39
       7.15173e-05 0.00010030226 5.072993e-05 0.00013816897
000350 b6 64 c0 38 09 ac 1d 39 16 d1 a5 38 17 81 aa 38
       9.174032e-05 0.00015036775 7.9067584e-05 8.1302765e-05
000360 b5 81 b3 38 2d 75 3e 3b 15 17 84 38 b2 1e da 3a
       8.559545e-05 0.0029061541 6.29855e-05 0.0016641228
000370 23 99 0d 38 a1 84 3d 38 56 e8 95 38 94 af 51 39
       3.375964e-05 4.518463e-05 7.1481496e-05 0.00019997201
000380 35 f8 17 39 6b 9e f7 38 ae 1c 3b 38 98 23 19 38
       0.00014492947 0.000118073855 4.4610984e-05 3.6511192e-05
000390 75 f0 1c 39 52 68 eb 38 d8 bf 43 38 0f f1 ab 38
       0.00014966897 0.000112251044 4.667029e-05 8.198816e-05
0003a0 7e d1 a8 38 ef b5 e5 38 45 66 8e 38 b7 dd ce 38
       8.049885e-05 0.00010953459 6.790137e-05 9.864143e-05
0003b0 87 51 8c 38 bf 64 19 38 92 c4 d7 38 8f 47 64 38
       6.690906e-05 3.657187e-05 0.00010288613 5.442608e-05
0003c0 29 ec 81 39 34 58 44 38 69 de 21 38 49 f1 0a 39
       0.0002478075 4.6812187e-05 3.8592527e-05 0.00013250591
0003d0 ca 86 97 38 9b 8c c4 38 d2 88 60 38 c9 4f e7 39
       7.2253475e-05 9.372198e-05 5.3533186e-05 0.00044119198
0003e0 c9 60 96 38 87 a1 50 38 7b d2 fd 38 2d 86 d8 38
       7.170585e-05 4.97415e-05 0.00012103185 0.00010324675
0003f0 88 04 c8 38 95 50 77 38 b8 84 bb 38 12 21 84 38
       9.537587e-05 5.8964437e-05 8.941576e-05 6.30041e-05

exp_avg f4 [2]
000000 ec ff a8 ba 34 00 a9 3a
       -0.0012893653 0.0012893737

exp_avg_sq f4 [2]
000000 7c f6 0a 3a 7c f6 0a 3a
       0.0005301011 0.0005301011
