2024:05:01_ckpts/operational/Linear/lr_0.001_epoch_100/9.pth (torch, 21075 bytes, 6 tensors)

linear.weight f4 [2, 768]
0	0xbee9724a	-0.45595008
1	0x3d802e3c	0.062588185
2	0xbf1277e1	-0.5721417
3	0xbe486aa1	-0.19571926
4	0x3e0ce730	0.13760066
5	0xbd9bb74a	-0.07603319
6	0x3e5cfc1e	0.2158055
7	0xbe428e1e	-0.18999526
8	0xbb396fff	-0.0028295515
9	0xbe36c708	-0.17849362
10	0x3efd427a	0.4946478
11	0xbcc78d4d	-0.02435937
12	0x3d0727de	0.032997005
13	0xbe1ffd40	-0.15623951
14	0xbef0e592	-0.47050148
15	0x3e27f59e	0.1640229
16	0xbe98af84	-0.29821408
17	0xbd5929e4	-0.053018466
18	0x3d98e349	0.07465226
19	0xbf14bd40	-0.5810127
20	0xbf1feb8d	-0.62468797
21	0xbd1b0bad	-0.03785293
22	0x3af0fcd2	0.0018385893
23	0xbe0bb845	-0.13644512
24	0xbe2214ee	-0.15828297
25	0xbf26a972	-0.65102303
26	0xbec1a38a	-0.37820083
27	0x3e9beea5	0.3045551
28	0x3dda3657	0.10654896
29	0xbe748294	-0.23877937
30	0x3e941c64	0.2892791
31	0x3e8ad411	0.2711492
32	0x3e7b6182	0.24548915
33	0x3ef144f8	0.4712293
34	0x3d06933a	0.03285525
35	0x3e4d94fd	0.20076366
36	0x3d0dc319	0.034609888
37	0x3ecb2e17	0.396836
38	0xbc417ce6	-0.011809563
39	0x3f07e2e5	0.5308059
40	0xbe5d0f2e	-0.21587822
41	0x3eed52dd	0.46352282
42	0x3ebd81f0	0.37013197
43	0xbf2d12dc	-0.676069
44	0xbdec0518	-0.11524409
45	0x3d322401	0.043491367
46	0xbeb4c1b4	-0.35304034
47	0x3e6dfcea	0.2324101
48	0x3e7d1185	0.24713714
49	0x3d77dbbb	0.060512286
50	0xbe112ed1	-0.14178015
51	0xbeaec908	-0.3413775
52	0xbd276a43	-0.040872823
53	0x3c952f6a	0.018211085
54	0x3e98b44c	0.29825056
55	0x3e845203	0.2584382
56	0x3d790880	0.06079912
57	0x3c14a62c	0.009072822
58	0x3f079b8e	0.5297173
59	0x3e2d8911	0.16946818
60	0xbe30506a	-0.17218176
61	0x3e3231a0	0.17401743
62	0xbd23904e	-0.03993254
63	0x3da4721d	0.08029578
64	0x3b83a12c	0.004017016
65	0xbebcfb20	-0.36910343
66	0xbe28343e	-0.16426179
67	0x3e67253a	0.22572795
68	0x3da9a327	0.08283072
69	0x3cd28a8f	0.025700836
70	0xbcb84ded	-0.022498095
71	0xbd65ec10	-0.05613333
72	0xbe3ed7f2	-0.18637064
73	0xbd6a3544	-0.057179704
74	0xbd6d2320	-0.057894826
75	0xbc6c6727	-0.01442889
76	0xbc393a14	-0.011305351
77	0xbdca2ca6	-0.09871797
78	0x3dd8ba9c	0.10582468
79	0xbe5e0618	-0.21682012
80	0xbcba3e9b	-0.02273493
81	0xbc2fb12f	-0.010723396
82	0xbb84ebac	-0.0040564146
83	0xbee219a8	-0.441602
84	0x3b21d35a	0.0024692626
85	0x3d0da99e	0.034585588
86	0x3d486e14	0.048933104
87	0x3ea977f3	0.33099326
88	0xbc20c8db	-0.009813513
89	0xbe5db67d	-0.21651645
90	0x3e8e3664	0.27775872
91	0x3e468752	0.19387558
92	0x3e6780ab	0.22607677
93	0x3eafb3ac	0.34316766
94	0xbc86c3fb	-0.016450873
95	0xbeb6eb00	-0.35726166
96	0xbdd9ff7c	-0.10644433
97	0x3e81044f	0.251986
98	0xbdbf5bef	-0.09343707
99	0xbed85cfc	-0.4225844
100	0xbe814132	-0.25245053
101	0xbd176554	-0.03696187
102	0x3dde27a3	0.10847404
103	0x3de8f8f3	0.11375608
104	0xbe87c67f	-0.26518628
105	0x3f066336	0.52495134
106	0x3c0157d7	0.007894478
107	0xbd627a7e	-0.0552926
108	0xbe4bfcc3	-0.1992064
109	0x3e686366	0.22694167
110	0x3e5db282	0.21650127
111	0x3eb3c041	0.35107616
112	0x3e8bfb39	0.27340105
113	0x3de95428	0.11393005
114	0xbe91a8d8	-0.2844913
115	0x3e03149c	0.1280083
116	0xbda1e382	-0.07904722
117	0x3df2b6b0	0.11851251
118	0xbeeb55d9	-0.45963934
119	0x3d7a16c4	0.061056867
120	0x3e8d9cec	0.27658784
121	0x3d86f786	0.0659018
122	0xbd0967f5	-0.033546407
123	0xbeeea4d2	-0.46610123
124	0x3e0f2123	0.13977484
125	0x3dad222a	0.08453782
126	0xbe926a87	-0.285969
127	0x3f16bb37	0.5887942
128	0xbd7939b7	-0.060846057
129	0x3e62b194	0.22138053
130	0xbc7adfb9	-0.015312129
131	0x3d9e4146	0.07727294
132	0xbe4c41fc	-0.19947046
133	0xbeb9b5f8	-0.36271644
134	0xbe61339f	-0.21992348
135	0xbc4c460f	-0.012467875
136	0xbe2dcf7c	-0.1697368
137	0x3bbd4b66	0.0057768105
138	0x3d8716a8	0.06596118
139	0x3df7fd07	0.12108808
140	0xbe071f07	-0.1319543
141	0xbcb4dc94	-0.022077836
142	0xbe33df9f	-0.17565773
143	0xbd214a6e	-0.039377622
144	0x3c94e5db	0.01817601
145	0xbeb9d0e3	-0.3629218
146	0x3eb6678e	0.3562588
147	0x3e9f5ce0	0.31125546
148	0x3eaaf4b7	0.33389828
149	0xbdfea860	-0.12434459
150	0x3b8b7ebd	0.0042570517
151	0xbe283ffc	-0.16430658
152	0x3ea0dd51	0.3141885
153	0x3cc07f4b	0.023498198
154	0x3da4d41a	0.08048268
155	0x3ec4fa6b	0.38472304
156	0x3e8536de	0.26018423
157	0x3e37bc05	0.17942818
158	0x3da82b6b	0.08211406
159	0xbdc475ce	-0.09592782
160	0xbeac14be	-0.33609575
161	0x3e8f7c7f	0.2802467
162	0x3e9f0a01	0.3106232
163	0xbe69f00a	-0.22845474
164	0x3d35c324	0.044375554
165	0x3eacc660	0.33745098
166	0xbde7fbf5	-0.11327354
167	0xbdf6adbc	-0.12044856
168	0x3db40113	0.087892674
169	0x3e35dd16	0.17760119
170	0xbde132d7	-0.10996025
171	0xbbf390df	-0.0074330415
172	0x3ebf92ea	0.37416774
173	0xbe71cfa6	-0.23614368
174	0xbcd1272a	-0.02553137
175	0xbd854640	-0.0650754
176	0xbe2896fe	-0.16463849
177	0x3e6ea320	0.23304415
178	0x3e6d42b5	0.23169978
179	0x3e788d73	0.24272709
180	0xbd91182b	-0.07084688
181	0xbd52c4ab	-0.05145709
182	0x3f3acac0	0.7296562
183	0x3ea56280	0.32301712
184	0xbcc3a6ad	-0.023883188
185	0xbd923aed	-0.071401455
186	0x3e754117	0.23950611
187	0x3e7c3770	0.24630523
188	0xbe759e8b	-0.2398626
189	0x3e9d379a	0.30706483
190	0xbec98219	-0.3935707
191	0x3d847e53	0.06469407
192	0x3ee37bf5	0.4443051
193	0x3e133c7f	0.14378546
194	0xbe61bd8d	-0.22044964
195	0x3ea1c9c5	0.3159925
196	0xbcfe2ba0	-0.031026661
197	0xbeba453e	-0.36380953
198	0xbeb7b589	-0.35880688
199	0xbe2f6a9a	-0.17130509
200	0xbf0abec8	-0.5419736
201	0xbef4f2fd	-0.47841635
202	0x3d57d1ef	0.052690443
203	0xbdb08e9b	-0.0862095
204	0x3e0e1056	0.13873419
205	0x3ded585a	0.11589117
206	0x3e002625	0.12514551
207	0xbe4ce740	-0.2001009
208	0x3e06f506	0.13179407
209	0x3e6ce1a3	0.23132949
210	0xbe3f4ecb	-0.18682401
211	0xbe18dd67	-0.14928208
212	0xbe536592	-0.20644215
213	0x3c08a752	0.0083406735
214	0xbe7728e4	-0.24136692
215	0x3e854647	0.2603018
216	0x3e7d5d0f	0.2474253
217	0xbe07878c	-0.13235301
218	0x3e28f6d1	0.16500403
219	0xbd1728f0	-0.036904275
220	0xbe945c52	-0.28976685
221	0x3d901e1b	0.07036992
222	0x3de08117	0.10962122
223	0x3dfc0ecd	0.123075105
224	0x3d9e646f	0.07734
225	0x3dbd6210	0.092472196
226	0x3d20ad27	0.03922763
227	0x3e1bcb8b	0.15214364
228	0x3d5c7edb	0.053831916
229	0x3d80d31d	0.06290267
230	0x3e5a8edb	0.21343558
231	0xbe258342	-0.16163352
232	0x3dacafd7	0.08431976
233	0xbe0e4407	-0.13893138
234	0xbe1e7d09	-0.15477385
235	0xbcb5239f	-0.022111712
236	0xbca8fa93	-0.020627296
237	0xbd68048f	-0.056644972
238	0xbd95f944	-0.07322934
239	0xbcb045e6	-0.021517705
240	0xbd8ec688	-0.069714606
241	0x3e58bb55	0.21165211
242	0x3e75a581	0.23988916
243	0xbe753dfb	-0.23949425
244	0xbd717461	-0.05894888
245	0xbea661ab	-0.3249639
246	0x3e8a2d93	0.26987895
247	0x3e5dc59e	0.21657416
248	0x3d8c54d3	0.068521164
249	0x3e4dfced	0.20116015
250	0xbdff77a8	-0.124739945
251	0xbe0daadb	-0.13834707
252	0x3c6d35ea	0.014478186
253	0x3cb5edd1	0.022208126
254	0xbddc5fa8	-0.107604325
255	0x3e4aecb0	0.19816852

linear.bias f4 [2]
0	0x3c761e94	0.015021939
1	0xbd82640e	-0.0636674

exp_avg f4 [2, 768]
0	0x3b21b591	0.0024674872
1	0xbae22411	-0.001725318
2	0x3a326ec0	0.0006806664
3	0xbb446818	-0.0029969271
4	0xbb46270c	-0.0030235676
5	0x3b34f3a0	0.0027611032
6	0xba27e479	-0.00064045895
7	0xbaa5a1f7	-0.001263677
8	0x3b023117	0.0019865686
9	0xb8284529	-4.011873e-05
10	0xbb880dda	-0.004152042
11	0xbb02832c	-0.001991461
12	0xb9de834a	-0.00042440958
13	0xbaa675e5	-0.001269993
14	0x3abbf754	0.0014340677
15	0xbb5c3411	-0.003360037
16	0x3926dda9	0.00015913568
17	0xbb2afe75	-0.002609161
18	0x3ace3b77	0.0015734275
19	0xba5b5664	-0.000836706
20	0xba46bfb7	-0.00075816683
21	0x3aeced58	0.0018076105
22	0x3aba48a8	0.0014212327
23	0xb9b3a3f3	-0.00034263692
24	0x3a05352f	0.00050814723
25	0xbaeb2dc1	-0.0017942713
26	0x3aeac72f	0.0017912145
27	0x3b339040	0.0027399212
28	0x39a628c8	0.00031692372
29	0x3a67d21e	0.00088432606
30	0xbaf359d9	-0.0018566205
31	0xba9608a5	-0.0011446668
32	0x3b44bead	0.0030020878
33	0xba8f5389	-0.001093493
34	0xbb053b1e	-0.0020329426
35	0xba564482	-0.00081736606
36	0xba88d3bf	-0.0010439082
37	0x39db4ceb	0.00041828243
38	0xbab3b1f2	-0.0013709648
39	0x3b48b267	0.0030623914
40	0xbae9aaee	-0.001782743
41	0x3adab25e	0.0016685238
42	0xb8169441	-3.590086e-05
43	0x3aac14b2	0.0013128726
44	0x3a869e6c	0.0010270602
45	0xba714526	-0.00092037243
46	0x3a6e98b6	0.0009101735
47	0xbb6506e0	-0.0034946725
48	0x3ac2ea52	0.0014870858
49	0x3a47fada	0.00076286274
50	0xba1f5346	-0.00060777774
51	0x3a8ca857	0.0010731322
52	0x3a43e89d	0.0007473322
53	0xbaf0f56a	-0.0018383686
54	0x39092220	0.0001307805
55	0x3aaf10bd	0.0013356429
56	0x3a9dc39e	0.0012036448
57	0x3b68967e	0.003549009
58	0xbb050a51	-0.0020300339
59	0x39652154	0.00021851558
60	0x393c0b71	0.0001793334
61	0xbb9c4aa5	-0.0047696405
62	0x3a4f39f7	0.0007905061
63	0x3afbfc26	0.0019224926
64	0x3aa4b77f	0.0012566893
65	0xb8ee2481	-0.00011355524
66	0xba3b96a8	-0.00071559334
67	0xbad9c795	-0.0016615266
68	0xba601c5d	-0.00085491483
69	0x3a09764c	0.0005243763
70	0x3a4322c3	0.00074438396
71	0xbb3f447c	-0.0029185107
72	0xba79d22e	-0.00095299154
73	0x3b1dba59	0.002406737
74	0x3ab89cf2	0.0014084859
75	0xbb157e6a	-0.0022810944
76	0xba31a850	-0.00067770947
77	0x3b72e8df	0.0037065072
78	0xbb4fde7f	-0.0031718311
79	0xba91b175	-0.0011115508
80	0xb92c0ff1	-0.00016409137
81	0x3aa44269	0.0012531999
82	0xb9e47bce	-0.0004357979
83	0x38b366a3	8.554503e-05
84	0xba8392bb	-0.0010038236
85	0x3a56688c	0.0008179031
86	0xba480983	-0.0007630812
87	0x3a6b9552	0.0008986789
88	0xbb1370c7	-0.002249764
89	0xba48c418	-0.0007658615
90	0x3a73bae4	0.0009297563
91	0xbb148cfa	-0.0022667036
92	0xbb042eed	-0.0020169572
93	0x3a8d1eca	0.0010766622
94	0x3a7e9b7a	0.0009712499
95	0xba5c7cba	-0.00084109197
96	0xbad45263	-0.001619887
97	0xba6658bd	-0.0008787027
98	0x3a6666f8	0.0008789147
99	0xb9e97e2e	-0.00044535234
100	0x3b1aa3db	0.00235962
101	0x3b110e23	0.002213367
102	0xb9fc4c29	-0.0004812193
103	0xbabd48bf	-0.0014441236
104	0xbb4dd013	-0.003140454
105	0xbaab74c0	-0.0013081059
106	0x3aa14a4d	0.0012305469
107	0xbb6464f1	-0.0034850205
108	0x3a32da25	0.0006822667
109	0x39a2706f	0.00030982817
110	0xba8613c4	-0.0010229279
111	0xb9d12d80	-0.00039897487
112	0x3ac46c4d	0.001498589
113	0x3aae1bbb	0.0013283411
114	0x3a160599	0.000572288
115	0xbb17f71a	-0.0023188055
116	0x3a6cf810	0.000903965
117	0xbaf38743	-0.001857974
118	0x3b2b188d	0.0026107163
119	0x3aa05770	0.001223309
120	0x3b2881c9	0.0025712124
121	0xb902fbf1	-0.00012491622
122	0x3a2c1e37	0.00065657817
123	0xbb22d9e7	-0.0024849118
124	0xba628c3b	-0.0008642112
125	0xb9a8c78d	-0.00032192134
126	0x38f2dbbe	0.000115803894
127	0xbb0c73fc	-0.0021431437
128	0x3a269c30	0.0006355671
129	0x3abcdf39	0.0014409787
130	0xba2978f6	-0.0006464863
131	0xbbaedfbb	-0.0053367293
132	0xba5bec9f	-0.00083894463
133	0xba199473	-0.00058586075
134	0xb9c2ea4d	-0.0003717713
135	0x3a953433	0.0011383354
136	0x3a96ee79	0.0011515162
137	0xba7a7aa8	-0.00095550204
138	0xbaa836c0	-0.00128337
139	0x3afac9fb	0.0019133681
140	0x3912ecd4	0.0001401187
141	0xba03cba7	-0.00050276
142	0xba4d2ba4	-0.00078266324
143	0xb89c260d	-7.445747e-05
144	0x3a72ec94	0.000926682
145	0xbab09c65	-0.0013474344
146	0xba51c602	-0.0008002223
147	0xb9ef4de6	-0.0004564367
148	0xba9059c2	-0.0011013078
149	0x3a325171	0.0006802297
150	0x3ad0bdca	0.0015925702
151	0xbb1af1da	-0.002364269
152	0xbb05156b	-0.0020306956
153	0x3abd52e0	0.0014444254
154	0x39561592	0.00020416666
155	0xbb7666cd	-0.0037597895
156	0xbae0b992	-0.0017145148
157	0x3b2674d9	0.0025399236
158	0x3a8b219c	0.0010614875
159	0x3ae07371	0.0017124248
160	0x3aefa261	0.0018282646
161	0x3b2b2d4f	0.0026119535
162	0xbb8e534f	-0.0043434273
163	0xba621e6a	-0.0008625748
164	0x3b3896c4	0.0028166035
165	0x38a7c3e0	7.999665e-05
166	0x3a63fc78	0.00086969836
167	0xba496741	-0.00076829275
168	0x3b451f59	0.00300785
169	0xba0d2de7	-0.0005385563
170	0xba1fc351	-0.0006094473
171	0xbb0c0ffe	-0.0021371837
172	0xba8ad412	-0.0010591766
173	0xbb055100	-0.002034247
174	0xbb2dfb82	-0.0026547615
175	0xba795e7b	-0.0009512675
176	0xba76c6da	-0.00094137865
177	0xbb283487	-0.0025666074
178	0xb9966f1d	-0.00028693015
179	0x3b3277a2	0.0027231951
180	0xba502b44	-0.00079410174
181	0xb96bd0f1	-0.00022489183
182	0x3b44e9d1	0.0030046592
183	0x3b117ba3	0.0022198937
184	0xba1e2ea2	-0.00060341705
185	0x39d4f4c8	0.00040618167
186	0xb9772cd0	-0.0002357245
187	0xb9c22c6b	-0.00037035657
188	0x3b0c6b1f	0.0021426154
189	0x385fef7e	5.3390388e-05
190	0x39986e84	0.0002907404
191	0xba640822	-0.00086987216
192	0xb890a8df	-6.89791e-05
193	0x3b383d58	0.0028112736
194	0x3ad20a35	0.001602477
195	0xb94af2a7	-0.00019354616
196	0x3ab3402a	0.0013675739
197	0x39e7f1c3	0.0004423988
198	0xb727239d	-9.9622675e-06
199	0xb93280e8	-0.00017023424
200	0xba0ef4e0	-0.00054533593
201	0x39c9200a	0.00038361578
202	0x391c39e8	0.00014898891
203	0x38298ba5	4.0422794e-05
204	0x3adf7e4b	0.0017051188
205	0xbb11741b	-0.0022194448
206	0xbaedc6ed	-0.001814095
207	0x3abfca51	0.0014632439
208	0x39c0f8bf	0.00036806424
209	0xb9a7942c	-0.0003196312
210	0xbb2829cc	-0.0025659679
211	0xbada2248	-0.0016642297
212	0x3b369c02	0.0027863984
213	0x3bc55b3b	0.0060228384
214	0xbb30991c	-0.002694673
215	0x385eeb02	5.3147793e-05
216	0x3a6bdeb0	0.00089977216
217	0xbac39119	-0.0014920562
218	0x3b24196e	0.0025039571
219	0x3baf99eb	0.0053589246
220	0x3a8e366e	0.0010849962
221	0xbb3c9b7f	-0.0028779206
222	0xba593e45	-0.0008287172
223	0x3b559088	0.0032587368
224	0x3a82c7f0	0.0009977799
225	0xb9b37302	-0.00034227228
226	0x3acf37c0	0.0015809461
227	0xb9919ffd	-0.00027775756
228	0xbaff3ca3	-0.0019473027
229	0x3ae5319b	0.0017486097
230	0xbb100081	-0.0021972957
231	0x37676923	1.3793152e-05
232	0xbb22907b	-0.0024805355
233	0xbba44fff	-0.005014419
234	0xbaafccc7	-0.0013412469
235	0xb9c49da3	-0.00037501482
236	0x39f8da0b	0.000474647
237	0x3a1fe798	0.0006099879
238	0x3b4926f2	0.003069338
239	0x3aa2dc19	0.0012425213
240	0x3b1a9bb8	0.002359135
241	0x3ad8a364	0.0016528186
242	0x38c2b511	9.284367e-05
243	0xba5cd63e	-0.00084242586
244	0xba9ccf3d	-0.0011963617
245	0xbacf414d	-0.0015812308
246	0x39a3e144	0.0003125762
247	0xba1f501b	-0.00060773053
248	0xba5398af	-0.0008071763
249	0x3b29dab4	0.002591771
250	0x3a1f62c1	0.0006080084
251	0x3b5d7b72	0.0033795503
252	0x3af9b675	0.0019051569
253	0xbafc4cc4	-0.0019248952
254	0xbb993243	-0.004675181
255	0xb9c73568	-0.0003799603

exp_avg_sq f4 [2, 768]
0	0x37e936d6	2.78013e-05
1	0x390c7735	0.00013395849
2	0x38a8efd1	8.0555335e-05
3	0x39f16c59	0.00046047827
4	0x3986c083	0.00025701904
5	0x397d1819	0.00024136937
6	0x382ebb96	4.1659536e-05
7	0x389d9f38	7.516e-05
8	0x38887f16	6.508657e-05
9	0x381c60e4	3.7283535e-05
10	0x38f04f05	0.0001145881
11	0x3891bb39	6.949012e-05
12	0x38b4a834	8.614399e-05
13	0x38c9437e	9.596998e-05
14	0x38a53502	7.8776866e-05
15	0x38a87235	8.032137e-05
16	0x39610c37	0.00021462223
17	0x38abcfc6	8.192616e-05
18	0x386f1dd7	5.700983e-05
19	0x38ae7561	8.31883e-05
20	0x3862459f	5.394744e-05
21	0x382a043a	4.0535095e-05
22	0x3886c90f	6.427068e-05
23	0x38b480a7	8.607032e-05
24	0x388099d2	6.132167e-05
25	0x388ae766	6.623454e-05
26	0x38620b6e	5.3893244e-05
27	0x386b7069	5.6133056e-05
28	0x385af6eb	5.220521e-05
29	0x3884c2c6	6.33053e-05
30	0x38ce917c	9.849944e-05
31	0x391481fa	0.000141628
32	0x38a9f29a	8.103736e-05
33	0x381fbde6	3.808541e-05
34	0x38c0e2c9	9.1975155e-05
35	0x380abef0	3.307959e-05
36	0x38921667	6.965995e-05
37	0x384fe6a7	4.9567458e-05
38	0x39214e24	0.00015383266
39	0x389e920b	7.56123e-05
40	0x39779f24	0.0002361504
41	0x394f56f0	0.00019773445
42	0x38874afc	6.4512686e-05
43	0x3827b4e3	3.9984367e-05
44	0x38852183	6.348176e-05
45	0x3807cffb	3.2380205e-05
46	0x385cc7ea	5.2638272e-05
47	0x38abe1c9	8.195971e-05
48	0x38021bbb	3.102024e-05
49	0x38adc4eb	8.285962e-05
50	0x387ebbe9	6.0733324e-05
51	0x3825d9f6	3.9542057e-05
52	0x3826be1a	3.975453e-05
53	0x3896ae4a	7.185021e-05
54	0x384f3173	4.93987e-05
55	0x38e60b0b	0.000109693116
56	0x381b949a	3.7093276e-05
57	0x39439928	0.00018653704
58	0x386170ac	5.3749114e-05
59	0x385546bd	5.0849038e-05
60	0x38ae4350	8.3095045e-05
61	0x399a6198	0.00029445882
62	0x38b41299	8.586533e-05
63	0x3842859c	4.6377638e-05
64	0x384e76b0	4.9224764e-05
65	0x3830ee17	4.218341e-05
66	0x380628ea	3.1986194e-05
67	0x387bade1	6.0005e-05
68	0x3820e877	3.8363472e-05
69	0x3826d3d2	3.9774757e-05
70	0x38cc52de	9.742913e-05
71	0x38a0dc7c	7.670463e-05
72	0x38019d58	3.0902534e-05
73	0x3999d44e	0.00029340613
74	0x38554b16	5.0853087e-05
75	0x388a3bea	6.591513e-05
76	0x389af602	7.389115e-05
77	0x3c45e2b8	0.01207798
78	0x38ce5dd3	9.8403216e-05
79	0x393771b5	0.00017494599
80	0x38628bbb	5.4012733e-05
81	0x38933278	7.018907e-05
82	0x3b6408bf	0.0034795252
83	0x387178d4	5.7571408e-05
84	0x385913a8	5.1755138e-05
85	0x39984a9a	0.00029047282
86	0x383132a3	4.2247248e-05
87	0x38a0b356	7.6627985e-05
88	0x38cc8d4e	9.753798e-05
89	0x37f64b12	2.9360443e-05
90	0x389e182f	7.538532e-05
91	0x38a694db	7.943223e-05
92	0x38dfddc9	0.00010674779
93	0x39a18ef3	0.00030814818
94	0x3802e8e8	3.1211326e-05
95	0x38dff67d	0.00010679381
96	0x383d90fa	4.519613e-05
97	0x3a05fe5b	0.0005111449
98	0x38376bb1	4.3730895e-05
99	0x38b715c8	8.730177e-05
100	0x390c8f22	0.00013404762
101	0x3828ecae	4.0274746e-05
102	0x39382305	0.00017560653
103	0x3833b4de	4.284537e-05
104	0x38d2a54d	0.0001004437
105	0x3899bad2	7.3304065e-05
106	0x38b55ed1	8.6484135e-05
107	0x390bb9fe	0.0001332536
108	0x3828eb4b	4.0273455e-05
109	0x37f04fd8	2.864741e-05
110	0x3885b2ac	6.3752144e-05
111	0x395275e3	0.00020071077
112	0x38f753fb	0.000117935204
113	0x386ef423	5.6970992e-05
114	0x382ea98d	4.164274e-05
115	0x38ed2737	0.00011308345
116	0x386d7673	5.6615518e-05
117	0x38e50324	0.00010920156
118	0x386d3f1b	5.6563975e-05
119	0x3947bda2	0.00019048763
120	0x386efa09	5.6976485e-05
121	0x384badce	4.856084e-05
122	0x39c7e9c3	0.00038130404
123	0x390c3492	0.00013371024
124	0x398d13fe	0.0002690851
125	0x38b9b0ca	8.854417e-05
126	0x3880a452	6.134123e-05
127	0x38bd9849	9.0405876e-05
128	0x3830fa95	4.2195043e-05
129	0x384a30be	4.8205948e-05
130	0x37fe234c	3.0295596e-05
131	0x39fd5fac	0.00048327202
132	0x38275fdf	3.990519e-05
133	0x38b8c504	8.810501e-05
134	0x38882beb	6.493166e-05
135	0x384c0230	4.8639427e-05
136	0x38696246	5.5643053e-05
137	0x389c88c2	7.464133e-05
138	0x384f0cc1	4.9364524e-05
139	0x380098ff	3.0660067e-05
140	0x38cdd7f2	9.815385e-05
141	0x38abbdd5	8.1892744e-05
142	0x386689ee	5.496473e-05
143	0x381caaa4	3.735222e-05
144	0x3900fcac	0.00012301159
145	0x381afcae	3.6951787e-05
146	0x38247ddd	3.9217866e-05
147	0x389b3623	7.40106e-05
148	0x385b36e8	5.2264804e-05
149	0x38d652e7	0.00010219757
150	0x38a0d240	7.668557e-05
151	0x38edb583	0.0001133485
152	0x38ae4010	8.308899e-05
153	0x388139eb	6.1619874e-05
154	0x38afb55b	8.37843e-05
155	0x3913bad5	0.00014088613
156	0x389bae45	7.423436e-05
157	0x38ab0b03	8.1559665e-05
158	0x38d23e40	0.00010025175
159	0x38e27c34	0.000107996544
160	0x382eda52	4.168816e-05
161	0x389bc000	7.426739e-05
162	0x38835f69	6.264338e-05
163	0x3896c791	7.1897295e-05
164	0x38122fe8	3.485373e-05
165	0x385255be	5.0147755e-05
166	0x39016270	0.0001233907
167	0x389ddfdd	7.528041e-05
168	0x386745ef	5.5139823e-05
169	0x38e819d2	0.000110674315
170	0x38c9f5b6	9.630194e-05
171	0x38370fd9	4.364536e-05
172	0x385096c3	4.9731472e-05
173	0x382fa231	4.1874304e-05
174	0x38bb16d8	8.92111e-05
175	0x38c02234	9.161644e-05
176	0x3850d278	4.978708e-05
177	0x386b5681	5.610893e-05
178	0x380c90ca	3.3513446e-05
179	0x3872158b	5.771736e-05
180	0x3833d9e0	4.2879838e-05
181	0x38a018ab	7.633989e-05
182	0x3898c46b	7.2845105e-05
183	0x3831b26a	4.236625e-05
184	0x388f418a	6.830979e-05
185	0x38b60d96	8.680967e-05
186	0x383e1f1b	4.53285e-05
187	0x38bf0f9d	9.110498e-05
188	0x38f8c561	0.00011862326
189	0x387e861e	6.0683225e-05
190	0x38b44fcb	8.5979314e-05
191	0x38323abe	4.2493215e-05
192	0x3854c59b	5.0728773e-05
193	0x39189aef	0.00014553567
194	0x38e61f55	0.00010973091
195	0x38d0194f	9.922927e-05
196	0x386a0a87	5.5799752e-05
197	0x388f5e1d	6.836301e-05
198	0x38b5610c	8.648829e-05
199	0x389ec68d	7.57101e-05
200	0x38e93658	0.00011120428
201	0x3889fe35	6.580019e-05
202	0x390cec66	0.00013439506
203	0x385370be	5.041132e-05
204	0x38b41022	8.586074e-05
205	0x38820913	6.200573e-05
206	0x38eb010e	0.0001120587
207	0x38824c66	6.2131134e-05
208	0x3851ad75	4.9991027e-05
209	0x392f67f8	0.00016728032
210	0x38393d75	4.4164673e-05
211	0x38cab0ab	9.6650176e-05
212	0x389293d5	6.9893584e-05
213	0x39778852	0.00023606539
214	0x38928859	6.987219e-05
215	0x38b1eb28	8.483819e-05
216	0x38bfc890	9.1449474e-05
217	0x3ab26828	0.0013611363
218	0x38a6300b	7.9244455e-05
219	0x3a99b1ce	0.0011725964
220	0x38606e01	5.350821e-05
221	0x38469883	4.7348916e-05
222	0x38920ce7	6.964226e-05
223	0x3945dc79	0.00018869516
224	0x38be442c	9.072604e-05
225	0x38d84f67	0.000103144725
226	0x382aacdd	4.069215e-05
227	0x38253fb7	3.9398405e-05
228	0x38d49ea6	0.00010138498
229	0x390e861e	0.00013592138
230	0x3872e6d6	5.791228e-05
231	0x389206ed	6.9631125e-05
232	0x388e4d4c	6.785485e-05
233	0x38d36b97	0.00010081304
234	0x38a51f2f	7.8736215e-05
235	0x38cac802	9.669365e-05
236	0x38977150	7.221347e-05
237	0x380f9db4	3.424073e-05
238	0x38845f24	6.311972e-05
239	0x38b400f2	8.583245e-05
240	0x39573b9d	0.00020526205
241	0x382c204d	4.1038078e-05
242	0x389b2620	7.398077e-05
243	0x390d036f	0.00013448087
244	0x387b6ace	5.9942533e-05
245	0x389b7b97	7.413996e-05
246	0x381cc80f	3.7379617e-05
247	0x39aacf93	0.00032579582
248	0x38c7ee69	9.533467e-05
249	0x383a03b1	4.4349294e-05
250	0x388cbb72	6.7106346e-05
251	0x38dee60f	0.00010628637
252	0x38a53f3f	7.8795936e-05
253	0x383beff3	4.4807744e-05
254	0x388c519d	6.690922e-05
255	0x38660dcb	5.484912e-05

exp_avg f4 [2]
0	0xb9caf698	-0.0003871217
1	0x39caf7d8	0.000387131

exp_avg_sq f4 [2]
0	0x39ce7c7c	0.0003938413
1	0x39ce7c76	0.00039384112
